3 - Policy-based methods/Advanced PG methods/DDPG/checkpoint_critic.pth (torch_old, 426220 bytes, 7 tensors)

fcs1.weight f4 [256, 24]
0.13278702 0.5122887 0.12011807 0.06714513 0.10807406 0.37971124 0.13458343 -0.13880308
-0.10644201 -0.102601096 0.18125045 -0.06597077 -0.13453797 0.098078325 0.022655847 0.032747008
-0.0016600967 0.09190426 0.008158927 0.051117465 0.017214019 0.029510804 -0.016662357 0.026867405
-0.1680598 0.13908416 0.22588757 0.042639554 0.335122 -0.09656191 0.056566965 -0.13061231
0.017973691 0.0020375797 -0.019797666 0.12394541 0.09172425 -0.2184757 -0.027916176 0.02360545
0.009648761 0.017710036 0.012559993 -0.038590763 0.02508638 0.042354345 -0.043080274 0.066116534
-0.08949651 -0.39408872 0.09014168 -0.14124745 -0.01235758 -0.049774624 -0.026027124 -0.037610188
0.03868677 -0.037842095 -0.22957413 -0.023604877 -0.01531157 -0.10820697 -0.061958253 -0.03896742
0.01933155 0.024113843 -0.0062031467 -0.03725002 -0.047373127 -0.0384272 0.018297642 -0.052592795
0.0235226 -0.5356509 -0.32328787 -0.4227486 -0.25829878 0.03313125 -0.020509006 -0.011803385
-0.041891176 0.07032911 -0.121640325 -0.110078916 -0.13398704 0.26003534 -0.11408468 -0.06997486
-0.08516635 -0.037237957 -0.10132002 -0.1283037 -0.05460688 -0.1423033 -0.05885023 0.014237853
-0.12707627 -0.28402957 0.07318299 -0.035886653 -0.071095034 -0.13778815 0.012623036 -0.023811605
0.048234783 -0.014749138 0.016375314 0.06642025 0.10563782 -0.062848724 -0.09147536 -0.092786394
-0.085657515 -0.009051181 -0.014671078 0.011998727 -0.013504456 -0.015285344 0.005391953 0.029132279
-0.028288698 -0.74008536 -0.314091 0.12320558 -0.07523442 0.03260387 -0.042556923 -0.09462158
0.07472479 -0.092794396 0.060420677 0.027620923 -0.08614637 -0.22462352 0.058386814 0.03214562
0.029847158 0.10414585 0.04493094 0.051333763 -0.008222649 0.020490345 0.10310232 0.07130747
0.010928186 0.41116083 0.05057786 0.07345807 0.0032027557 0.032010846 0.06908105 0.02647442
-0.027736645 -0.009695425 -0.17035934 0.033909623 -0.10793976 0.08942397 -0.031952497 -0.09744907
-0.064227305 -0.11083834 -0.07957353 -0.011922986 -0.097055495 -0.06421393 -0.02606803 -0.014103423
0.0040180655 0.24776225 0.12995428 -0.25544983 -0.08461087 -0.15191665 0.00094750087 0.07477685
0.14693989 0.013098823 0.04532667 0.022197848 -0.133435 0.053041387 -0.061973073 -0.123689756
-0.07135397 -0.07152356 -0.024239518 -0.041673712 -0.051310126 -0.1318736 -0.12973066 -0.06369306
0.019682035 0.30513954 0.31899962 -0.46397817 0.12161189 0.08657663 0.17040555 -0.07196885
0.028026167 -0.013813799 -0.22382547 0.057108823 -0.0020226217 0.22456133 -0.016093446 -0.053038273
-0.042588815 -0.017164178 -0.029129487 -0.044447497 0.0014214781 -0.022580143 0.019284865 -0.013190225
-0.05654466 -0.5644937 -0.01681809 -0.15404034 -0.09766154 0.045384545 -0.016228387 0.0014478264
0.043499727 -0.114614815 0.1072545 -0.13120045 -0.03378165 -0.12651512 0.0782869 0.1117898
0.03740473 0.12159036 0.0700633 0.13795994 0.05161589 0.08882123 0.10142478 0.07763003
0.14335544 0.041253638 -0.9696011 -0.49333057 0.07699938 -0.026832126 -0.008841897 0.013019208
-0.0678978 -0.022022916 0.105819084 0.09949277 0.1463361 -0.02310551 0.061484687 0.093229495
00000000: 52f9 073e 5a25 033f 7600 f63d 6383 893d
00000010: ef55 dd3d 8369 c23e 3dd0 093e 6522 0ebe
00000020: 45fe d9bd 8620 d2bd b899 393e af1b 87bd
00000030: 52c4 09be 4add c83d c198 b93c ba21 063d
00000040: 9a97 d9ba 4d38 bc3d 05ad 053c 8c60 513d
00000050: 6a04 8d3c a4c0 f13c 7f7f 88bc 0819 dc3c
00000060: de17 2cbe 146c 0e3e 124f 673e d0a6 2e3d
00000070: 1c95 ab3e 40c2 c5bd c3b2 673d 3cbf 05be
00000080: 903d 933c ea88 053b b72e a2bc 17d7 fd3d
00000090: ecd9 bb3d 18b8 5fbe 77b0 e4bc 3760 c13c
000000a0: d615 1e3c a314 913c 6ec8 4d3c 5911 1ebd
000000b0: f481 cd3c c07b 2d3d f174 30bd 1b68 873d
000000c0: f249 b7bd ffc5 c9be 339c b83d 2ca3 10be
000000d0: 7277 4abc 7ae0 4bbd d636 d5bc 240d 1abd
000000e0: 0576 1e3d 5000 1bbd 7b15 6bbe 045f c1bc
000000f0: 61dd 7abc 9e9b ddbd f0c7 7dbd 4d9c 1fbd
00000100: 335d 9e3c 658a c53c c443 cbbb 7a93 18bd
00000110: 530a 42bd d765 1dbd f0e4 953c 8b6b 57bd
00000120: 78b2 c03c 6b20 09bf fd85 a5be 8172 d8be
00000130: bd3f 84be a2b4 073d 8102 a8bc fc62 41bc
00000140: 1596 2bbd b508 903d 901e f9bd 0e71 e1bd
00000150: e633 09be 5a23 853e 3ba5 e9bd fb4e 8fbd
00000160: b26b aebd d486 18bd df80 cfbd 0c62 03be
00000170: 77ab 5fbd f5b7 11be f00c 71bd e245 693c
00000180: 4820 02be 536c 91be f7e0 953d e2fd 12bd
00000190: 469a 91bd 5618 0dbe dad0 4e3c 8e10 c3bc
000001a0: d691 453d 5ea6 71bc 8625 863c 5707 883d
000001b0: a458 d83d d5b6 80bd 6f57 bbbd cb06 bebd
000001c0: 356d afbd 684b 14bc f65e 70bc 4f96 443c
000001d0: cb41 5dbc 616f 7abc fbae b03b d1a6 ee3c
000001e0: b3bd e7bc 3c76 3dbf 89d0 a0be 3553 fc3d
000001f0: 8114 9abd a38b 053d 2b50 2ebd f5c8 c1bd
00000200: 5009 993d fd0a bebd ac7b 773d 4645 e23c
00000210: 826d b0bd b503 66be 0327 6f3d 20ab 033d
00000220: 0782 f43c 6b4a d53d 8109 383d 5a43 523d
00000230: 4ab8 06bc 5edb a73c 4f27 d33d a709 923d
00000240: 220c 333c ac83 d23e bb2a 4f3d 2f71 963d
00000250: 53e5 513b ce1d 033d 5e7a 8d3d e2e0 d83c
00000260: f637 e3bc 8fd9 1ebc ae72 2ebe d1e4 0a3d
00000270: 850f ddbd ea23 b73d 9fe0 02bd 6193 c7bd
00000280: 9b89 83bd 36ff e2bd 72f7 a2bd a158 43bc
00000290: 08c5 c6bd 9882 83bd 9f8c d5bc 0b12 67bc
000002a0: faa9 833b 63b5 7d3e bc12 053e 52ca 82be
000002b0: 7748 adbd 0a90 1bbe b561 783a 9b24 993d
000002c0: 6977 163e 729c 563c 75a8 393d 43d8 b53c
000002d0: 2fa3 08be ed41 593d 7ad7 7dbd 0e51 fdbd
000002e0: 0822 92bd f27a 92bd f491 c6bc 0eb2 2abd
000002f0: 912a 52bd df09 07be 1dd8 04be 8271 82bd
00000300: 383c a13c 403b 9c3e eb53 a33e 8c8e edbe
00000310: a80f f93d 174f b13d cb7e 2e3e 6864 93bd
00000320: 2297 e53c 4653 62bc 8132 65be f1ea 693d
00000330: f68d 04bb 68f3 653e 67d6 83bc a93e 59bd
00000340: 9c71 2ebd e49b 8cbc f6a0 eebc 940e 36bd
00000350: e450 ba3a fef9 b8bc 4bfb 9d3c d01b 58bc
00000360: 609b 67bd a982 10bf 17c6 89bc c0bc 1dbe
00000370: c602 c8bd 25e5 393d 65f1 84bc fec4 bd3a
00000380: c52c 323d 2cbb eabd 3fa8 db3d 6959 06be
00000390: a15e 0abd 2e8d 01be e254 a03d 0df2 e43d
000003a0: b435 193d 5e04 f93d 597d 8f3d 5f45 0d3e
000003b0: 2f6b 533d e8e7 b53d ccb7 cf3d 7efc 9e3d
000003c0: c5cb 123e 93f9 283d c737 78bf d395 fcbe
000003d0: dab1 9d3d 0ccf dbbc 9bdd 10bc 844e 553c
000003e0: 000e 8bbd 6769 b4bc adb7 d83d dec2 cb3d
000003f0: 21d9 153e c447 bdbc 5ed7 7b3d 1bef be3d

fcs1.bias f4 [256]
-0.22352286 -0.09567579 0.21782863 -0.026043506 0.1759974 -0.19612661 -0.20151244 -0.09260318
0.005470052 0.053057272 -0.13608383 -0.12560831 -0.0092436755 -0.18392278 0.121706784 -0.02744022
-0.11724335 0.20885184 -0.20919538 -0.06538955 0.058343302 -0.12059268 0.17868496 0.23230816
-0.18605609 0.072627604 0.13101588 -0.1429397 -0.22325559 0.14984639 0.074146636 0.27102444
0.26308304 0.15672076 0.16684818 -0.14628546 -0.05335794 -0.07776725 0.14389358 -0.20971482
0.103483446 -0.113593265 0.3556766 0.1566435 -0.009322762 -0.1488814 -0.13076918 -0.17838955
-0.039189268 -0.045960702 0.13879026 -0.049916912 -0.04707983 0.26242 -0.01858485 -0.17241201
-0.06392276 -0.0066297273 0.0055549005 0.2410535 -0.027497334 0.12936693 0.110000275 -0.07063942
0.29546684 0.19706169 0.12532537 0.06538785 0.017276509 0.2032018 -0.09409416 0.17439124
-0.009180475 0.19876243 0.043194592 0.2278029 -0.21156116 -0.1282417 -0.18584889 0.23309377
0.0340912 -0.15330507 -0.21046755 -0.25000948 0.15504763 0.24290885 -0.082984135 -0.118328385
-0.08442967 0.08686332 -0.003257661 -0.12780234 0.18905479 0.21149507 0.04499799 0.28464064
0.013629438 -0.2455347 -0.17864653 -0.021314459 0.02545019 0.23306353 -0.00801585 0.112849586
-0.101356745 -0.06980036 0.20702107 0.07800406 -0.10458624 -0.11579597 -0.25580895 -0.1807705
-0.2256225 -0.17126635 -0.26062468 0.23578654 -0.21144713 0.26287982 -0.14598471 0.03834993
-0.04279147 0.1037957 0.14389874 0.11658297 -0.09240554 0.04578836 -0.06172476 0.25917783
0.29022714 0.27123073 0.25578073 0.16356713 -0.1683802 0.10359152 -0.13206868 -0.08731834
0.27938274 0.0072050397 -0.16732898 0.12833504 0.07566107 -0.059504386 0.11710454 0.22780317
0.13155508 0.24395734 0.20395087 0.17168957 -0.06290839 0.27932343 0.31112555 -0.035689775
0.03241993 -0.21558952 0.1327396 0.04950499 -0.19970427 -0.057116803 -0.20480546 -0.18024766
-0.23251064 -0.17903328 0.20190349 0.035240714 0.26427323 0.181797 -0.07104015 0.246581
-0.08104242 0.2379186 -0.17551686 -0.032696623 -0.088564284 -0.06353404 0.16059151 -0.08078837
0.20827794 -0.14702044 0.18735948 0.2614979 -0.19197398 0.10512541 0.22979015 -0.040365953
-0.18335903 0.006263018 -0.17106222 -0.09061638 0.23997091 0.21558467 0.19905229 -0.15985382
-0.1870227 0.029442068 0.21058375 -0.15068118 -0.086513355 -0.22515368 0.16379373 -0.18800561
0.049714807 -0.16154353 -0.13936175 -0.2503696 -0.18269278 -0.042306233 -0.14781891 0.17141078
-0.17593336 0.06978791 -0.045634277 0.023549367 0.154485 -0.20110062 -0.10793599 -0.14319721
0.10514527 0.21187747 -0.02057854 0.16499215 0.15943016 0.119839355 -0.23380214 -0.05447932
-0.023065431 -0.18816961 -0.24566603 -0.15001425 -0.016334053 0.06588815 0.21978776 -0.04560022
-0.09370466 0.27401465 -0.22880705 -0.22780667 0.20934086 -0.11016302 0.18500671 0.20374912
-0.023008192 -0.17540467 -0.034277894 0.0066503678 -0.08885489 -0.032404058 0.23650472 0.24156581
0.26784894 0.18963371 0.15913379 -0.16396709 -0.099924974 0.13909236 0.1385752 0.2448561
00000000: 2de3 64be abf1 c3bd 780e 5f3e 3159 d5bc
00000010: aa38 343e 6ad5 48be 4759 4ebe bca6 bdbd
00000020: 1f3e b33b 9552 593d 8f59 0bbe 779f 00be
00000030: c972 17bc 4156 3cbe 6841 f93d 50ca e0bc
00000040: 481d f0bd 42dd 553e 5037 56be f5ea 85bd
00000050: 63f9 6e3d 4cf9 f6bd 31f9 363e 31e2 6d3e
00000060: 7d85 3ebe c8bd 943d 0729 063e c95e 12be
00000070: 1d9d 64be 5571 193e 31da 973d b7c3 8a3e
00000080: d2b2 863e 687b 203e 40da 2a3e dbcb 15be
00000090: db8d 5abd 7044 9fbd d758 133e 7bbf 56be
000000a0: 21ef d33d 96a3 e8bd 3e1b b63e 2767 203e
000000b0: 7fbe 18bc 5e74 18be 5be8 05be c0ab 36be
000000c0: ed84 20bd 4a41 3cbd 091f 0e3e ad75 4cbd
000000d0: c8d6 40bd ea5b 863e 413f 98bc c68c 30be
000000e0: f0e9 82bd 2f3e d9bb e205 b63b bbd6 763e
000000f0: 1742 e1bc c478 043e d347 e13d 66ab 90bd
00000100: 6e47 973e 8aca 493e 4b55 003e 11ea 853d
00000110: 7787 8d3c 2214 503e 70b4 c0bd 9e93 323e
00000120: b469 16bc 6188 4b3e d0ec 303d 2a45 693e
00000130: 7da3 58be cb51 03be 2c4f 3ebe 22b0 6e3e
00000140: 37a3 0b3d 01fc 1cbe ce84 57be 3e01 80be
00000150: cec4 1e3e 19bd 783e 96f3 a9bd 2756 f2bd
00000160: 76e9 acbd 65e5 b13d 7b7e 55bb 9ede 02be
00000170: 9497 413e 2a92 583e d04f 383d 6bbc 913e
00000180: 024e 5f3c 736d 7bbe 1eef 36be a99b aebc
00000190: eb7c d03c 35a8 6e3e e954 03bc af1d e73d
000001a0: 2094 cfbd 7ef3 8ebd 55fd 533e 98c0 9f3d
000001b0: 5031 d6bd 7026 edbd 64f9 82be e71b 39be
000001c0: 9609 67be 7260 2fbe 9970 85be 0772 713e
000001d0: 9985 58be 2f98 863e 047d 15be d114 1d3d
000001e0: 1c46 2fbd d792 d43d 315a 133e 0dc3 ee3d
000001f0: 1e3f bdbd 938c 3b3d 1ad3 7cbd f5b2 843e
00000200: a798 943e c1de 8a3e b1f5 823e 247e 273e
00000210: dc6b 2cbe ca27 d43d 033d 07be f5d3 b2bd
00000220: 410b 8f3e 4118 ec3b 4a58 2bbe 436a 033e
00000230: 31f4 9a3d dfba 73bd 81d4 ef3d 3c45 693e
00000240: 60b6 063e f4cf 793e 7fd8 503e 64cf 2f3e
00000250: 1dd6 80bd 7b03 8f3e d94b 9f3e 712f 12bd
00000260: c3ca 043d 80c3 5cbe e4ec 073e bfc5 4a3d
00000270: 477f 4cbe 4ff3 69bd 86b8 51be d892 38be
00000280: 4517 6ebe 8054 37be cabf 4e3e 9158 103d
00000290: d24e 873e fe28 3a3e 807d 91bd bb7f 7c3e
000002a0: 91f9 a5bd efa0 733e b1ba 33be e5ec 05bd
000002b0: 3161 b5bd 221e 82bd 1a72 243e 5f74 a5bd
000002c0: d046 553e 878c 16be 2adb 3f3e 0ee3 853e
000002d0: d494 44be fe4b d73d 1c4e 6b3e c556 25bd
000002e0: 78c2 3bbe 013a cd3b ef2a 2fbe 1595 b9bd
000002f0: efba 753e 3ac2 5c3e 5dd4 4b3e b8b0 23be
00000300: e182 3fbe 7e30 f13c 44a3 573e 2b4c 1abe
00000310: ea2d b1bd b08e 66be 8bb9 273e 8b84 40be
00000320: c1a1 4b3d ab6b 25be d9b4 0ebe 7230 80be
00000330: d113 3bbe 4d49 2dbd d75d 17be 4f86 2f3e
00000340: e027 34be f7ec 8e3d 02eb 3abd 9aea c03c
00000350: 5131 1e3e 52ed 4dbe 8b0d ddbd 4aa2 12be
00000360: 6756 d73d 68f6 583e 5494 a8bc b4f3 283e
00000370: a941 233e 566e f53d d469 6fbe b525 5fbd
00000380: b7f3 bcbc 89af 40be e08f 7bbe 569d 19be
00000390: fece 85bc 5ef0 863d 0b10 613e 4cc7 3abd
000003a0: 3be8 bfbd a64b 8c3e 654c 6abe 2746 69be
000003b0: 735d 563e 269d e1bd 6672 3d3e 9ca3 503e
000003c0: ad7b bcbc 489d 33be fa66 0cbd 54eb d93b
000003d0: 8df9 b5bd 1eba 04bd 4b2e 723e 075d 773e
000003e0: 7f23 893e 572f 423e f8f3 223e fde6 27be
000003f0: 77a5 ccbd 3a6e 0e3e a8e6 0d3e 8fbb 7a3e

fc2.weight f4 [256, 260]
0.24406633 -0.036709882 -0.040930606 -0.056413587 -0.020975579 0.12099719 -0.014931122 0.123434104
-0.14061005 0.09834338 0.11874566 -0.15397662 -0.09653513 0.02441573 -0.04902237 0.011535169
0.081399426 0.105474226 -0.12821968 0.18100701 -0.12631802 0.035738014 -0.022352595 -0.034688726
0.17290452 -0.06301703 -0.06994826 -0.16686179 -0.6431428 -0.041772023 -0.10378082 -0.19508095
-0.07546776 0.03275537 -0.21563213 -0.4626972 0.100258455 -0.16667537 0.0040395693 -0.07951899
-0.012322265 0.16263188 -0.37655926 -0.013673408 0.03990046 0.06636225 -0.117517196 0.10584693
0.08581061 0.1808767 0.03168776 0.31856304 -0.0025131358 -0.21676965 -0.0023919442 0.083812624
0.058379173 -0.16919246 -0.3283611 0.09114816 -0.009901949 -0.27588227 -0.06544482 0.08194144
0.033126447 -0.04141709 0.06820535 0.012735855 0.15843113 -0.08710656 0.04472722 0.12370997
-0.14281033 -0.07895378 -0.07989559 -0.06181422 0.026223475 0.051674526 0.045888934 -0.18535839
-0.10161757 0.00534113 0.055663586 0.08196751 -0.0811513 0.14317106 -0.09830651 0.10442095
-0.0007582369 0.019348847 -0.107196815 0.045641266 -0.33752054 -0.03528389 -0.070993625 -0.0007580466
-0.28163016 0.29872158 0.18956065 -0.11903913 0.30030942 0.013156508 -0.05440196 0.035185467
-0.006150025 0.011768744 -0.00063534634 -0.0114301 0.047031183 -0.48867923 0.23691931 -0.07487844
0.13857573 -0.2459521 0.012547704 0.073914476 0.04809377 -0.004015147 -0.010258191 -0.04175702
0.05007162 -0.25725582 -0.14809369 0.033842433 0.009586928 0.1373591 0.010578824 0.0058021555
0.15541992 -0.018967405 -0.088377774 0.04456721 0.2331403 -0.35058483 0.026911236 -0.50293535
-0.17407323 -0.016447468 -0.19632545 -0.19868667 0.08477298 0.039059434 0.11914737 0.047423977
-0.1116752 -0.05183446 -0.03223061 -0.045231175 0.05994415 -0.10876544 -0.100896895 0.055942446
0.05087507 -0.038704757 -0.034375887 0.6071009 0.053514812 -0.23557824 0.0017997989 -0.07286374
0.14688148 0.01107482 -0.16542278 0.27302805 -0.0645937 0.0010319281 0.2248715 0.05629681
-0.17060249 -0.12040628 -0.16631292 -0.030971374 -0.2734161 -0.17174734 0.1408121 0.038050164
0.00033262183 0.2389843 -0.100619674 -0.08592139 -0.18029745 0.13679431 -0.0021424138 -0.028607816
0.1183207 0.05604035 -0.48055443 0.12841311 -0.10573105 -0.098593906 0.020935602 0.35337383
0.08745099 0.056097142 0.06432222 0.15219472 0.11847624 -0.2416449 -0.3956767 0.050896987
-0.13189463 0.13598129 0.041877706 0.04724272 -0.25667518 -0.13964581 -0.101349086 -0.2532082
0.09371108 0.026086878 -0.20032981 0.032381017 -0.08980478 0.21514449 0.049186036 -0.08111187
-0.05236294 -0.34731802 0.028132632 -0.072513394 -0.042892247 0.24803716 0.11892262 0.032395642
-0.123818815 0.44901103 -0.03259844 0.09736511 0.19745873 -0.2399266 -0.029152786 0.033906445
0.048248004 -0.052049104 0.050439287 0.12041859 -0.13574906 0.071281634 0.03413536 0.0014369334
0.030599661 0.12418945 -0.073712565 -0.36309963 -0.033228923 0.07997669 0.060339477 0.0049388525
0.014344821 -0.267145 0.14429188 -0.048443556 0.025534566 0.09070018 -0.09763453 -0.071983136
00000000: 86ec 793e 1a5d 16bd daa6 27bd ef11 67bd
00000010: fad4 abbc 60cd f73d aaa1 74bc 05cb fc3d
00000020: 15fc 0fbe 4168 c93d ed30 f33d 0cac 1dbe
00000030: 36b4 c5bd 7f03 c83c aecb 48bd 01fe 3c3c
00000040: beb4 a63d df02 d83d 054c 03be e759 393e
00000050: 8359 01be 0662 123d ca1c b7bc c415 0ebd
00000060: e20d 313e 130f 81bd 0941 8fbd d1dd 2abe
00000070: 02a5 24bf 2419 2bbd 0a8b d4bd 4dc3 47be
00000080: d78e 9abd 7f2a 063d abce 5cbe a6e6 ecbe
00000090: 4e54 cd3d f3ac 2abe 5d5e 843b dada a2bd
000000a0: 53e3 49bc f988 263e 60cc c0be 6e06 60bc
000000b0: aa6e 233d eee8 873d dbac f0bd 46c6 d83d
000000c0: 79bd af3d be37 393e 06cb 013d b21a a33e
000000d0: 6cb3 24bb ddf8 5dbe 2ac2 1cbb f4a5 ab3d
000000e0: 001f 6f3d ca40 2dbe f21e a8be e3ab ba3d
000000f0: c93b 22bc 7140 8dbe ef07 86bd ead0 a73d
00000100: 99af 073d f7a4 29bd 3faf 8b3d 0caa 503c
00000110: c53b 223e ed64 b2bd e433 373d a75b fd3d
00000120: df3c 12be 85b2 a1bd 4da0 a3bd e830 7dbd
00000130: 9dd2 d63c aba8 533d 09f6 3b3d 97ce 3dbe
00000140: df1c d0bd a504 af3b 80ff 633d 95de a73d
00000150: a732 a6bd 6f9b 123e ec54 c9bd a7da d53d
00000160: 6bc4 46ba 7981 9e3c 018a dbbd 56f2 3a3d
00000170: 7ecf acbe d785 10bd 1b65 91bd a5b7 46ba
00000180: d431 90be 09f2 983e 301c 423e caca f3bd
00000190: 28c2 993e 658e 573c 97d4 5ebd a31e 103d
000001a0: 2686 c9bb b1d1 403c 5f8d 26ba 5045 3bbc
000001b0: c5a3 403d 2a34 fabe fa9a 723e de59 99bd
000001c0: cce6 0d3e deda 7bbe e394 4d3c 7960 973d
000001d0: f9fd 443d 7f91 83bb f911 28bc 6909 2bbd
000001e0: e617 4d3d 09b7 83be dfa5 17be 5d9e 0a3d
000001f0: 7e12 1d3c dda7 0c3e ce52 2d3c 0220 be3b
00000200: 6626 1f3e 8861 9bbc 68ff b4bd 1b8c 363d
00000210: 55bc 6e3e db7f b3be f474 dc3c 5fc0 00bf
00000220: 4140 32be d7bc 86bc 8a09 49be 8574 4bbe
00000230: 759d ad3d c9fc 1f3d 8903 f43d a53f 423d
00000240: f8b5 e4bd 5f50 54bd 3e04 04bd 5344 39bd
00000250: ff87 753d 6ac0 debd 08a3 cebd e823 653d
00000260: 6162 503d e188 1ebd bbcd 0cbd f76a 1b3f
00000270: 5932 5b3d 6c3b 71be 3be7 eb3a 9639 95bd
00000280: 1968 163e 2973 353c 9764 29be 55ca 8b3e
00000290: b449 84bd c341 873a b744 663e 7c97 663d
000002a0: 6bb2 2ebe 9197 f6bd ef4d 2abe aeb7 fdbc
000002b0: 32fd 8bbe 89de 2fbe 0c31 103e 7dda 1b3d
000002c0: bf63 ae39 4db8 743e b011 cebd 8ef7 afbd
000002d0: e59f 38be cf13 0c3e bd67 0cbb f05a eabc
000002e0: 2052 f23d 918a 653d 3b0b f6be ba7e 033e
000002f0: 8589 d8bd 9aeb c9bd 2481 ab3c 6aed b43e
00000300: 8119 b33d 1ec6 653d 5ebb 833d efd8 1b3e
00000310: aca3 f23d c371 77be 2396 cabe 5c79 503d
00000320: 630f 07be ae3e 0b3e f587 2b3d 9581 413d
00000330: ee6a 83be 50ff 0ebe 1c90 cfbd 81a4 81be
00000340: 98eb bf3d 26b4 d53c 4223 4dbe f5a1 043d
00000350: 92eb b7bd d64e 5c3e 4c77 493d fb1d a6bd
00000360: 867a 56bd abd3 b1be 6876 e63c e781 94bd
00000370: c8af 2fbd 74fd 7d3e b48d f33d 4bb1 043d
00000380: b894 fdbd c6e4 e53e f185 05bd 5c67 c73d
00000390: 9f32 4a3e 52af 75be d3d1 eebc 7ce1 0a3d
000003a0: b39f 453d 7131 55bd 6d99 4e3d 069e f63d
000003b0: cd01 0bbe 1bfc 913d 85d1 0b3d 7c57 bc3a
000003c0: 24ac fa3c 0a57 fe3d 9df6 96bd 32e8 b9be
000003d0: 0d1b 08bd d2ca a33d 8726 773d 19d6 a13b
000003e0: 8a06 6b3c 3bc7 88be 40c1 133e c06c 46bd
000003f0: de2d d13c 04c1 b93d 9df4 c7bd e56b 93bd

fc2.bias f4 [256]
-0.04977063 0.10033853 0.13994336 -0.06370199 0.13059619 -0.05277057 -0.10892302 -0.15719458
-0.11301334 0.13325362 0.114541 -0.08452016 0.05800818 0.13711561 0.21072543 0.048967037
-0.06503863 -0.0047122454 0.19518062 -0.028284516 0.11248458 0.24661666 0.05569445 0.21757178
0.054908726 -0.08793112 -0.07222209 -0.11372419 0.21737325 0.102950454 0.11795867 0.017087525
0.086536236 -0.07802613 -0.09587383 0.14037332 0.061378963 0.1228375 0.14382198 -0.1649017
0.11246035 0.10827879 -0.16019228 0.10537692 0.053779226 0.133803 -0.05323961 0.047895297
-0.030977221 0.05706903 0.20936465 0.1507317 0.15326105 0.042867616 0.020679157 -0.016560609
0.05621 0.106388144 0.1611485 -0.07279834 0.12828442 0.037782185 0.18576649 -0.0925353
-0.026763394 -0.09020646 -0.119467154 0.044616986 0.14827977 -0.12591282 0.040001087 0.06946483
0.15935725 0.17494391 -0.09056362 -0.07417228 0.060945414 0.18325828 -0.059162706 0.03159282
0.20442829 0.19635022 0.24245587 0.123254806 0.021127002 0.29291245 -0.080208436 -0.008715524
-0.0070952075 0.04929285 0.20394456 0.12849846 0.005190218 0.034333818 0.0013822083 -0.13227132
-0.11272155 0.010436383 0.10942336 0.1541212 0.019064946 0.10892885 -0.08638026 0.22336973
0.031237606 0.1694295 -0.05550554 -0.07897278 -0.022298075 0.12534252 0.14502612 -0.002350495
-0.15713313 0.06723535 0.18948299 -0.018023567 -0.0029098545 -0.07905711 0.04388364 -0.11032695
0.067520365 0.13929711 0.188823 -0.09543515 0.06478798 0.13074763 0.20880882 -0.01904849
-0.00581595 -0.030773437 0.08036657 -0.102708764 -0.098067336 0.07542208 0.043690324 0.12031256
0.07450518 0.1192488 -0.062842324 0.012632866 -0.06935662 -0.006411593 0.13983952 -0.026393719
-0.038311698 -0.0082941335 0.079172574 -0.08308097 0.089068584 -0.13236716 -0.14945702 0.04410722
0.22674358 0.15374692 -0.08444458 0.09249187 0.19151217 -0.095171005 0.08516512 0.13501078
0.13153262 0.050179157 0.035663206 -0.05055348 0.14669201 0.14463857 0.1849225 -0.0966935
0.0070345346 -0.057475243 0.12443397 0.05843126 0.111283466 0.13183732 0.15096423 -0.11012296
0.0031588955 0.09098046 -0.112485625 0.23232502 -0.058040466 0.11485726 0.13230982 0.102341205
0.077243514 0.08216415 -0.11494986 -0.0930372 0.03823123 -0.029213354 0.13101077 -0.057325795
-0.08191248 -0.072513446 0.10682591 0.1966858 0.17510863 -0.019275595 -0.073797256 0.10234251
0.09365289 0.030140674 -0.08723792 0.23813593 0.12440692 -0.06808576 -0.11462549 0.06960781
-0.015893044 0.017832937 0.08891351 -0.07208467 -0.07360495 0.03845741 0.03244013 0.0681393
-0.054427315 0.109673046 0.0372936 0.1223366 0.016479624 -0.045219373 0.07802972 0.11803256
-0.16490999 0.10904376 0.063772194 0.14729236 0.10759152 -0.099278346 -0.05940136 0.13544312
0.024181185 0.047957603 -0.015766842 0.18698189 0.06346112 0.034077708 0.19136998 -0.011478184
0.051576987 0.13428804 0.08508206 0.039507896 0.062038783 0.10074343 -0.07107828 -0.013113804
0.07917016 -0.011969508 -0.04495792 0.04715801 0.17811088 0.07242716 0.18718736 -0.08045549
00000000: 4adc 4bbd 4a7e cd3d 504d 0f3e 3076 82bd
00000010: 02bb 053e f425 58bd 0813 dfbd 9ef7 20be
00000020: 8a73 e7bd a373 083e 7994 ea3d e818 adbd
00000030: fc99 6d3d 0968 0c3e 68c8 573e a991 483d
00000040: f932 85bd 2e69 9abb 6edd 473e eeb4 e7bc
00000050: 515e e63d 1489 7c3e dd1f 643d 23cb 5e3e
00000060: f9e7 603d 3b15 b4bd 2de9 93bd 3ae8 e8bd
00000070: 1897 5e3e b0d7 d23d 5194 f13d 23fb 8b3c
00000080: e939 b13d 2acc 9fbd 8059 c4bd 06be 0f3e
00000090: 8268 7b3d 3a92 fb3d 1246 133e fedb 28be
000000a0: 9d51 e63d 45c1 dd3d 7209 24be dbcf d73d
000000b0: 9b47 5c3d a703 093e c711 5abd dc2d 443d
000000c0: f1c3 fdbc 37c1 693d b063 563e 6959 1a3e
000000d0: 77f0 1c3e f495 2f3d 5667 a93c 1daa 87bc
000000e0: 753c 663d 07e2 d93d 1d04 253e 4c17 95bd
000000f0: fe5c 033e 7ec1 1a3d 9239 3e3e 2683 bdbd
00000100: e83e dbbc 2abe b8bd 32ab f4bd 4dc0 363d
00000110: a7d6 173e 4aef 00be 2ed8 233d 9443 8e3d
00000120: 8c2e 233e 7f24 333e 6b79 b9bd a3e7 97bd
00000130: e6a1 793d 0fa8 3b3e 9854 72bd 7967 013d
00000140: a655 513e 0810 493e 5a46 783e 046d fc3d
00000150: 8912 ad3c 9ff8 953e 5244 a4bd 8fcb 0ebc
00000160: ea7e e8bb 4de7 493d d8d6 503e 1a95 033e
00000170: b412 aa3b 9ea1 0c3d 372b b53a 2272 07be
00000180: 8eda e6bd 5dfd 2a3c 5b19 e03d f3d1 1d3e
00000190: 172e 9c3c 1716 df3d 22e8 b0bd 09bb 643e
000001a0: 02e6 ff3c ed7e 2d3e c759 63bd 7bbc a1bd
000001b0: 74aa b6bc ca59 003e ba81 143e c30a 1abb
000001c0: 82e7 20be b0b2 893d d407 423e 29a6 93bc
000001d0: 42b3 3ebb b2e8 a1bd 55bf 333d 19f3 e1bd
000001e0: 1e48 8a3d e7a3 0e3e d15a 413e 8173 c3bd
000001f0: 8faf 843d b5e2 053e fbd1 553e 940b 9cbc
00000200: ba93 bebb 9318 fcbc 3a97 a43d f958 d2bd
00000210: 87d7 c8bd e476 9a3d a0f4 323d 6e66 f63d
00000220: 2c96 983d b738 f43d 7ab3 80bd 15fa 4e3c
00000230: d80a 8ebd 5718 d2bb 1732 0f3e a437 d8bc
00000240: baec 1cbd 1ee4 07bc 3b25 a23d 5b26 aabd
00000250: 9769 b63d 428b 07be 430b 19be c6a9 343d
00000260: 782f 683e d56f 1d3e 48f1 acbd 616c bd3d
00000270: c41b 443e 04e9 c2bd 0d6b ae3d 4440 0a3e
00000280: 7db0 063e a988 4d3d 9513 123d 2a11 4fbd
00000290: 6e36 163e 221c 143e 535c 3d3e 3e07 c6bd
000002a0: f481 e63b 296b 6bbd 3dd7 fe3d 9e55 6f3d
000002b0: 96e8 e33d 5d00 073e 5e96 1a3e 2588 e1bd
000002c0: 7905 4f3b f753 ba3d dd5e e6bd 9ce6 6d3e
000002d0: d7bb 6dbd 483a eb3d 3a7c 073e 4498 d13d
000002e0: d931 9e3d ae45 a83d d56a ebbd 4a8a bebd
000002f0: 5a98 1c3d d850 efbc b027 063e 74ce 6abd
00000300: bbc1 a7bd ee81 94bd 8bc7 da3d 0168 493e
00000310: ad4f 333e dae7 9dbc 0423 97bd f398 d13d
00000320: 16cd bf3d 93e9 f63c cba9 b2bd e8d9 733e
00000330: 0ec9 fe3d 8c70 8bbd c5c0 eabd 8a8e 8e3d
00000340: 2132 82bc 6116 923c 4918 b63d 21a1 93bd
00000350: 31be 96bd 8485 1d3d f1df 043d 9e8c 8b3d
00000360: 2def 5ebd 439c e03d 2dc1 183d 9d8b fa3d
00000370: 4700 873c f337 39bd 0cce 9f3d 0ebb f13d
00000380: 2ade 28be 5652 df3d ff9a 823d cfd3 163e
00000390: f158 dc3d 7252 cbbd d74e 73bd 9ab1 0a3e
000003a0: 9f17 c63c 316f 443d 7729 81bc 2e78 3f3e
000003b0: e7f7 813d 1195 0b3d 7ef6 433e fe0e 3cbc
000003c0: 6442 533d ce82 093e 813f ae3d 08d3 213d
000003d0: 611c 7e3d 9252 ce3d 7d91 91bd 48db 56bc
000003e0: f723 a23d c11b 44bc cc25 38bd c228 413d
000003f0: b362 363e b154 943d 0bae 3f3e d9c5 a4bd

fc3.weight f4 [128, 256]
-0.0034464262 -0.19998081 -0.069639884 -0.0013645833 -0.13662471 0.00070604245 -0.056286126 0.27083927
0.022725254 -0.11114571 -0.08789679 -0.008388437 -0.10385276 -0.026470153 -0.09097176 -0.027830526
0.020083137 -0.05889293 -0.24397023 -0.006058396 -0.03567683 -0.12197139 -0.025772939 -0.22488418
0.0018646093 0.15166794 0.019172538 0.10084929 -0.05114573 -0.11532102 -0.2852302 -0.016119357
0.005538267 0.16435796 0.055064496 -0.07106551 0.008110827 -0.25511467 -0.11552152 0.08591858
-0.13118307 -0.020943752 0.035322662 -0.04130064 -0.06423435 -0.119679965 0.1078475 -0.18547426
0.17209025 -0.2990525 -0.10271019 -0.18386719 -0.13092798 0.016070163 0.09132334 -0.010072203
0.013917559 -0.12038066 -0.18052845 0.10363964 -0.052703798 0.0058731427 -0.13713631 -0.080172494
0.09788522 -0.10449849 0.008164915 -0.041961752 -0.17145945 0.03572861 -0.08609392 -0.12263603
0.077694446 -0.25259647 0.09086354 -0.06895406 -0.22890125 0.10880151 0.12097009 -0.05635857
-0.14026812 -0.24975714 -0.08611834 -0.050793827 0.04282014 -0.13675497 0.1267971 -0.013666297
-0.020540394 -0.072827816 -0.16015473 -0.17743713 0.09661005 -0.004212909 0.024655458 -0.30738044
0.039992083 -0.08055974 -0.05301027 -0.2799939 -0.14871706 -0.18451943 -0.13311394 -0.23393078
-0.091868944 -0.18826987 -0.014953809 0.030803466 0.14208363 -0.07082259 -0.08716308 0.13193685
0.058625445 -0.16527924 -0.25011235 0.067452416 0.15077516 0.21986808 0.011746579 -0.0020424584
-0.17307733 -0.15666986 -0.17011668 0.14853624 -0.048950832 -0.19932312 -0.29770896 -0.011390927
0.00016731194 -0.09079413 -0.16883518 0.050320085 0.08601927 -0.00912905 -0.06103632 -0.112121955
-0.036658183 -0.17590788 -0.08847073 -0.17677319 -0.007721112 -0.028251937 -0.08963207 -0.005455405
0.22653063 -0.13874353 -0.21303894 0.014145043 -0.18716006 0.1795885 0.11545482 -0.14035247
-0.22010231 -0.26351866 0.08806327 -0.07913415 -0.07811072 0.028735125 -0.10918705 -0.14523706
-0.17579824 0.014929137 -0.17722091 0.13668735 -0.08048404 -0.18042532 -0.048216656 0.13741714
-0.036934935 0.05916049 -0.046459693 -0.025524486 -0.2838529 -0.076506875 -0.24696825 -0.06415071
-0.062673375 -0.09449768 0.03235171 -0.12951224 0.16842413 -0.03758152 -0.24205951 -0.12018509
-0.115375444 -0.10462243 0.09959307 0.10670522 -0.0055096727 -0.06344396 -0.03805708 -0.041570853
0.19022529 -0.11457499 -0.10308177 -0.090317786 -0.10758291 -0.08895488 0.0536514 -0.1418334
-0.20489304 -0.06734104 0.0893446 -0.16733639 -0.12973574 -0.43962866 0.006885707 -0.17487869
-0.07932051 -0.020225413 -0.06655569 -0.021230046 0.074447155 -0.06324067 -0.003361873 0.031542458
0.012894025 -0.045112286 -0.21515074 -0.16706246 -0.038671847 -0.08146823 -0.22379102 -0.18621619
0.10886813 -0.03503185 -0.09811677 0.08010144 -0.014775236 0.07855792 0.1034981 -0.12894699
0.0073227147 -0.03685817 0.0042321444 -0.2476531 -0.045365337 -0.27826825 -0.10392947 0.008286497
-0.111049674 -0.07020031 -0.14788985 -0.067847244 -0.010681204 0.0076573538 0.047395293 0.0005880456
-0.10056878 -0.15161642 0.048019674 -0.01782098 -0.17867985 -0.10314955 -0.26119524 -0.069256164
00000000: 70dd 61bb c5c7 4cbe 5b9f 8ebd d1db b2ba
00000010: 59e7 0bbe b515 393a 488c 66bd 72ab 8a3e
00000020: 502a ba3c 5da0 e3bd 3b03 b4bd a86f 09bc
00000030: c1b0 d4bd efd7 d8bc 674f babd d8fc e3bc
00000040: 6485 a43c b739 71bd 55d3 79be 8285 c6bb
00000050: de21 12bd 23cc f9bd c521 d3bc 0a48 66be
00000060: e865 f43a d74e 1b3e ba0f 9d3c 138a ce3d
00000070: 2f7e 51bd 6d2d ecbd b109 92be be0c 84bc
00000080: 5a7a b53b 744d 283e 4f8b 613d cb8a 91bd
00000090: 46e3 043c 649e 82be 8c96 ecbd 15f6 af3d
000000a0: db54 06be 3b92 abbc 7fae 103d dc2a 29bd
000000b0: 4d8d 83bd c51a f5bd 26df dc3d f7ec 3dbe
000000c0: 6d38 303e 691d 99be b859 d2bd ae47 3cbe
000000d0: fc11 06be 93a5 833c bb07 bb3d e205 25bc
000000e0: 7906 643c 238a f6bd 73dc 38be 0541 d43d
000000f0: f0df 57bd 7e73 c03b 766d 0cbe 7a31 a4bd
00000100: 0c78 c83d 4e03 d6bd 23c6 053c 16e0 2bbd
00000110: 1193 2fbe 2a58 123d 0252 b0bd 9928 fbbd
00000120: 441e 9f3d 5354 81be aa16 ba3d c937 8dbd
00000130: 1765 6abe 53d3 de3d 2bbf f73d 3ed8 66bd
00000140: 72a2 0fbe 56c0 7fbe d05e b0bd 300d 50bd
00000150: 2c64 2f3d 7f09 0cbe 19d7 013e 9be8 5fbc
00000160: 5444 a8bc c026 95bd 9aff 23be 14b2 35be
00000170: 7ddb c53d 710c 8abb 3efa c93c f860 9dbe
00000180: bdce 233d 81fc a4bd 4c21 59bd 5c5b 8fbe
00000190: 4949 18be a9f2 3cbe 054f 08be 8d8b 6fbe
000001a0: c925 bcbd d1c9 40be d200 75bc 8d57 fc3c
000001b0: 5f7e 113e 6f0b 91bd 8f82 b2bd 741a 073e
000001c0: 3c21 703d f63e 29be ba0e 80be 7e24 8a3d
000001d0: ce64 1a3e 1925 613e b974 403c c4da 05bb
000001e0: 2f3b 31be 106e 20be 1133 2ebe e219 183e
000001f0: ab80 48bd 5c1b 4cbe 4f6d 98be 03a1 3abc
00000200: 7570 2f39 46f2 b9bd 21e3 2cbe 6f1c 4e3d
00000210: df2a b03d 0392 15bc 3801 7abd 32a0 e5bd
00000220: e426 16bd 3221 34be 2430 b5bd 0804 35be
00000230: 6201 fdbb 9b70 e7bc 0591 b7bd 41c3 b2bb
00000240: a5f7 673e c912 0ebe e126 5abe 9cc0 673c
00000250: e3a6 3fbe 0ce6 373e 9473 ec3d 8fb8 0fbe
00000260: 8062 61be ebeb 86be 845a b43d 1611 a2bd
00000270: 83f8 9fbd ed65 eb3c 769d dfbd 06b9 14be
00000280: 7404 34be 5799 743c 6679 35be c5f7 0b3e
00000290: d1d4 a4bd 6ac1 38be d47e 45bd 14b7 0c3e
000002a0: 1649 17bd 4552 723d 854c 3ebd ba18 d1bc
000002b0: 2b55 91be a3af 9cbd 3fe5 7cbe 7361 83bd
000002c0: e65a 80bd 0088 c1bd 3a83 043d db9e 04be
000002d0: 6077 2c3e 14ef 19bd 73de 77be 9a23 f6bd
000002e0: f649 ecbd 4944 d6bd 74f7 cb3d 4488 da3d
000002f0: 7c8a b4bb e8ee 81bd bee1 1bbd 3346 2abd
00000300: 6bca 423e 4ba6 eabd 891c d3bd 88f8 b8bd
00000310: 6e54 dcbd fa2d b6bd 92c1 5b3d c63c 11be
00000320: 7bcf 51be 19ea 89bd 4dfa b63d 3b5a 2bbe
00000330: 72d9 04be 0217 e1be 7fa1 e13b 6613 33be
00000340: cb72 a2bd c4af a5bc 594e 88bd a2ea adbc
00000350: c077 983d 5384 81bd df52 5cbb aa32 013d
00000360: 7641 533c a9c7 38bd 7a50 5cbe 6c12 2bbe
00000370: 5f66 1ebd d1d8 a6bd 7929 65be 75af 3ebe
00000380: 41f6 de3d 8f7d 0fbd 72f1 c8bd 390c a43d
00000390: d513 72bc fae2 a03d d0f6 d33d ae0a 04be
000003a0: 62f3 ef3b 98f8 16bd cdad 8a3b c698 7dbe
000003b0: 01d1 39bd 2d79 8ebe f9d8 d4bd 16c4 073c
000003c0: 036e e3bd 2ec5 8fbd 7070 17be 7ff3 8abd
000003d0: 3700 2fbc 8aea fa3b 9121 423d 1227 1a3a
000003e0: 01f7 cdbd 5641 1bbe 47b0 443d 4efd 91bc
000003f0: daf7 36be 1240 d3bd 62bb 85be 2dd6 8dbd

fc3.bias f4 [128]
-0.2102974 0.06789892 -0.11724189 0.0046915244 0.24600308 -0.2131688 0.056033146 0.044368956
0.079402804 0.030143363 0.102438115 0.09373595 -0.17298986 -0.23086856 -0.081184186 -0.21799912
0.10340161 0.05611661 0.036592018 -0.22698897 -0.21215324 0.06288215 0.088923894 0.06638926
-0.22660126 -0.15144414 0.0756862 0.105827205 0.31138277 0.07947753 -0.10266113 0.3006057
-0.14195818 0.07758742 0.025787568 0.2854317 -0.2510201 -0.20468275 0.106460504 0.050262667
-0.1977404 0.06783221 0.23590477 0.10988691 0.034107722 -0.18164802 0.0658245 0.0660869
0.08426387 0.08963363 0.15002646 -0.026772656 -0.23458439 0.049583454 0.10714897 0.06793634
0.021396838 0.060995996 0.038311556 0.031509787 0.09201928 -0.2130787 0.06909242 -0.23460622
-0.13618636 0.035939235 0.07777015 0.09968826 -0.045792874 0.046372883 -0.16102532 0.024682049
0.22258362 -0.14555135 -0.09800967 0.06415198 -0.11242093 0.066392854 -0.21983485 -0.06587816
0.09875978 -0.024325453 0.109961495 0.02954562 0.07748014 0.03216663 0.08576916 0.19455379
0.07554704 -0.0378776 -0.15710184 0.14227879 -0.2001172 -0.15922679 0.12272282 -0.089356385
-0.19152598 0.27656105 0.20748593 0.019891081 0.13081764 -0.17459844 -0.24607778 0.27083048
0.041160036 -0.12143807 0.32191366 -0.16073263 -0.07112919 0.068005875 0.054914653 -0.11727213
-0.08206973 0.081497855 -0.22404218 0.036840793 0.05297694 0.010839102 0.08567734 -0.23495142
-0.16775821 -0.17642416 0.09317349 -0.17893586 -0.1234404 -0.1609597 -0.22395726 -0.22644916
00000000: 3458 57be 970e 8b3d 841c f0bd 5cbb 993b
00000010: 3be8 7b3e ec48 5abe 0383 653d 39bc 353d
00000020: f09d a23d 37ef f63c 13cb d13d a2f8 bf3d
00000030: 4124 31be cf68 6cbe e543 a6bd 293b 5fbe
00000040: 39c4 d33d 88da 653d 83e1 153d cc6f 68be
00000050: b33e 59be 5bc8 803d bb1d b63d 18f7 873d
00000060: 290a 68be 2c14 1bbe 5e01 9b3d efbb d83d
00000070: 906d 9f3e 1ec5 a23d 0040 d2bd fee8 993e
00000080: 7c5d 11be 27e6 9e3d 7340 d33c 1b24 923e
00000090: b585 80be 5b98 51be f707 da3d 3ae0 4d3d
000000a0: 767c 4abe 9deb 8a3d 0591 713e 630c e13d
000000b0: 8ab4 0b3d f001 3abe ffce 863d 9258 873d
000000c0: 8992 ac3d d691 b73d 89a0 193e 5452 dbbc
000000d0: e436 70be 0518 4b3d eb70 db3d 3522 8b3d
000000e0: 6c48 af3c f0d6 793d 94ec 1c3d 6810 013d
000000f0: 9b74 bc3d 4d31 5abe 5480 8d3d 9d3c 70be
00000100: 7074 0bbe 0535 133d f545 9f3d 5c29 cc3d
00000110: 4f91 3bbd 7ef1 3d3d d2e3 24be 0232 ca3c
00000120: f6ec 633e 6a0b 15be 4bb9 c8bd 1d62 833d
00000130: f23c e6bd faf8 873d 631c 61be 21eb 86bd
00000140: 9142 ca3d 2c46 c7bc 7e33 e13d a809 f23c
00000150: e8ad 9e3d 28c1 033d bea7 af3d 1c39 473e
00000160: 68b8 9a3d 8b25 1bbd 4edf 20be 88b1 113e
00000170: 86eb 4cbe 590c 23be 1a56 fb3d 7b00 b7bd
00000180: 631f 44be 6999 8d3e 3177 543e 9ff2 a23c
00000190: 0ff5 053e efc9 32be d0fb 7bbe 4baa 8a3e
000001a0: 6d97 283d 86b4 f8bd ded1 a43e 1897 24be
000001b0: 2eac 91bd aa46 8b3d 30ee 603d 5f2c f0bd
000001c0: 2d14 a8bd 59e8 a63d 506b 65be 5fe6 163d
000001d0: 59fe 583d 7d96 313c 9a77 af3d 1b97 70be
000001e0: cfc8 2bbe 89a8 34be bed1 be3d f63a 37be
000001f0: 52ce fcbd 9fd2 24be 0d55 65be 4ae2 67be

fc4.weight f4 [1, 128]
0.13742436 -0.021408476 0.31391907 -0.039859008 -0.056498967 0.1251999 -0.020454656 -0.021467064
-0.056347568 -0.017885644 -0.010783302 -0.017757976 0.1245329 0.14406489 0.37802768 0.13511659
-0.012993333 -0.26827216 -0.019763095 0.14258702 0.13281128 -0.016163781 -0.046884097 -0.0140813505
0.14575052 0.1434278 -0.30605102 -0.032580934 -0.2702271 -0.004855766 0.26563916 -0.2729272
0.14341126 -0.015874704 -0.012783012 -0.28071162 0.14490715 0.13611388 -0.013361044 -0.03458503
0.13495623 -0.026069287 -0.27970067 -0.0238241 -0.004286279 0.1447995 -0.20284641 -0.00931705
-0.04597172 -0.0061332593 -0.012167742 0.22887664 0.13346949 -0.01762466 -0.049050733 -0.0011109855
-0.0026801701 -0.04090272 -0.0030150875 -0.027017882 -0.04193005 0.14373998 -0.0151773365 0.092016555
0.24987876 0.005389245 -0.018088313 -0.058505055 0.25290883 -0.16154131 0.07452304 -0.012771848
-0.062273547 0.15557946 0.22562759 -0.029438775 0.21203299 -0.011520905 0.12938455 0.32043034
-0.049128372 0.25251958 -0.032864068 -0.027094007 -0.24789421 0.0034387829 -0.028441137 -0.31333947
-0.01792163 0.26613826 0.31187218 -0.31984302 0.140559 0.14809915 -0.020396462 0.22428483
0.0882839 -0.32054102 -0.32912245 -0.015920889 -0.045111768 0.14301072 0.1411402 -0.26770076
-0.00023731911 0.14059938 -0.28363025 0.13078709 0.26241425 -0.017235337 -0.035374615 0.279134
0.2735678 -0.011308132 0.14495829 -0.29733133 -0.21995747 -0.0023714183 -0.024645057 0.14000916
0.1268191 0.09696404 -0.029764095 0.094948456 0.22353734 0.12849422 0.13222392 0.13693376
00000000: f9b8 0c3e d460 afbc 00ba a03e 3343 23bd
00000010: 766b 67bd 6734 003e 8690 a7bc b2db afbc
00000020: b5cc 66bd ea84 92bc 72ac 30bc 2d79 91bc
00000030: 1b0b ff3d bf85 133e d88c c13e 015c 0a3e
00000040: fde1 54bc f85a 89be 37e6 a1bc 5502 123e
00000050: aeff 073e e869 84bc 8a09 40bd 77b5 66bc
00000060: a03f 153e bdde 123e b8b2 9cbe 9673 05bd
00000070: 355b 8abe 1e1d 9fbb db01 883e 1dbd 8bbe
00000080: 67da 123e ab0b 82bc d76f 51bc 6fb9 8fbe
00000090: 8a62 143e 7061 0b3e 48e8 5abc 08a9 0dbd
000000a0: f731 0a3e 428f d5bc ed34 8fbe c22a c3bc
000000b0: ea73 8cbb 5246 143e f8b6 4fbe 8aa6 18bc
000000c0: d84c 3cbd 82f9 c8bb 355b 47bc a35e 6a3e
000000d0: 3aac 083e 9761 90bc 6ce9 48bd 7d9e 91ba
000000e0: cba5 2fbb 9c89 27bd c698 45bb 9b54 ddbc
000000f0: d8be 2bbd 9330 133e 5daa 78bc 2d73 bc3d
00000100: 38e0 7f3e 4498 b03b f12d 94bc ffa2 6fbd
00000110: 447d 813e 166b 25be 899f 983d 0341 51bc
00000120: 8c12 7fbd 3950 1f3e eb0a 673e 9629 f1bc
00000130: 2d1f 593e 2ec2 3cbc 627d 043e 720f a43e
00000140: d53a 49bd 3f4a 813e 799c 06bd 40f4 ddbc
00000150: fbd7 7dbe 345d 613b 63fd e8bc 086e a0be
00000160: 62d0 92bc 4643 883e b6ad 9f3e 77c2 a3be
00000170: b3ee 0f3e 4ea7 173e 7b16 a7bc ecaa 653e
00000180: 30ce b43d f41d a4be bd82 a8be 866c 82bc
00000190: 1ec7 38bd 6771 123e 0e87 103e 1310 89be
000001a0: ddd8 78b9 49f9 0f3e fc37 91be 0ded 053e
000001b0: 295b 863e 1f31 8dbc f9e4 10bd a7ea 8e3e
000001c0: 1411 8c3e be45 39bc f26f 143e d03b 98be
000001d0: 883c 61be cc69 1bbb 6ee4 c9bc 905e 0f3e
000001e0: dedc 013e 1595 c63d d5d3 f3bc 5674 c23d
000001f0: f9e6 643e fd93 033e b565 073e 5d38 0c3e
