3 - Policy-based methods/Advanced PG methods/DDPG/checkpoint_actor.pth (torch_old, 30493 bytes, 4 tensors)

fc1.weight f4 [256, 24]
0	0xbcecad25	-0.028891155
1	0xbc52f153	-0.012874919
2	0x3d5ff747	0.05467918
3	0xbc06a483	-0.008217934
4	0x3d12b977	0.035821404
5	0xbcb012fc	-0.021493427
6	0x3cd7bcf0	0.02633521
7	0x3cefa610	0.02925399
8	0xbd7a614a	-0.06112794
9	0xbd3b9a22	-0.04580129
10	0xbd3f61ff	-0.046724316
11	0x3cfd7363	0.03093881
12	0xbbc928e9	-0.00613891
13	0xbd6090b6	-0.054825507
14	0x3ceb14ed	0.028696502
15	0xbd16625a	-0.03671489
16	0x3d2b69f9	0.04184911
17	0x3ce676b1	0.028132768
18	0x3ad60337	0.0016327862
19	0x3d7a6553	0.061131787
20	0xbd373711	-0.04473025
21	0xbcb8096a	-0.022465426
22	0x3a7b35e5	0.0009582921
23	0x3b7170b2	0.0036840853
24	0x3f030cc6	0.51191366
25	0x3e871b85	0.26388183
26	0xbe9922f7	-0.2990949
27	0xbdd39e30	-0.10332906
28	0xbe2d4431	-0.16920544
29	0xbd93ea1e	-0.07222389
30	0x3cb523c5	0.022111783
31	0xba7f40ef	-0.0009737154
32	0x3d772ce4	0.060345545
33	0xbd675b3a	-0.056483485
34	0xbdb61503	-0.088907264
35	0xbd5dce4f	-0.05415183
36	0xbebdf61c	-0.3710183
37	0xbcb5734b	-0.022149703
38	0x3d9ed443	0.077553295
39	0x3dc3cc91	0.09560502
40	0x3dc7724a	0.09738596
41	0x3dd315a0	0.10306859
42	0x3e3d23d1	0.18470694
43	0x3e226324	0.15858132
44	0x3e3794ee	0.17927906
45	0x3deaacbf	0.1145873
46	0x3e29a49c	0.165667
47	0x3dabd0a4	0.083894044
48	0xbe8020af	-0.25024936
49	0xbf214e2c	-0.63009906
50	0x3e546cf1	0.20744683
51	0x3d87a8e9	0.06624014
52	0x3d7bd0c2	0.061478384
53	0x3c223607	0.009900576
54	0xbcc066dd	-0.023486549
55	0xbd0c60ac	-0.03427188
56	0xbd8ad809	-0.06779487
57	0x3dab95c3	0.08378174
58	0xbcb4cfb1	-0.022071691
59	0xbc83ad6c	-0.016073905
60	0x3d9f4a18	0.07777804
61	0x3aa5a456	0.0012637477
62	0xbd29259e	-0.04129564
63	0xbd3ffa56	-0.0468696
64	0x3d750cd1	0.059826676
65	0x3d1b53c8	0.037921697
66	0xbc237850	-0.009977415
67	0x3c846ecf	0.016166119
68	0x3d67380e	0.056449942
69	0xbc84c3ea	-0.0162067
70	0x3dd5dce0	0.10442519
71	0x3df37d4c	0.11889133
72	0xbe2f03ec	-0.1709134
73	0xbe727e1a	-0.23680916
74	0x3e1d03ef	0.15333532
75	0x3de2b185	0.110690154
76	0xbdbee9b4	-0.09321919
77	0x3d5522b4	0.05203505
78	0x3db9289f	0.09040951
79	0x3d3a0028	0.045410305
80	0x3b9043fc	0.0044026356
81	0x3c8d4f58	0.017249748
82	0xbe8774ae	-0.26456207
83	0x3cb9bb2f	0.022672264
84	0xbed7036f	-0.41994807
85	0xbe6d509e	-0.23175284
86	0xbdad578d	-0.084639646
87	0xbd6bb72b	-0.05754773
88	0xbcd77712	-0.026301894
89	0xbd90e178	-0.07074255
90	0xbc9120d5	-0.01771585
91	0xbdb6885f	-0.089127295
92	0xbdc100de	-0.094239935
93	0xbdbd7e9c	-0.092526644
94	0x3c8a2810	0.016864806
95	0x3c752306	0.0149619635
96	0xbeeb84bd	-0.4599971
97	0xbeab2a77	-0.33430836
98	0x3e91da82	0.2848702
99	0xbb708c21	-0.0036704617
100	0x3d6dc646	0.058050416
101	0x3e162d67	0.14665757
102	0x3da2a87a	0.079422906
103	0x3d192fc6	0.037399076
104	0x3d316479	0.04330871
105	0x3da68b50	0.081320405
106	0xbe52eeda	-0.20598927
107	0xbd9b63cc	-0.07587394
108	0x3e64a7aa	0.22329584
109	0x3cbf283f	0.02333462
110	0xbcebd644	-0.028788693
111	0xbd9abc6e	-0.07555471
112	0x3c624120	0.013809472
113	0xbd5d24ae	-0.05399006
114	0x3ca2a8c2	0.01985586
115	0xbb41a8dd	-0.0029550113
116	0xbb7ff3c5	-0.003905521
117	0xbcd95362	-0.026529018
118	0x3c0fd68c	0.008779179
119	0xbca7d0b4	-0.02048526
120	0xbb543ea0	-0.003238596
121	0xbc9c2590	-0.01906088
122	0xbd643226	-0.055711888
123	0x3d74a1a4	0.059724465
124	0x3d1d6f88	0.038436443
125	0xbcca9438	-0.02472888
126	0xbc4c5838	-0.012472205
127	0xbd76537a	-0.060138203
128	0xbcf27be0	-0.029600084
129	0xbcfc1d34	-0.030775644
130	0xbca3d438	-0.019998655
131	0x3d2ef232	0.042711444
132	0xbd2a9f34	-0.041655734
133	0x3d309330	0.04310912
134	0xbc534ae0	-0.01289627
135	0xbd179b7a	-0.03701351
136	0xbd46ddf4	-0.048551515
137	0xbd21061a	-0.03931246
138	0xbc8561e4	-0.01628203
139	0xbd6a9e18	-0.057279676
140	0x3d6e0872	0.058113523
141	0x3d661a50	0.056177437
142	0xbd2dada2	-0.042401917
143	0xbd113f36	-0.035460673
144	0x3e8da2f9	0.276634
145	0x3e69e1a5	0.22839983
146	0xbe37b6b2	-0.17940786
147	0x3ed1d24d	0.4098076
148	0x3e756c2a	0.23967043
149	0x3d8399f5	0.06425849
150	0xbe62c737	-0.22146307
151	0x3bb96d8f	0.0056588124
152	0xbc715b05	-0.014731173
153	0x3e1c51ce	0.15265581
154	0x3c8c8afe	0.01715612
155	0x3e430c70	0.19047713
156	0x3e13cbff	0.14433287
157	0xbdd8caac	-0.105855316
158	0x3c78fcf4	0.0151970275
159	0xbd4dc75b	-0.05023895
160	0x3c644762	0.013933035
161	0xbd28cb62	-0.041209586
162	0xbda4dc8a	-0.08049877
163	0xbd347685	-0.04405834
164	0x3d0af1af	0.033921894
165	0xbabbc147	-0.0014324569
166	0x3cc4563e	0.023966905
167	0xbe2607d9	-0.16213931
168	0xbea6a4d5	-0.32547632
169	0xbee6283e	-0.44952577
170	0x3e870121	0.2636805
171	0xbe239688	-0.15975392
172	0x3c1a85fa	0.009431357
173	0x3d3a7972	0.045525976
174	0x3e6dcdcd	0.23223038
175	0x3e0f4d6b	0.13994376
176	0xbd5526c6	-0.05203893
177	0x3da52661	0.08063961
178	0xbe3d78f2	-0.18503168
179	0xbab5da42	-0.001387425
180	0xbe89a052	-0.26880127
181	0x3da80721	0.08204485
182	0xbd9440b9	-0.07238907
183	0x3c319cf0	0.0108406395
184	0xbc804dbe	-0.01566207
185	0xbd76bad3	-0.060236763
186	0xbcb96f8f	-0.022636203
187	0xbd8eb946	-0.06968932
188	0xbceac1ff	-0.028656958
189	0xbd36f382	-0.04466582
190	0xbc0b68a4	-0.008508835
191	0x3bec37a0	0.0072087795
192	0x3e94d74a	0.29070503
193	0x3eb03e14	0.34422362
194	0xbe62d904	-0.22153097
195	0x3edc62f2	0.4304424
196	0x3e5b980d	0.21444722
197	0x3d42ae65	0.047529597
198	0xbe44077a	-0.19143477
199	0xbbaac19b	-0.005211068
200	0xbd5057b6	-0.050864898
201	0x3d54cedd	0.051955093
202	0x3d873cba	0.066033795
203	0x3e4c1467	0.19929658
204	0x3e2d50a2	0.1692529
205	0xbda6e4eb	-0.081491314
206	0xbd3da67c	-0.04630135
207	0x3d2be11a	0.04196272
208	0xbd898841	-0.067154415
209	0xbcd671e4	-0.026177354
210	0xbd85b504	-0.065286666
211	0xbd8c7d88	-0.06859881
212	0xbca22ed0	-0.019797713
213	0x3d38e229	0.045137558
214	0x3d25c31a	0.040469266
215	0xbe27809b	-0.16357653
216	0xbe2b847d	-0.16749759
217	0xbe4b0f43	-0.1983004
218	0x3e465b6b	0.1937081
219	0xbe49967b	-0.1968631
220	0xbd5ab4eb	-0.053395193
221	0xbd033fe3	-0.03204335
222	0x3dbda91f	0.09260773
223	0x3db22b68	0.08699685
224	0x3e38cebb	0.18047611
225	0xbc8d5cf3	-0.017256236
226	0xbd97a6fb	-0.07404896
227	0xbdafb04c	-0.08578548
228	0xbda0a54d	-0.078440286
229	0xbd21d2c8	-0.039507657
230	0x3dd565d1	0.104198106
231	0x3dabcb86	0.083884284
232	0x3de35b5e	0.11101411
233	0x3e2b6142	0.1673632
234	0x3e0f35e4	0.13985401
235	0x3e2877fb	0.16452019
236	0x3ddaadd5	0.10677687
237	0x3e45d070	0.19317794
238	0x3e088072	0.13330248
239	0x3e3c908f	0.1841452
240	0x3caa2a9d	0.020772273
241	0xbcc5d44d	-0.024149084
242	0xbd65b182	-0.056077488
243	0x3cada1b8	0.021195278
244	0xbcba0888	-0.022709146
245	0xbd2b8ae6	-0.04188051
246	0xbc653cc9	-0.013991543
247	0xbd41f7d8	-0.047355503
248	0x3c7e4850	0.01552017
249	0x3cd22565	0.025652597
250	0xbcbd42f0	-0.023103207
251	0x3c135598	0.008992575
252	0x3d070710	0.03296572
253	0x3cc2d580	0.023783445
254	0xbd3dbd66	-0.046323203
255	0x3ca2547b	0.019815674

fc1.bias f4 [256]
0	0xbe437ea2	-0.19091275
1	0xbd9b5026	-0.075836465
2	0x3e9227e0	0.28546047
3	0x3d5a9dae	0.05337303
4	0x3e11e81d	0.142487
5	0xbe2c8942	-0.16849235
6	0xbee01aea	-0.43770534
7	0x3d6c2b2d	0.057658363
8	0xbea75949	-0.32685307
9	0x3e13d71a	0.14437523
10	0xbdf685d7	-0.12037247
11	0xbdfb9913	-0.12285056
12	0xbe26dcbf	-0.16295145
13	0xbaf902d8	-0.001899804
14	0xbe26a73b	-0.16274731
15	0xbe6163da	-0.22010747
16	0xbde5c7c8	-0.11219746
17	0xbcaf184b	-0.021373888
18	0xbd74390c	-0.059624717
19	0xbe5f90f1	-0.21832635
20	0x3e67e4b9	0.22645845
21	0xbe1a38f0	-0.15060782
22	0x3ea0d57b	0.31412873
23	0x3ec34d1c	0.38144767
24	0xbe074be2	-0.13212541
25	0x3e7491a6	0.23883685
26	0x3e97c741	0.29644206
27	0x3d0875aa	0.03331534
28	0xbe06ca7f	-0.13163184
29	0xbe667e9d	-0.22509237
30	0xbe039690	-0.12850404
31	0x3eb3f832	0.35150295
32	0x3ec9bd58	0.3940227
33	0xbd378124	-0.044800892
34	0x3ea3cc1d	0.31991664
35	0xbd8400f0	-0.06445491
36	0xbe3ba6c3	-0.18325333
37	0xbdc95e12	-0.098323956
38	0x3c83cd5b	0.016089132
39	0xbd30b9d7	-0.04314598
40	0x3c0471c4	0.008083764
41	0xbdb99372	-0.09061326
42	0x3ecc49b8	0.39899993
43	0x3e78d1f1	0.24298836
44	0xbe1e4b8a	-0.15458503
45	0xbed034e2	-0.40665346
46	0xbde789ca	-0.11305578
47	0xbc791c51	-0.015204505
48	0xbe3ad6f1	-0.18246056
49	0x3e259dca	0.16173473
50	0x3e117b43	0.14207177
51	0xbe85ab76	-0.26107377
52	0x3da280e3	0.079347394
53	0x3e6d04f0	0.23146415
54	0xbe2701ee	-0.1630933
55	0xbde53e8c	-0.111935705
56	0xbe9557a5	-0.2916843
57	0x3db12a5e	0.08650659
58	0xbdfbb4b6	-0.12290327
59	0x3ebf3b6f	0.37350032
60	0xbe494364	-0.19654614
61	0x3d0c3bfe	0.0342369
62	0x3e76c98a	0.24100319
63	0xbea80a47	-0.3282034
64	0x3e5543bb	0.20826618
65	0x3e27cb46	0.16386136
66	0x3e5c2e0a	0.21501938
67	0xbcaddda1	-0.021223845
68	0x3d7a3287	0.061083343
69	0x3e5109fd	0.20413966
70	0xbe292945	-0.1651965
71	0x3e38a411	0.18031336
72	0xbd886090	-0.06659043
73	0x3eb165af	0.3464789
74	0xbe00ac72	-0.12565783
75	0x3e765be7	0.24058495
76	0xbd94a850	-0.072586656
77	0xbe4c815b	-0.1997122
78	0xbee168a3	-0.44025144
79	0x3ec0fe94	0.37694228
80	0x3e0fb75b	0.14034788
81	0xbee46141	-0.4460545
82	0xbedeaa69	-0.43489388
83	0xbe3da5df	-0.18520306
84	0xbdba6da7	-0.09102946
85	0x3e692850	0.22769284
86	0x3dded6c1	0.10880805
87	0xbea86fc4	-0.3289777
88	0xbcdd80dd	-0.027038986
89	0x3e62322a	0.22089449
90	0xbeafc557	-0.34330246
91	0xbcf56ccf	-0.02995911
92	0x3d109ec3	0.035307657
93	0x3d322bd4	0.04349883
94	0xbd449a62	-0.047998793
95	0x3ec59301	0.38588718
96	0x3e3a7c2b	0.18211429
97	0xbe4cf8e0	-0.20016813
98	0xbeaeebca	-0.34164268
99	0xbec79b3c	-0.38985622
100	0xbe9c0a91	-0.30476812
101	0x3e024572	0.12721804
102	0x3bf50b43	0.007478149
103	0x3dcd1d29	0.100153275
104	0x3db0ebf8	0.086387575
105	0xbb3f2bf7	-0.0029170492
106	0x3e943f1a	0.28954393
107	0x3df03e0c	0.117305845
108	0x3e0120c6	0.12610158
109	0xbe98834b	-0.2978767
110	0xbe976ed3	-0.2957674
111	0xbe1c025a	-0.15235272
112	0xbe4acc94	-0.19804603
113	0xbebb8538	-0.36625075
114	0xbef6f5f0	-0.4823451
115	0x3ecbb908	0.39789605
116	0xbe4807d1	-0.19534232
117	0x3ec65fd9	0.38745
118	0x3d026c08	0.031841308
119	0xbd1d922c	-0.03846948
120	0xbdc71493	-0.09720721
121	0x3d468edb	0.04847608
122	0x3e71fd7a	0.2363185
123	0x3e0b504d	0.13604851
124	0xbeafb8e5	-0.3432075
125	0xbe15e7d6	-0.1463922
126	0xbe0b4e86	-0.13604173
127	0x3ebc5b29	0.367883
128	0x3ec54564	0.38529503
129	0x3ec71072	0.38879734
130	0x3e6de932	0.23233488
131	0x3e90f26c	0.28309953
132	0xbeaeabba	-0.34115392
133	0xbe2c3483	-0.16816907
134	0xbe749bce	-0.2388756
135	0xbe8a3856	-0.26996106
136	0x3ec6b051	0.38806394
137	0xbdc334f1	-0.09531582
138	0xbec8556b	-0.3912767
139	0x3da96c4e	0.082726106
140	0xbdaf3011	-0.0855409
141	0x3e77d4d2	0.24202278
142	0xbe1e7800	-0.15475464
143	0x3d93a805	0.072097816
144	0x3e63d5fb	0.22249596
145	0x3e467c3e	0.19383332
146	0x3e9c7422	0.30557352
147	0x3e2cf72d	0.16891165
148	0x3b168cc3	0.0022972084
149	0x3ecddbd8	0.4020679
150	0x3e5a6e4b	0.21331136
151	0xbe16edcc	-0.1473915
152	0xbe8f115c	-0.27942932
153	0xbe276396	-0.16346583
154	0x3e947f0a	0.29003173
155	0xbe9bc353	-0.30422458
156	0xbe321207	-0.1738969
157	0x3ca56b9f	0.02019292
158	0xbe08e394	-0.13368064
159	0xbe42cbd2	-0.19023064
160	0xbe3f8a70	-0.18705153
161	0xbdc0e74d	-0.09419117
162	0x3e9093b2	0.28237683
163	0xbcc3ddfe	-0.023909565
164	0x3e405a11	0.18784358
165	0x3e9432a5	0.2894489
166	0xbe5410af	-0.2070949
167	0x3ecdbeee	0.4018473
168	0x3dda53d0	0.10660517
169	0x3e27321d	0.1632771
170	0xbeaf5bb7	-0.3424966
171	0xbe782bfc	-0.24235529
172	0xbdd659eb	-0.10466369
173	0xbe76c3ba	-0.24098101
174	0x3de38c49	0.11110742
175	0xbcd0c848	-0.025486127
176	0x3ea8fe81	0.3300667
177	0xbe4603f7	-0.1933745
178	0x3eb78402	0.358429
179	0x3e5dce83	0.21660809
180	0xbdfc61ac	-0.12323317
181	0xbd3fbd5c	-0.046811447
182	0x3e9ede6c	0.3102907
183	0xbe0a54b9	-0.13508882
184	0xbe2215ee	-0.15828678
185	0xbda1522c	-0.07877001
186	0xbe6ff601	-0.23433687
187	0x3dc486e1	0.095960386
188	0x3eb7d076	0.3590123
189	0x3e3d5ab0	0.18491626
190	0x3e0a9042	0.13531592
191	0xbe01d43c	-0.12678617
192	0xbebaa39d	-0.36452952
193	0x3e27a205	0.163704
194	0x3eacd8a1	0.33759025
195	0xbe1783fa	-0.14796439
196	0xbe45d876	-0.19320855
197	0xbf00cc8c	-0.50312114
198	0x3d8e4d21	0.06948305
199	0x3da262f0	0.07929027
200	0x3dce304c	0.10067806
201	0x3d973601	0.07383347
202	0x3e1e2aa8	0.1544596
203	0xbececad8	-0.40389132
204	0xbeed5a45	-0.46357933
205	0x3e1e35ca	0.15450206
206	0xbd96f553	-0.07371011
207	0x3dc687af	0.09693848
208	0xbee26e68	-0.44224858
209	0xbd092b8e	-0.033488803
210	0xbdee9cbf	-0.11650991
211	0xbe7dc97e	-0.24783894
212	0x3e80d37c	0.2516135
213	0xbe0c57ad	-0.1370532
214	0x3dd30469	0.103035755
215	0xbed15ede	-0.4089269
216	0xbdd5876e	-0.10426222
217	0x3e133566	0.14375839
218	0xbe459ded	-0.19298525
219	0x3dfc0eba	0.12307496
220	0x3c643d7d	0.013930676
221	0x3db6d748	0.089277804
222	0xbe147daa	-0.14501062
223	0xbe26fe9f	-0.16308068
224	0xbe4b3c68	-0.19847262
225	0x3d697add	0.057001937
226	0xbe3ae151	-0.18250014
227	0xbda74e9b	-0.0816929
228	0xbe6af341	-0.22944357
229	0xbd8d4643	-0.06898167
230	0x3e9d39b6	0.30708092
231	0xbe1a2d76	-0.15056404
232	0xbeba8543	-0.36429796
233	0x3e3a26e9	0.18178906
234	0xbe41df00	-0.18932724
235	0xbe3d784d	-0.18502922
236	0x3e884fcd	0.26623383
237	0xbec1a39d	-0.3782014
238	0x3e905eac	0.2819723
239	0x3e8c3dea	0.27390987
240	0x3e0c1866	0.13681182
241	0xbe248454	-0.16066104
242	0x3da22e64	0.079190046
243	0xbea3c09c	-0.31982887
244	0xbd9aa29d	-0.07550547
245	0x3d60517f	0.05476522
246	0x3e2ec405	0.17066963
247	0x3e9e26ad	0.30888882
248	0x3e2ba780	0.16763115
249	0xbe05d23a	-0.13068476
250	0x3e200c56	0.15629706
251	0x3d8e0bca	0.06935842
252	0x3dd5fc2c	0.104484886
253	0x3d863cf6	0.06554596
254	0x3e86ed99	0.26353148
255	0x3e555af4	0.20835477

fc2.weight f4 [4, 256]
0	0xba9c5317	-0.0011926618
1	0xbdf2d93d	-0.11857841
2	0x3db00709	0.08595092
3	0xbe83155d	-0.25602236
4	0xbf1d2a1b	-0.6139237
5	0x3b1d183a	0.002397074
6	0xbe7d7595	-0.24751885
7	0xbd9029b9	-0.07039208
8	0xbdc8d9b9	-0.09807152
9	0x3d42f174	0.04759355
10	0x3bc689ae	0.006058893
11	0xbdc61958	-0.09672803
12	0xbda57415	-0.080787815
13	0x3e4806d8	0.1953386
14	0xbea6d901	-0.32587436
15	0xbe2a1dec	-0.16612977
16	0x3e0620a5	0.1309839
17	0xbe839393	-0.25698528
18	0xbf268fc1	-0.650631
19	0xbe5daf68	-0.21648943
20	0xbda056ad	-0.07829032
21	0xba867b12	-0.0010260066
22	0x3d25ca8a	0.04047636
23	0x3dcbc92d	0.099504806
24	0x3b1d7af8	0.0024029594
25	0xbc5dd9fe	-0.013540743
26	0xbde1cbca	-0.11025198
27	0xbddd2639	-0.10798306
28	0xbe48f544	-0.19624811
29	0x3edb0bcc	0.42782438
30	0xbc565077	-0.013080708
31	0x3d2fb0b8	0.04289314
32	0x3db0ab01	0.086263664
33	0xbec681ee	-0.38771003
34	0x3de2e1ee	0.11078249
35	0xbef3847e	-0.4756202
36	0xbe8c1264	-0.2735778
37	0xbd9da301	-0.07697106
38	0xbe482be3	-0.19547991
39	0xbeba32bf	-0.3636684
40	0x3cf8c966	0.030369472
41	0x3c34677a	0.011010999
42	0x3d7e4327	0.06207576
43	0x3dab4b7b	0.08364006
44	0xbe7cbb63	-0.24680857
45	0xbd1c0686	-0.03809216
46	0xbb283704	-0.0025667557
47	0x3eb1e050	0.3474145
48	0xbe319d2e	-0.17345116
49	0x3d942613	0.072338246
50	0xbe34263a	-0.17592707
51	0xbe66d353	-0.22541551
52	0x3e37ae82	0.17937663
53	0x3d12a048	0.035797387
54	0x3eefd2c4	0.4684049
55	0xbe584f52	-0.21124008
56	0xbebf2624	-0.37333786
57	0xbe808ad0	-0.25105906
58	0xbf234a98	-0.63785696
59	0x3da0500c	0.07827768
60	0xbe53fe2e	-0.2070243
61	0xbe79934a	-0.24372593
62	0xbdaa05e2	-0.08301903
63	0xbeb42c03	-0.35189828
64	0x3d2c9f29	0.042143974
65	0x3df49925	0.119432725
66	0xbd94a121	-0.072572954
67	0xbdefa54c	-0.1170145
68	0x3da85bc1	0.08220626
69	0xbd5a6132	-0.05331535
70	0xbafebe2e	-0.001943534
71	0x3dae33d0	0.08505976
72	0x3dd75d6a	0.10515864
73	0x3dd22790	0.10261452
74	0xbf09a397	-0.53765243
75	0xbebe753f	-0.37198827
76	0xbd94612d	-0.07245097
77	0xbe0ebf8c	-0.13940257
78	0xbac21773	-0.0014808014
79	0x3db86aef	0.09004771
80	0x3d2bf588	0.041982204
81	0x3f04012e	0.515643
82	0x3edc2de0	0.4300375
83	0x3a91f7ac	0.0011136434
84	0xbdf25db8	-0.11834282
85	0x3f33a95b	0.7018029
86	0x3e4cbb73	0.19993381
87	0xbdb828ed	-0.08992181
88	0xbe25dec1	-0.16198255
89	0xbbde73ca	-0.0067887055
90	0xbc902b5c	-0.0175988
91	0x3f25a633	0.64706725
92	0x3d12046b	0.035648745
93	0x3dcfab95	0.101401486
94	0x3a75c11a	0.00093747827
95	0x3b839a37	0.0040161866
96	0xbdd2a016	-0.1028444
97	0x3b03c890	0.0020108558
98	0xbee001ed	-0.4375147
99	0x3e82b7ab	0.25530753
100	0x3d953e08	0.07287222
101	0x3dbbe6dc	0.09174892
102	0x3e3c3669	0.18380131
103	0xbe2fcc94	-0.17167884
104	0x3e3e1d98	0.18565977
105	0xbd99d4d4	-0.07511297
106	0x3dbc4680	0.09193134
107	0xbe0be979	-0.13663282
108	0x3e42fdce	0.19042131
109	0xbc170bae	-0.009219093
110	0xbe188f3c	-0.1489839
111	0x3a3a95f8	0.0007117684
112	0xbabb06fe	-0.0014269052
113	0x3d5d790a	0.05407051
114	0x3e83b8b7	0.25726864
115	0x3d453150	0.04814273
116	0xbac2b8f9	-0.0014856152
117	0x3d3b5780	0.045737743
118	0x3c8e1d5d	0.017347986
119	0x3ee17ee2	0.44042116
120	0xbe3e82a4	-0.18604523
121	0xbe163291	-0.14667727
122	0xbdd475e6	-0.1037405
123	0x3f28cac3	0.6593439
124	0xbda23480	-0.0792017
125	0xbe237f05	-0.15966423
126	0xbefd61e2	-0.4948874
127	0x3d633d41	0.05547834
128	0x3d55e2a1	0.052218083
129	0x3da347f7	0.079727106
130	0xbf2958b8	-0.66151
131	0x3db1f807	0.086898856
132	0xbec4ae8b	-0.38414416
133	0x3ee39099	0.44446257
134	0xbeb27c76	-0.3486058
135	0x3eaa0ad9	0.332114
136	0x3d28ce6d	0.041212488
137	0xbce8e07c	-0.028427355
138	0xbd487fd6	-0.04895004
139	0xbe120f73	-0.14263706
140	0xbd167db3	-0.03674097
141	0x3d93d971	0.07219208
142	0xbda9a27e	-0.08282946
143	0xbf17c0f5	-0.59278804
144	0x3d8964ee	0.06708704
145	0xbe1dff7a	-0.15429488
146	0x3e6cbb77	0.23118387
147	0xbdf5ec1f	-0.12007927
148	0x3f074bff	0.52850336
149	0x3d42e153	0.047578167
150	0xbd5aaf6b	-0.053389948
151	0xbdecd0cd	-0.11563263
152	0x3e635266	0.22199401
153	0x3b3d9b06	0.0028931512
154	0x3daf8291	0.085698254
155	0xbe0481bd	-0.12940116
156	0x3ab0f0bc	0.0013499479
157	0xbebb8bec	-0.3663019
158	0xbb28d74c	-0.0025763093
159	0x3e32225c	0.1739592
160	0xb9bf7cb8	-0.00036523282
161	0x3e89f556	0.2694499
162	0xbcea5e5f	-0.028609453
163	0xbeb6cf3f	-0.3570499
164	0x3ce87141	0.028374316
165	0x3d5ff840	0.05468011
166	0x3ecef2c2	0.40419585
167	0x3d971395	0.07376782
168	0x3f1591e7	0.58425754
169	0x3e0f6372	0.14002779
170	0xbe24dca2	-0.1609979
171	0x3e88375b	0.26604733
172	0x3ba637c3	0.0050725653
173	0xbf2030f7	-0.62574714
174	0xbdaa7bcb	-0.08324393
175	0xbef8d6dd	-0.48601428
176	0x3d978f11	0.074003346
177	0xbecd602b	-0.40112433
178	0x3dc5f6e6	0.09666233
179	0xbcd383c9	-0.025819676
180	0x3ac64a54	0.0015128353
181	0xbed4dc7a	-0.4157446
182	0xbd6ebac7	-0.058283594
183	0xbb7c426d	-0.0038491741
184	0x38562880	5.1059294e-05
185	0xbe13fb1d	-0.14451261
186	0x3d5e8873	0.054329347
187	0xbe2fa420	-0.17152452
188	0x3db6d720	0.089277506
189	0x3d08d3e1	0.03340519
190	0xbe245054	-0.16046268
191	0xbe6d240a	-0.23158279
192	0x3cf8548d	0.030313754
193	0xbd83a56a	-0.064280346
194	0x3dd15fe6	0.10223369
195	0xbb29ceba	-0.0025910572
196	0xbf4d9f7a	-0.80321467
197	0xbe266b09	-0.16251768
198	0xbf611739	-0.8792606
199	0xbd6afa48	-0.057367593
200	0xbf568e2b	-0.8381068
201	0xbd7b9671	-0.06142277
202	0xbd79e1b8	-0.061006278
203	0x3f457583	0.77132434
204	0x3ccd5a83	0.025067573
205	0xbdbfbf71	-0.093626864
206	0xbe55c0a1	-0.20874263
207	0x3f3d1eb4	0.73874974
208	0xbe08adfa	-0.13347617
209	0x3dd46031	0.103699096
210	0xbe4e5dc6	-0.20152959
211	0x3eba7db9	0.36424044
212	0x3d6bea7d	0.057596672
213	0x3aefd56b	0.0018297856
214	0x3e337f59	0.17529048
215	0xbe3a314f	-0.18182872
216	0xbf478ba6	-0.7794746
217	0xbe1168d5	-0.14200146
218	0xbf176530	-0.59138775
219	0xbdeca4ba	-0.115548566
220	0x3dd675fd	0.10471723
221	0xbe8029f4	-0.25032008
222	0xbea41c27	-0.3205273
223	0xba7e19e8	-0.00096931914
224	0xbf1ff956	-0.6248983
225	0xbe07c2a3	-0.13257842
226	0x3b1cfcaa	0.002395431
227	0x3e5cf936	0.21579441
228	0xbf2d3590	-0.67659855
229	0x3e1d330f	0.15351509
230	0xbdf40002	-0.11914064
231	0x3dad36cf	0.084577195
232	0xbe9a941a	-0.30191118
233	0x3e270a33	0.16312484
234	0x3b2cb932	0.0026355502
235	0xbb2c13a8	-0.0026256833
236	0x3d854cc9	0.06508786
237	0xbea80dec	-0.32823122
238	0xbd6dbcc7	-0.05804136
239	0xbdefd493	-0.11710467
240	0x3ef9062c	0.4863752
241	0xb9d70ae0	-0.00041016098
242	0xbe871864	-0.26385796
243	0x3f070bd8	0.5275245
244	0xbf6f1816	-0.9339613
245	0xbebedc52	-0.37277466
246	0x3defe76a	0.117140606
247	0xbe0c010d	-0.13672276
248	0xbdc0cc1f	-0.09413933
249	0x3d360e9b	0.044447523
250	0x3da2a4c9	0.079415865
251	0xbd2f7bae	-0.04284256
252	0xbe79771c	-0.24361843
253	0x3ec7004a	0.38867408
254	0x3d813527	0.06308966
255	0xbda901f0	-0.08252323

fc2.bias f4 [4]
0	0x3deadaa9	0.11467487
1	0xbd3140eb	-0.0432748
2	0x3e301c0c	0.17198199
3	0x3d094dee	0.033521585
