2 - Value-based methods/Project-Navigation/checkpoint.pth (torch_old, 29005 bytes, 7 tensors)

fc1.weight f4 [64, 37]
000000 1b 35 4d bd 82 3e 95 bd 40 c8 de bc 3e b2 d3 bd
       -0.050099473 -0.07287313 -0.027195096 -0.103367314
000010 3d a7 e3 bd 98 30 9e bd b2 dd 4e bd 28 66 6c 3e
       -0.111158825 -0.07724112 -0.050504394 0.23085845
000020 90 18 d9 3d d0 b9 aa 3e 67 a9 23 bd 95 47 80 bd
       0.10600388 0.3334489 -0.039956477 -0.06263653
000030 4d 56 19 be 20 59 3d be e9 66 6a bd 1e 87 2f 3d
       -0.14974327 -0.1849103 -0.05722705 0.042853467
000040 f4 6c be 3d f0 a7 4b bc c6 44 b3 bd 31 41 e3 bd
       0.09298125 -0.012430176 -0.08753352 -0.11096419
000050 17 40 46 3d f9 e4 19 3e 98 06 ab 3c 7c f0 15 ba
       0.048400965 0.15028752 0.020877168 -0.0005719734
000060 3b 96 f9 bd 83 14 95 bd 14 29 2d bc 36 4b 21 bd
       -0.12186857 -0.07279303 -0.010568876 -0.039378367
000070 81 81 22 3d ac e9 7f bd e2 2b aa 3d 88 42 fc bb
       0.039674286 -0.062478706 0.08309151 -0.007698361
000080 6f 16 32 be 35 06 b3 be 17 ca 0b bf ca 9c 8d be
       -0.1739137 -0.34965673 -0.5460524 -0.27658683
000090 80 d9 04 bd 0c bf 02 3e ef 8b e5 3d 5b f2 0e 3e
       -0.032433987 0.12768191 0.11208331 0.13959639
0000a0 e4 ad f0 3d fb 1b 18 bc 20 f6 5c bd 32 37 94 bd
       0.11751917 -0.009284015 -0.05394566 -0.0723709
0000b0 a7 6a a7 bc 70 08 00 be 05 5f 42 be 1c 1b dd 3c
       -0.020436598 -0.12503219 -0.1898156 0.026990466
0000c0 56 b8 bb 3c b3 e6 3f 3d 4c 0b ff 3d 02 1f 90 3d
       0.022915047 0.04685087 0.124533266 0.07037164
0000d0 02 f0 ae 3e cc 9f 1d be 52 c6 7f be 90 15 c8 be
       0.34167486 -0.15392989 -0.24977997 -0.3907895
0000e0 2f e3 b2 bf 71 96 c7 bd 52 9b e9 bd 5d 50 61 bd
       -1.3975581 -0.09745491 -0.11406578 -0.05500828
0000f0 d2 14 bf bd b6 f4 fe bc 7b e8 cc bd db 41 b2 3d
       -0.09330143 -0.031122547 -0.1000528 0.08703967
000100 a0 96 da 3d 81 e2 24 3e 46 42 4e 3e 8e 44 70 3b
       0.10673261 0.1610203 0.20142469 0.0036661956
000110 94 49 07 3e 12 aa e5 3d 3a 2b 07 3e 1d 6a 89 bc
       0.13211662 0.11214079 0.13200083 -0.016774232
000120 b1 82 8f bb 29 94 f5 3b 08 da 96 3e 7b 9d 0f 3d
       -0.0043795933 0.0074944687 0.2946322 0.035062294
000130 8e d8 00 3d e5 a5 fc be 6b b5 96 be 9c 89 4a be
       0.031456523 -0.49345317 -0.29435286 -0.19779056
000140 ad f2 38 be 35 d2 6b 3e 68 e9 9c 3b 31 bb a3 be
       -0.18061323 0.23029406 0.0047885664 -0.31978753
000150 57 f2 3d bd 7e 19 f8 bd 5a da e7 3c dd f0 90 be
       -0.04637369 -0.12114237 0.02830236 -0.28308764
000160 05 3d 63 be 8d 68 51 be 44 6d 6a 3e ca 79 83 3b
       -0.22191246 -0.20450039 0.22893244 0.004012321
000170 02 a4 c7 bd 73 fe 76 3c 14 bf c9 be 78 19 9e be
       -0.09748079 0.015075314 -0.39403594 -0.30878806
000180 aa 2d 6d 3e fd 36 e8 be 60 2e 14 bf 08 1a 32 be
       0.2316195 -0.45354453 -0.5788326 -0.17392743
000190 f1 da 4c 3e 21 e8 b4 3d 9a 3d 83 bd 4b 52 6f bc
       0.20005395 0.088333376 -0.06408234 -0.0146070225
0001a0 d2 27 18 bf 70 79 7c be ac 67 af 3d bc 48 72 be
       -0.5943576 -0.246557 0.08564696 -0.23660558
0001b0 d9 62 2a bf aa ab d7 bd 10 80 49 bc 41 2b 67 3e
       -0.6655708 -0.10530789 -0.012298599 0.22575094
0001c0 04 d6 ed bd 26 d4 04 bd 3e 25 aa 3c af 6a f2 be
       -0.11613086 -0.032428883 0.020769712 -0.47347018
0001d0 e2 3f e6 be 48 d8 a8 bc 65 98 5b 3e 02 f5 d6 bd
       -0.44970614 -0.020610943 0.21444853 -0.1049595
0001e0 e8 e6 4a be 42 cc e7 3d ff 23 c2 be 90 0c e9 3d
       -0.19814646 0.11318256 -0.37918088 0.11379349
0001f0 f1 31 38 bf 80 13 c5 ba e3 56 81 3d d5 be 0d be
       -0.71951205 -0.0015035719 0.063154005 -0.13842328
000200 51 da 1b be be 6d b5 be 0c 37 0f bf d3 fe 58 bb
       -0.1522 -0.3543529 -0.5594337 -0.0033110871
000210 36 00 a7 be 77 08 13 3e 6c 48 89 be 01 bc 0d bf
       -0.32617348 0.14358698 -0.26813066 -0.55364996
000220 9a b7 50 be 61 93 cb 3c 29 bd f8 3b 26 38 b8 3d
       -0.20382538 0.02485055 0.007590909 0.089950845
000230 65 a6 14 bd 7f 1a 2e be 19 9d 1c 3d 12 37 76 3e
       -0.0362915 -0.17002295 0.038235757 0.24044445
000240 c0 26 e6 be b5 fa 19 be 8e 7f ac 3d d5 73 c4 bb
       -0.4495144 -0.15037043 0.084227666 -0.0059952536
000250 e1 f9 31 bd 8c 31 4f bd 7c 94 f6 bd 60 a7 b6 bd
       -0.043451194 -0.05058436 -0.1204004 -0.08918643
000260 f8 2d 01 3d c5 c8 ce 3e 42 ea b9 bd 70 0e 00 bf
       0.03153798 0.4038755 -0.09077884 -0.5002203
000270 b4 2e ea be 84 c3 87 bf 48 06 99 bd e0 bf 06 3d
       -0.45738757 -1.0606542 -0.07471901 0.03289783
000280 c8 af 61 3c 2c 0d 32 3d 5a 52 7c bd 81 fb 62 bd
       0.01377482 0.043469593 -0.061601974 -0.055415634
000290 24 84 8f bc d6 a1 94 3c 5c d1 e2 bc 56 64 d0 ba
       -0.017519064 0.018143576 -0.027687721 -0.0015899043
0002a0 f7 9d 33 be f5 10 51 3c e7 dc 20 3e 5c cd 22 3e
       -0.17540728 0.0127603905 0.15709268 0.15898651
0002b0 73 b0 06 3e 46 e3 4c 3e 30 12 87 3d bf 48 41 bd
       0.13153248 0.20008573 0.06595266 -0.047188517
0002c0 02 02 9e 3d 40 ea af bd e9 c5 cf 3b 0d e0 b0 bc
       0.07715227 -0.085896015 0.0063407314 -0.02159121
0002d0 d3 84 ec 3d 8c 98 41 3e 29 6f b6 3e 84 d8 0f bc
       0.11548772 0.18905848 0.35631683 -0.008779649
0002e0 dd 9a 3a bb fc 16 cd 3d 64 93 4f 3c ff 1c e7 3c
       -0.0028473653 0.100141495 0.012669418 0.028212069
0002f0 f5 6f 1c bc 87 73 63 bc 96 cf cb 3e be 13 1b bf
       -0.009548177 -0.013882524 0.39806813 -0.60577
000300 78 d9 c9 be 43 3d fe be cf 72 d7 bf cd c5 69 3c
       -0.39423728 -0.49656114 -1.6831912 0.014268351
000310 ab c5 13 bd 44 30 34 3c f2 8b 07 3d b4 ec e8 3d
       -0.036077183 0.010997836 0.033092447 0.113732725
000320 eb 96 7b 3d 82 6a ac 3c 08 52 8f 3c 2c ce 77 3d
       0.061423223 0.02104688 0.01749517 0.060499355
000330 9e d8 87 bd 93 0e ed 3d ff dc f6 3d 3b e5 04 3e
       -0.06633113 0.115750454 0.120538704 0.1297807
000340 cd 8e 0b 3e cb ed 4e 3e 7d 52 39 bd a9 bc 5e 3c
       0.13628693 0.20207898 -0.045244683 0.013594785
000350 ae 41 a5 3d 17 c9 34 3e c5 91 b5 3d 17 a8 b3 bc
       0.08069168 0.17654835 0.08865694 -0.021930737
000360 94 2b 12 3e 11 d3 13 3d f7 5f 88 3d 0f be a2 bb
       0.14274436 0.03608996 0.06658929 -0.0049665044
000370 85 d1 f8 bb b8 98 53 3c bf a4 3d be 91 0b ed 3c
       -0.007593336 0.012914829 -0.18519877 0.02893618
000380 6b 23 5f 3d 78 2c 46 bd 4e 38 db be 02 df 95 bd
       0.054477137 -0.048382252 -0.42816395 -0.07317926
000390 18 8b 15 bd 4c 3f c7 bd 4e 69 c8 bd 1c cb 96 bd
       -0.036509603 -0.0972887 -0.0978571 -0.07362959
0003a0 4b b3 0f bd 94 fe f5 3c 61 ff 55 3d f8 b2 f1 3c
       -0.035083096 0.030028619 0.0522455 0.029504284
0003b0 42 c0 4c 3e 3c 72 72 be fb ad 4b bc b1 91 d5 bd
       0.19995216 -0.2367639 -0.012431617 -0.10428179
0003c0 9d fc 3f 3e ff 6c ae 3d 4d 63 89 be 27 6d 43 bd
       0.18748708 0.08516883 -0.26833573 -0.047711518
0003d0 86 6c f9 3d f0 a0 11 3c 7e a1 cb 3d 0c 89 45 be
       0.12178902 0.008888468 0.099429116 -0.1929056
0003e0 6f 3a d4 bd 88 c9 ed bd 2a 53 28 3c aa 9b e8 bd
       -0.10362708 -0.11610705 0.010273734 -0.113578156
0003f0 da 92 36 3c 88 be 51 be 23 0d 2c 3e 50 37 61 bd
       0.011143411 -0.20482838 0.16801886 -0.05498439

fc1.bias f4 [64]
000000 1e fe b0 3d fb 11 05 bc 7d 98 d4 bd 9b 19 ab bd
       0.08642219 -0.008121963 -0.10380647 -0.08354493
000010 d5 6c 5b 3e 03 fc 43 3d 5d 69 22 be 30 23 32 3d
       0.21428235 0.04784776 -0.15860505 0.04349059
000020 fb f4 f2 bc e2 e7 25 be f6 1a d6 3d 8f 6b 53 3d
       -0.029657831 -0.16201738 0.10454361 0.051616248
000030 be 8b b3 3d e4 57 cd 3c fa 26 83 bd 76 c3 7a bd
       0.08766888 0.025066324 -0.064039186 -0.061221562
000040 00 d6 51 3d 05 32 ed 3b 7b c6 64 bd 2a 2f 3a be
       0.051229477 0.007238629 -0.05585335 -0.18182054
000050 b3 e9 2c be 3e dc 73 3d f7 bb a6 bd ec eb a0 bd
       -0.16886024 0.05953621 -0.0814132 -0.078574985
000060 97 01 fb bd 2b fa 22 3e 88 6b 2b bb 96 9d fe bd
       -0.122561626 0.15915744 -0.0026156623 -0.12432401
000070 10 27 44 3e 85 fb 28 3e ed 1b c3 bd f0 d9 08 be
       0.19155526 0.16502197 -0.09526811 -0.13364387
000080 71 e0 f4 3d 02 dd 3f bc 53 a2 98 bd 25 68 cf 3d
       0.11956871 -0.011710407 -0.07452836 0.10127286
000090 df e8 81 bd b9 b6 00 3b 78 fe a7 bd 8e 0d 21 be
       -0.06343245 0.0019640161 -0.08202833 -0.15727827
0000a0 45 97 ac bd 2c e7 dc bd 08 55 6e bd a9 6f cb 3d
       -0.0842729 -0.1078628 -0.05818656 0.09933407
0000b0 ff 6b 57 bd 12 74 08 be 07 07 21 bc 42 1d 09 be
       -0.052593227 -0.13325527 -0.009828336 -0.13390067
0000c0 a2 8a c3 bd 45 c2 17 3e f7 1a 5a be ec d1 f4 3d
       -0.095479265 0.14820202 -0.21299349 0.11954102
0000d0 99 6f bd bc 79 6d 5e bd 8e 39 35 be 60 1e 85 bc
       -0.023124503 -0.05430362 -0.17697737 -0.016249835
0000e0 83 01 f6 3d 80 e9 44 bd b4 5c 85 bd b8 2c 99 bd
       0.12012007 -0.048074245 -0.06511822 -0.074792325
0000f0 af 0d f8 3c ce 50 aa 3c bd 3b 59 bd de 8c fe 3b
       0.030279962 0.020790484 -0.053035486 0.0077682575

fc2.weight f4 [64, 64]
000000 ae 50 5c 3c dc e3 64 3e 61 78 62 3e b8 c3 da 3e
       0.01344697 0.22352546 0.22116233 0.42727447
000010 96 9f 53 3d f9 ab c8 3d b2 de 46 bd 90 fc 17 be
       0.051665865 0.09798426 -0.048552223 -0.14842439
000020 36 b3 19 3e 19 e7 d1 3b c9 ef f6 bc c5 4d 8c 3d
       0.1500977 0.006405723 -0.030143635 0.06850771
000030 a8 47 08 bf 28 66 6b 3d dd 19 4f be 4a 97 4c be
       -0.5323434 0.05747047 -0.2022471 -0.19979587
000040 cb 38 a0 bc be 85 84 3d 40 75 3f bb 93 d0 f6 bd
       -0.019558331 0.06470822 -0.0029214174 -0.12051501
000050 49 ff 65 bd 1e b9 1b bd 02 28 a2 bd c3 33 23 be
       -0.056151662 -0.03801834 -0.07917787 -0.15937714
000060 60 4c 1a 3e 6e 1b f7 3c e0 4d 81 3e b6 e9 a7 3d
       0.15068197 0.030164447 0.25254726 0.08198874
000070 ce 4f 36 3e 05 9e 93 3d 13 7e 51 3e cc 42 a7 be
       0.1780388 0.07207874 0.2045825 -0.3266815
000080 bb c7 9a 3d d9 9d 1b be f1 d0 01 be 36 5d 06 be
       0.07557627 -0.15196933 -0.12677361 -0.13121495
000090 88 a4 8c be 50 14 48 3e 7c ac a8 3e e6 3c 16 3c
       -0.27469277 0.19538999 0.32944095 0.009169793
0000a0 b6 9c 82 bc bf 05 04 be 3e c7 76 3d 02 2d 0b bc
       -0.015943866 -0.12892817 0.060248606 -0.008494617
0000b0 05 28 b9 3c d1 07 dd 3c 61 a5 38 be f6 b3 45 3c
       0.02260209 0.026981266 -0.18031837 0.012066832
0000c0 4b 32 e9 bc d8 fd d4 bc 2f 9a c6 3c 94 0d 3c 3e
       -0.028466364 -0.025999948 0.024243442 0.18364555
0000d0 0c e3 61 be b3 bf 2c bd a1 8a ab be a8 34 c4 3c
       -0.22059268 -0.042175006 -0.33504203 0.02395089
0000e0 b4 6f 8f 3d 32 61 b4 3d 44 22 a6 3d 90 44 8a 3c
       0.070037276 0.08807601 0.081120044 0.016878396
0000f0 f2 14 15 bd 5b 1d 79 3e b5 9b da bd d0 0e 36 3e
       -0.036396928 0.24327604 -0.1067423 0.17779088
000100 59 19 83 3e cf bb 1a be 9e d5 8f be 0d ca 2b bd
       0.25605276 -0.15110706 -0.28092664 -0.041940738
000110 d4 fc fc bd 24 35 59 be c4 c9 2c bd a5 34 20 3e
       -0.12352911 -0.21211678 -0.042184606 0.15645082
000120 f4 a3 4d 3d 21 61 74 3d 11 30 99 bc 85 03 9d 3d
       0.050205186 0.05966294 -0.018699678 0.07666687
000130 cd ad 86 bd 63 49 a6 3d e3 ce 6a 3d 01 b9 17 bf
       -0.065761186 0.08119466 0.05732621 -0.5926667
000140 2a 95 60 3e 45 ae 5a be 82 5d 81 be 6b 29 41 be
       0.21931902 -0.21355541 -0.25266653 -0.18863456
000150 8b 08 59 bc d3 62 78 be a1 ae d7 bd 02 d8 80 be
       -0.013246666 -0.24256448 -0.10531355 -0.251648
000160 05 9d 80 be 64 3f 30 3e 4c b5 8b be 51 3a 46 be
       -0.25119796 0.17211682 -0.27286756 -0.19358183
000170 ae 3b 8d 3d a2 28 f9 bd 7c 04 e4 bb 25 2e aa be
       0.068961486 -0.12165953 -0.0069585424 -0.3323833
000180 16 3c f9 bd 55 bd f4 3d 07 0b 8d 3d 6c cc 10 be
       -0.121696636 0.11950175 0.06886869 -0.14140481
000190 36 aa 98 3d 20 e4 de bd 09 bc 96 3e 2b df 77 be
       0.0745434 -0.10883355 0.29440334 -0.24206226
0001a0 c4 03 ad bd cf 15 37 bd e5 2c 6e be cc 5d e5 be
       -0.08447984 -0.044698533 -0.23259313 -0.44798124
0001b0 cc 85 8f be 41 43 d3 bd dd 87 c5 3c 60 95 1d bd
       -0.28031766 -0.10315562 0.024112636 -0.038472533
0001c0 63 d3 dd bd ac 7c 91 be 0a a4 06 3e 9c 4f 16 be
       -0.108313344 -0.2841543 0.13148513 -0.14678806
0001d0 c8 be 84 3d 89 3d 71 be 61 ab 1b be 89 3d fe 3d
       0.06481701 -0.2355863 -0.15202095 0.12414081
0001e0 1b 4c cd be 66 9b 31 be 49 0f 11 3e ac c2 0a be
       -0.40097126 -0.17344436 0.14165987 -0.13550824
0001f0 56 6e 03 bf 79 68 5a bd 70 b3 b7 bd ad 72 5d be
       -0.51340234 -0.05332229 -0.08969772 -0.21625777
000200 ca 07 c1 bd df 42 de bd 94 b5 d5 3d cf d4 db bb
       -0.09425314 -0.108525984 0.10435024 -0.0067087184
000210 bb f8 cc be cc e8 c3 be 1b 9d 90 bd a7 1a a8 bd
       -0.40033516 -0.38263547 -0.070612155 -0.082082085
000220 0b 26 f4 3c 5a 26 89 be 5e 1f 90 3e 98 8e a0 be
       0.029803297 -0.26787072 0.2814893 -0.3135879
000230 12 13 04 3d d0 ae c1 3c b5 f1 99 3e ce 33 51 bd
       0.03224475 0.023642927 0.3006722 -0.051074795
000240 cf 90 25 be 03 e8 92 bd 8d f5 69 be 33 d2 86 bc
       -0.16168521 -0.07173159 -0.22847576 -0.016457653
000250 16 60 14 be 2f 12 f8 bd 89 8f cc 3c b7 4f 12 3d
       -0.14489779 -0.12112843 0.024970787 0.035720553
000260 66 3e 02 3e a4 c7 7d bd 7d 79 d5 3e 89 47 12 be
       0.12719116 -0.06195797 0.4169425 -0.14285101
000270 46 c8 14 be e1 4a 8a 3b 55 13 05 3e 0c 9d e6 3b
       -0.14529523 0.004220352 0.12995656 0.0070377644
000280 fe dd 5c bd ce f6 5f 3d 84 4e 2f 3e 9d e7 8d 3e
       -0.053922646 0.05467873 0.17119795 0.2771577
000290 a3 87 54 3d b7 51 11 be 2a c4 90 3e c5 b5 a0 bd
       0.051887166 -0.14191328 0.2827466 -0.0784717
0002a0 c4 12 68 3a 45 8f 09 3e 36 be 38 be 1f fc 91 3d
       0.0008852894 0.13433559 -0.1804131 0.071281664
0002b0 32 ec df 3c 8d 1e dc bb 29 63 a7 ba 5c 33 14 be
       0.027334306 -0.006717509 -0.0012770641 -0.14472717
0002c0 a5 8a 97 3d a5 d8 9e be 31 2f 61 be 71 9b c8 bd
       0.07399491 -0.31024662 -0.21990658 -0.09795273
0002d0 15 81 7d be 4f 28 12 be 23 55 bf bd d3 cb 1a bc
       -0.24756272 -0.14273189 -0.093424104 -0.00944801
0002e0 07 86 86 be 21 44 cc be d5 a6 d6 bd 90 80 3f bd
       -0.2627413 -0.39895728 -0.104810394 -0.046753466
0002f0 5f 40 35 3d f3 36 66 3c 08 12 80 be 53 55 66 bc
       0.044250842 0.014051187 -0.25013757 -0.014058429
000300 48 07 2e bd 1b b2 9c be 37 1e 36 3e 5b db c3 be
       -0.042487413 -0.30604634 0.17784964 -0.38253292
000310 ec 33 a2 bd 76 15 8c bd 9c 2e 5b 3c 36 99 8c be
       -0.079200596 -0.06840031 0.013377812 -0.2746064
000320 42 a3 e4 bd d9 8b bf bd 84 66 b6 bc 24 c0 76 3e
       -0.111639515 -0.09352846 -0.02226568 0.24096733
000330 22 36 21 3c 67 35 50 bd ca a9 c6 3e 56 4a a7 be
       0.009839566 -0.05083218 0.38801414 -0.326739
000340 db a6 8a be 34 df 15 be ae 68 de 3d 7e bf b3 bd
       -0.27080426 -0.14635926 0.1085981 -0.087767586
000350 dd 01 31 3e 71 6a a1 3d 41 89 9d be 45 68 2c 3d
       0.17285867 0.0788163 -0.3076878 0.042091627
000360 db 3a 12 3e 1b 80 03 bf 1a 5f 81 bd 9d 4e a0 3e
       0.14280264 -0.5136735 -0.06316967 0.31309977
000370 36 3f 84 3d 00 93 e3 bd d4 ce bc 3d 2c 8d cc bd
       0.06457369 -0.111120224 0.09219137 -0.09987864
000380 25 40 0a 3d db 9c 68 be 95 e8 61 3e 4d 1a d2 3d
       0.03375258 -0.22716086 0.22061379 0.10258923
000390 39 80 25 be bd 6c 06 bd be 59 7c 3e 16 8a 10 be
       -0.16162194 -0.032818545 0.24643609 -0.14115176
0003a0 c8 af 45 be 68 cb 95 bd 36 5c db bd f8 2d 86 be
       -0.19305336 -0.07314187 -0.10710947 -0.26206946
0003b0 55 e2 87 be 58 f4 d4 bd af 24 e6 bd 57 06 06 be
       -0.26539865 -0.10398167 -0.112374656 -0.13088356
0003c0 ad 12 73 be 45 a9 f5 bc e8 36 5b be 32 a7 51 bd
       -0.23737593 -0.02998794 -0.21407664 -0.05118484
0003d0 d9 75 1f 38 1c ff 56 3e 80 4b 42 3e bb a8 83 bd
       3.801831e-05 0.20995754 0.18974113 -0.06428667
0003e0 e3 15 64 be cf 6a f4 bc 50 eb af bd 0f 07 46 3e
       -0.22273974 -0.029836087 -0.08589804 0.1933863
0003f0 0b d3 1a bf 97 85 a7 3e 29 46 0a bd e9 b8 57 3e
       -0.60478276 0.32719108 -0.033758316 0.21066631

fc2.bias f4 [64]
000000 06 c7 27 bd 81 49 86 bd 6f 77 89 bd 1e 02 04 bd
       -0.040961288 -0.065569885 -0.06712233 -0.03222858
000010 00 ff d4 3d 47 24 22 be c9 91 da bd bd 0f 69 3d
       0.104002 -0.15834151 -0.106723376 0.056899775
000020 54 18 9a bc e9 d4 6d 3d 88 e2 01 be 25 6c 5b 3d
       -0.018810429 0.058064375 -0.12684071 0.05356993
000030 ce 74 3f 3d 36 c4 fc 3c ea e4 e7 bd 70 65 9d 3d
       0.046742253 0.03085528 -0.11322959 0.07685363
000040 34 00 fe 3b 61 7b a8 bd 28 ef 30 bd ac df 99 3d
       0.007751489 -0.08226658 -0.043196827 0.07513365
000050 af e7 7f 3e ec 59 ac 3c 1b fa 83 bd dc 1b ed bd
       0.24990724 0.021038972 -0.06444188 -0.115775794
000060 3f d2 d2 bd 26 bd ca bd 13 bb 2b 3e ba 8c d8 bd
       -0.102940075 -0.098993585 0.16770582 -0.105737165
000070 da dd ba bd 9d 63 b9 bb ba 3e a8 3a 4f ec 41 be
       -0.09124346 -0.005657627 0.0012836077 -0.18937801
000080 6a 10 0c be 55 a9 27 3c 0f b8 11 3d 2c fb c5 bd
       -0.13678136 0.010233243 0.035575923 -0.09667048
000090 98 57 0f be 2d f1 4d be b4 7a c9 bb 9a ac fc bc
       -0.13998258 -0.20111533 -0.0061486606 -0.030844022
0000a0 37 2f 86 bd 01 ec 2a 3e 7c ef 10 bd 0b 76 15 be
       -0.06551974 0.16691591 -0.03538464 -0.14595811
0000b0 99 e3 d1 bd 06 1c ce bd 12 bb 54 bd ff af 48 be
       -0.10248489 -0.10063939 -0.051936217 -0.19598387
0000c0 a5 37 a7 bc e4 4d 9b bd 4e 1c cf bd 22 a9 8c 3d
       -0.020412276 -0.07583216 -0.101128206 0.06868197
0000d0 6d 6b 22 bd 89 51 47 be 15 a3 87 bb 11 13 1d be
       -0.03965323 -0.19464697 -0.004139314 -0.15339305
0000e0 dc 07 a7 bd ef a8 d7 bd 5e 3d 71 3d 1d 6d 2d be
       -0.08155796 -0.105302684 0.058896415 -0.16936155
0000f0 09 7c 22 3d d0 50 2b 3d e4 9f e9 3d 5d 10 d6 bd
       0.03966907 0.041825116 0.1140745 -0.1045234

value_function_fc.weight f4 [1, 64]
000000 d2 59 91 be c5 60 c9 3e 10 f0 9d 3e 9a aa 2c be
       -0.2838884 0.39331642 0.30847216 -0.16861954
000010 c7 51 4b 3e da ed 9d bd d0 ae 93 3e 5e 06 56 bd
       0.19855414 -0.07711382 0.2884431 -0.052252166
000020 5f 72 55 3e 1f 96 ee 3a 42 22 9a be 33 b5 a4 3d
       0.2084441 0.0018202699 -0.30104262 0.080423735
000030 19 2e 14 bd 37 a8 b3 3d 68 d8 45 3e 02 21 27 3d
       -0.036176775 0.08772319 0.19320834 0.040802963
000040 13 c5 83 be 04 a6 af be db 72 65 be 7f f4 12 3e
       -0.25736293 -0.34306347 -0.22407095 0.1435108
000050 8a 30 16 3e 61 0c c4 3c 1e de 90 3d 4b 3f fa be
       0.14666954 0.023931684 0.070736155 -0.48876414
000060 24 1d 27 bd 6a 2d 9c be 37 0a 32 3e 72 47 ed be
       -0.040799275 -0.30503398 0.17386709 -0.4634357
000070 13 9c 14 bd 38 39 4f bd b8 70 68 be a7 1a 48 3e
       -0.036281656 -0.050591677 -0.22699249 0.19541417
000080 97 62 14 3e a9 05 7d 3e ac c8 28 3d c0 1f 93 3e
       0.14490734 0.2470919 0.041207 0.2873516
000090 d3 73 52 bd bd b8 3b be af 14 78 3e 66 d4 8e 3e
       -0.05137999 -0.18332191 0.2422664 0.27896422
0000a0 0d 86 10 3d 41 c5 b6 bd bf 0d da 3b 23 62 99 3c
       0.03528409 -0.08924342 0.0066544707 0.018723553
0000b0 72 14 5c 3d c4 dd 21 3d fe c9 7c 3e 88 90 f6 3e
       0.053730436 0.039518133 0.24686429 0.48157144
0000c0 0b a1 c7 bd 01 1a 7e 3e 5f 9e 26 3d b8 83 b9 3e
       -0.097475134 0.24814607 0.04067838 0.36233306
0000d0 ca b4 fe 3d 8b de 1a 3d ff 27 32 3d 10 b8 01 be
       0.124368265 0.03780989 0.043495174 -0.1266787
0000e0 0b 8c f4 bd 38 a6 f5 bd fa 6f 7c 3e c3 15 7d be
       -0.119407736 -0.11994594 0.2465209 -0.24715333
0000f0 0c 34 b5 be d6 7c 87 3e a3 74 33 3e 48 55 e4 bb
       -0.3539127 0.2646243 0.17524962 -0.006968174

advantage_function_fc.weight f4 [4, 64]
000000 20 a3 30 be b1 64 88 3e 76 ce 76 3e e0 cf 8f bd
       -0.17249727 0.2663932 0.24102196 -0.07022071
000010 89 05 bb 3c c0 7c 50 ba 0a 65 5e be bc a3 ce bc
       0.022829788 -0.00079531595 -0.21718231 -0.025224559
000020 6b fc 9f 3d 52 de 92 3d dd 4b 6f 3c 65 bf a2 bd
       0.07811817 0.071713105 0.01460549 -0.07946662
000030 de 9d 38 bd 61 29 21 bc ef 86 c5 bd b5 93 47 3c
       -0.04507243 -0.009836526 -0.09644877 0.012181212
000040 fb 2b 9a 3e 56 30 ac be 76 12 d9 3d 48 36 e3 3d
       0.3011168 -0.33630627 0.10599224 0.11094338
000050 27 58 e7 3d dd 6b 8d bc 08 11 80 3e c5 e0 cf 3d
       0.112961106 -0.017263347 0.25012994 0.10150293
000060 14 ce 06 3d 35 34 15 3e 2d 80 ec 3d d3 77 95 be
       0.032911375 0.14570697 0.11547885 -0.2919298
000070 e1 38 8e bd a0 46 36 3e 3a 03 12 3e e0 e2 b2 bd
       -0.069444425 0.17800379 0.14259043 -0.08734679
000080 05 0f 80 be d2 c8 23 bd ef 13 a0 bc e8 2d 84 3c
       -0.2501146 -0.03998644 -0.019540755 0.016135171
000090 f9 23 80 be 61 09 27 3e fe 0d 9e 3d 51 15 59 3e
       -0.25027445 0.16312172 0.077175125 0.21199538
0000a0 38 66 32 3d d6 72 74 be 22 99 e0 3d 5c b5 10 be
       0.043554515 -0.23871931 0.10966708 -0.14131683
0000b0 87 06 53 be ae 7d 0b be 12 09 c3 3d 2d fa ae 3c
       -0.20607959 -0.13622162 0.095232144 0.021359527
0000c0 c9 19 77 3d e2 07 a3 3d af 42 02 be e9 6d 5d 3e
       0.060327325 0.07960488 -0.1272075 0.21623959
0000d0 28 20 e4 bd 18 bb 44 be b0 33 98 bd 06 d8 5d 3d
       -0.11138946 -0.19211996 -0.074317336 0.054161094
0000e0 d8 a8 52 bd cc b2 50 3c 1a 7e 28 3a 7e 1c 1d 3c
       -0.051430553 0.012737941 0.0006427482 0.009589313
0000f0 8c 8b aa be 2f e7 c4 3c 81 43 71 3e f8 70 7f 3e
       -0.3330959 0.024036018 0.23560907 0.24945438
000100 b7 e3 c7 3b fe 86 3d bd 83 6e 44 3d 25 48 f8 3e
       0.006100144 -0.046271317 0.047956955 0.48492542
000110 14 69 f0 3c 06 d0 b5 3d 10 44 7f 3e e3 4c 5d 3d
       0.02934698 0.08877568 0.24928308 0.054028403
000120 d7 2f 3c 3e af 31 ce bd e1 55 0d 3e e9 44 5b bc
       0.18377624 -0.1006807 0.13802291 -0.013383129
000130 e0 3f 4f 3d 6b 6b 6d bd f7 a1 fa 3e 28 8a 3d 3d
       0.050598025 -0.05796377 0.48951694 0.046274334
000140 63 78 a0 be bc 49 80 3e c5 5b aa be 21 fb 6a 3d
       -0.31341848 0.25056255 -0.3327314 0.0573684
000150 a8 5d 1b 3e df db 2c bd fb 5c b6 3e 5e ac e2 3d
       0.15172446 -0.042201873 0.35617813 0.11068033
000160 c6 58 58 be 6a 6c c5 bd d5 3b 8a 3d dd ba c3 be
       -0.21127614 -0.09639819 0.06749693 -0.38228503
000170 44 d4 e8 3d a0 69 61 3e c9 83 55 3c e7 9c 32 3c
       0.113686115 0.22012949 0.013031908 0.010901666
000180 00 68 2b be 8e af 0a bc 75 f5 ca 3d f0 1e 82 3e
       -0.16738892 -0.008464707 0.099100985 0.25414228
000190 7f 1d bf be 92 6e f0 3d 45 ad 41 3e ca b6 ae 3d
       -0.3732719 0.117398396 0.18913753 0.08530958
0001a0 d5 63 b4 3d 52 d0 b9 3d 6a 62 f9 3d 9b 8f 39 be
       0.08808104 0.09072937 0.12176974 -0.18121187
0001b0 e0 43 fd bd 07 6e 0c 3d 45 28 0b 3e f6 9b 4e 3e
       -0.12366462 0.034284618 0.1358958 0.20176682
0001c0 04 14 4c 3e 26 82 58 bd 5f d4 39 3d 8c 3e 32 3d
       0.1992951 -0.052858494 0.04536855 0.04351668
0001d0 7f 3a 25 3d 1d 3d 0d bc 4f 4a 7a 3c 88 a4 07 be
       0.04033899 -0.008620528 0.015276506 -0.13246357
0001e0 e8 09 18 bd 68 84 20 3e 92 3e 55 3c ae 9a 24 be
       -0.037118822 0.15675509 0.013015406 -0.1607463
0001f0 52 11 21 3e e5 34 05 be 69 42 19 3e fd 66 a7 bc
       0.15729263 -0.13008459 0.1496674 -0.02043485
000200 aa d8 0f 3d fd 01 f3 3d 31 77 5b 3e 24 4b da 3e
       0.035118736 0.118656136 0.21432187 0.42635453
000210 71 25 0b 3e 0f fa 59 bd c4 c4 b9 be e5 d3 83 3d
       0.13588502 -0.05321699 -0.36282933 0.064369
000220 1e e0 69 3e e5 8d 88 3e cf 9c a7 3c 5e 93 d9 bd
       0.228394 0.26670757 0.020460514 -0.10623811
000230 fc ea a3 3d ac 72 c7 3d 7b ff cb be bd c8 25 3e
       0.08003804 0.09738669 -0.39843354 0.16189857
000240 30 c9 96 be ab 61 9d be ac 90 b5 bd 5e 39 f3 ba
       -0.2945037 -0.30738577 -0.088654846 -0.0018556525
000250 cc d0 0d 3e db 4d 24 3e 3f 67 0f be 4a 04 6c be
       0.13849181 0.16045325 -0.14004229 -0.23048511
000260 e3 a9 75 3c e1 3f 93 be 93 a6 3a 3e 35 7e 75 3e
       0.014994117 -0.28759673 0.18227606 0.23973925
000270 df be 1c be 13 fc 2b be 1c 12 50 3d 31 e2 33 be
       -0.15307187 -0.16795377 0.05079852 -0.17566754
000280 83 92 5b 3d fb 33 8e 3e 57 84 77 3c 5c fb bf be
       0.05360652 0.27774033 0.015107236 -0.3749646
000290 61 78 d6 3d 77 26 39 be 53 f1 7d be c4 b3 82 3d
       0.10472179 -0.1808108 -0.24799089 0.06381944
0002a0 06 66 18 bc 1b 52 1a bb 21 c6 f8 bd 6b 57 12 3e
       -0.009301668 -0.0023547474 -0.12147165 0.1429116
0002b0 b9 f4 05 3e 53 cb 9b 3e 57 97 76 3b c8 74 65 3e
       0.13081636 0.30428562 0.0037626827 0.2240783
0002c0 41 3b 8f be 80 42 ef 3d 47 7a 27 3e 9b df 4e 3e
       -0.27974895 0.11682606 0.16355239 0.20202486
0002d0 82 9c fd 3c 02 4b c3 3e 83 31 1e 3e 4c 73 23 be
       0.030958418 0.38143164 0.15448575 -0.15961951
0002e0 32 74 c6 bd 48 9f 84 be 44 a8 2f be b9 07 bd be
       -0.09690131 -0.25902772 -0.17154032 -0.36919954
0002f0 b1 e9 c3 bb b4 a6 db bb 7f b7 fb bd fd 47 bd 3c
       -0.005978786 -0.006703222 -0.122908585 0.023105616
000300 7a 10 0d 3e 56 6b c2 be 5f 4e 9d be 9f 64 20 bf
       0.13775817 -0.37972516 -0.30723855 -0.62653536
000310 1d 9f 6d bd af 7f 37 3c 18 c0 5b 3e 36 82 79 bd
       -0.05801307 0.011199876 0.21459997 -0.060915194
000320 c0 f1 69 be 25 b9 2c bd 3f 08 75 be 0e 8d 4d 3e
       -0.22846127 -0.042168755 -0.23928927 0.2007334
000330 f4 16 76 be 55 d1 30 bd 01 3c 47 3e 7a 6a e2 bd
       -0.24032193 -0.043168385 0.19456483 -0.11055465
000340 f1 7b 3c 3e b0 b0 fa 3e 64 a7 bf 3d e6 0d fa bd
       0.18406655 0.48962927 0.09358099 -0.12209682
000350 d0 4a 1d 3e a3 b3 67 be 80 17 32 be 47 47 72 be
       0.1536057 -0.2262712 -0.17391777 -0.23660003
000360 c2 cd 27 ba 37 2a 3d bd 07 63 f9 3c 32 69 e5 3e
       -0.0006401205 -0.046182837 0.030442728 0.4480682
000370 2d b6 65 3e 79 ac 79 be 28 57 99 be 74 0e b4 3e
       0.22432776 -0.243822 -0.29949307 0.35167277
000380 f0 da 0d 3e 11 7b 6b bd b7 5e e1 3d 2c 64 af 3e
       0.1385305 -0.057490412 0.110043935 0.34256113
000390 5e 1d a1 3e 09 6a 52 3d a2 d2 34 3d 5e e9 49 3e
       0.31467718 0.051370654 0.044146188 0.19717929
0003a0 6b ba d3 bd 33 49 05 bd f3 d5 c7 ba ab 0c 78 3e
       -0.10338291 -0.03254051 -0.0015246257 0.24223582
0003b0 55 08 2c 3d 05 1f 86 3d 82 06 7c 3d a7 6d 8b bd
       0.042000134 0.06548885 0.061529644 -0.06808024
0003c0 e8 3d ff bd 21 f9 95 bc e8 dd db 3c 83 1e e4 3d
       -0.124629796 -0.01830727 0.026839212 0.11138632
0003d0 d2 65 1f 3e c4 2c 3c 3e 05 95 16 3d a7 de 80 bd
       0.15566185 0.18376452 0.03676321 -0.062924676
0003e0 46 ce c4 bd 8c 50 69 3c 22 10 7d 3d 4c 9f 21 bd
       -0.09609656 0.014240395 0.061782964 -0.039458558
0003f0 43 2c df be 43 0a 56 3e 57 ab 05 bc db ea 8e be
       -0.43588457 0.20902352 -0.008158526 -0.27913556

advantage_function_fc.bias f4 [4]
000000 8a 57 e8 3d 31 84 d4 3b 12 64 8b 3c fe f8 8f 3d
       0.11344822 0.006485485 0.01701549 0.07029913
