2 - Value-based methods/Project-Navigation/ddqn.pth (torch_old, 28417 bytes, 6 tensors)

fc1.weight f4 [64, 37]
00000000: 8f4a 82bd 4d1a ca3d acba b5be 895c efbd
00000010: 3223 c9bd 9c73 573c 132e f4bd fca3 fb3d
00000020: 6957 47bd c52e 153e 2409 11be fc67 5abd
00000030: 26d9 1fbe 5b93 3fbe 4de2 1cbf 1b97 5abe
00000040: 39a7 b23d 3ef8 aa3d 1d9a f63c f76c f1bd
00000050: e62c ae3d 9907 bcbc a448 a73d c4b1 43be
00000060: 3a7d e4be 2297 22be 0389 09bc 30aa a03c
00000070: b405 83bd 0d87 f03d c9fd bcbd 6656 4ebd
00000080: 3176 503d 1bf1 3bbf 811f a7bc c553 41be
00000090: f6d9 a6bd 3bdd 293e 50e2 0f3e c2d5 833c
000000a0: e31c 9cbd 882f 63be 945a f63d 81d2 65be
000000b0: 914d 45be 27ba 9dbd a9de 1ebd 8c2e d63d
000000c0: 8578 86bd d52a 1fbd 7700 863e 3a18 d23d
000000d0: d963 2e3e fd91 b43c 8662 18bd 5472 06bd
000000e0: 4e7c 5abe 5a4c 15be 9bc4 0f3d 279e 10be
000000f0: b935 8d3d 5da3 db3d abe0 b63d 61dc 963c
00000100: d9dd 10be c143 06be 3326 acbe 6f61 8abc
00000110: cb2d 693e 61a4 be3d e4c6 d43d de9a b43e
00000120: 1cde 433d 6a16 6a3b c88d 06bd fc02 b73d
00000130: dc43 203e e9d6 553e 94cd 3cbd af70 89be
00000140: a8d4 393e bb6a cd3e fe43 98be 4aba 07bf
00000150: e7dd e4bd f215 903d 7a48 f03d 8147 0a3d
00000160: b3b4 23be 4501 e53d a71c d93b ef27 e73d
00000170: ebd7 ba3d 218f dd3c fbdd f1be 0611 733e
00000180: 938e 313e 44b2 8d3c 8974 29bf c730 8cbd
00000190: 5684 cb3d 15d7 463e 142a ad3c c48b 6bbc
000001a0: ca1d ffbe 7557 103d 8385 423e 884f 8fbe
000001b0: 79c3 19bf 9bd7 77bc 9cd4 5cbc 1196 583e
000001c0: 4339 93be e6e0 ebbd 5c10 bcbd 02d2 2bbf
000001d0: 246f 783b 72fa a1bd 0be0 c5be 09fe 083d
000001e0: b0ec 873d a1a6 13be 2c17 6fbe e713 173e
000001f0: 39e2 adbe 082b 47bf 4d98 02bd 4267 8dbe
00000200: 328c a8be 31f4 b5be 9963 72be d99e 933d
00000210: 7948 92be 7214 22be 630e dabd 4318 d43d
00000220: a4bb bbbe 8800 a4bd fbe8 b03d ef05 933d
00000230: 85ba a83e ddf8 38be f69d 803e c56f 1abe
00000240: 3136 a3be cbb4 a6bd fc99 043e 8c07 6bbc
00000250: 9a64 763d fd35 dbbd fcde 89be d8fa efbd
00000260: e85a ccbd 756a d43d 6512 6e3e 5f30 44bd
00000270: 2d4b c63d 0ad7 05be f721 983c e412 50bc
00000280: 0e08 6c3d 6b14 14be 5f98 88bd 9e6c 1ebe
00000290: f92c 47bd 8ef7 e53d bdd2 a73d ad6f 6a3e
000002a0: 93d7 77bd 8f1b 61bb 6ca6 8b3d 8627 c53b
000002b0: aeea 9d3d 8cd1 c53e 2005 1abf f432 e3be
000002c0: 4464 b7be 42e9 ccbf 77e8 b03d 6da9 99bd
000002d0: 497e 9f3d dfde 0f3e 161d 313e 65a5 163c
000002e0: f7cc 9f3b 6127 9b3d 3c4e bbbd dbb7 493c
000002f0: 3c58 b73d 4008 f8bc 73e2 c13e 6e54 9abd
00000300: 7879 aebe 2a74 b2be c8da 6bbf 08c2 ccbd
00000310: cbbc 4fbd 9472 c13d 2603 9e3d 6a39 20bb
00000320: ee4e 093e 5108 533d ba8a a9bd 4c7c cbbd
00000330: 4ad8 59be 491b c13d e1bf 543d 3b6b 233e
00000340: c5f2 533e 892a d03d 256a 913c a39c 6e3d
00000350: 00c9 513d 4f11 edbc 98e8 bf36 f8fe 9fbc
00000360: 0010 88bc d781 9e3d 0cfb 243e 3486 2b3e
00000370: be8f 3b3d 599c c13b b6ed a1bd bb0a 303e
00000380: c158 c3bd e9a4 48bd d057 e7be 481d 75be
00000390: fe38 223e bc3f 943d f0b5 d0bd 9f37 d43d
000003a0: 41da 8fbd 429c d33d cc40 9a3d 6144 113e
000003b0: fa3c 913e b93e 91be db8f db3d 5446 a83d
000003c0: 9884 2d3e 053b 1dbd 882a 803d 5e39 18be
000003d0: 10dc 1cbc 411f 0fbe 52de 773d 6141 49be
000003e0: b4ad 723d 7da1 51bd 72b2 77bc b706 213e
000003f0: 3376 df3d 49ef 52be 15bf 14be 70c5 753e
-0.06361877 0.09868298 -0.35493982 -0.116875716 -0.09821166 0.013150122 -0.119228505 0.12287137
-0.048667345 0.14568622 -0.14163643 -0.053321823 -0.1561018 -0.18708555 -0.6128281 -0.21346705
0.087233014 0.0834813 0.030102784 -0.117883615 0.085046574 -0.022952842 0.08168152 -0.19110781
-0.4462679 -0.15877965 -0.008394483 0.019612402 -0.06397572 0.11744509 -0.09228093 -0.050375365
0.050893966 -0.7341477 -0.020400764 -0.18879612 -0.081470415 0.16588299 0.14051175 0.016093139
-0.07622697 -0.221861 0.12028995 -0.22443582 -0.1926787 -0.07701521 -0.038786564 0.10458097
-0.06565956 -0.038859207 0.2617223 0.10258527 0.17030276 0.022042269 -0.037203334 -0.032823876
-0.21336481 -0.14579907 0.035099607 -0.1412283 0.068950124 0.107245184 0.08929571 0.018415632
-0.14147128 -0.13111784 -0.33622894 -0.016892163 0.22771375 0.093086965 0.10389498 0.35274404
0.047819242 0.0035718926 -0.032850057 0.08936116 0.15650886 0.20882763 -0.046094492 -0.26843783
0.18147528 0.4012049 -0.29739374 -0.5301863 -0.11175137 0.07035436 0.11732574 0.033759598
-0.159869 0.11181883 0.00662573 0.112869136 0.09123214 0.027045788 -0.4723967 0.23736963
0.17339544 0.017296918 -0.66193444 -0.06845241 0.099373505 0.19417985 0.021138228 -0.014376584
-0.49827415 0.035239656 0.18996243 -0.27990365 -0.6006389 -0.015127088 -0.013478424 0.21150996
-0.28754625 -0.11517505 -0.09182808 -0.6711732 0.0037908042 -0.07909097 -0.38647494 0.03344539
0.066369414 -0.14419033 -0.23348683 0.14753686 -0.33961657 -0.77800035 -0.031883527 -0.27617842
-0.3291946 -0.35537866 -0.23670806 0.07208032 -0.28570917 -0.15828112 -0.10647275 0.1035619
-0.36666596 -0.08007914 0.086381875 0.07178866 0.32954803 -0.18063684 0.25120515 -0.15081699
-0.31877282 -0.08139952 0.12949365 -0.014345061 0.060154535 -0.10703657 -0.26927936 -0.117177665
-0.099782765 0.103718676 0.23249204 -0.047897693 0.096823074 -0.13070312 0.018570883 -0.012699816
0.05762487 -0.14460914 -0.066696875 -0.15471122 -0.048626874 0.11228858 0.08194492 0.22894163
-0.060508322 -0.0034348702 0.06818852 0.0060166745 0.07710777 0.38636434 -0.6016407 -0.44374812
-0.35818684 -1.6008685 0.08638089 -0.075030185 0.07787759 0.14049862 0.17296252 0.009194707
0.0048767286 0.0757587 -0.091457814 0.012311901 0.08952376 -0.030277371 0.3786808 -0.07535635
-0.34077048 -0.3485425 -0.9213071 -0.09997946 -0.050717156 0.09445682 0.07715444 -0.0024448284
0.13409016 0.051521603 -0.08278413 -0.09935817 -0.21273914 0.09429032 0.051940802 0.15958874
0.20698078 0.10164363 0.017750809 0.05825485 0.05121708 -0.028938917 5.719321e-06 -0.019530758
-0.016609192 0.07739609 0.16111392 0.16750413 0.04579138 0.0059085307 -0.07906668 0.17191593
-0.09538413 -0.048985396 -0.45184183 -0.23936951 0.15842053 0.07238719 -0.10190952 0.103621714
-0.070240505 0.10332538 0.0753189 0.1418624 0.28366834 -0.28368166 0.10720798 0.08216539
0.16945112 -0.038386364 0.06258112 -0.14865634 -0.009573951 -0.13976766 0.060514756 -0.19653846
0.059247687 -0.051179398 -0.015118228 0.15725218 0.109112166 -0.20599093 -0.14526017 0.24001098

fc1.bias f4 [64]
00000000: 0fcf 9f3d 76d8 57bc cf05 5cbd 89cb 1cbe
00000010: d1cc 4f3e 3e49 113d 8ac1 d4bd ba58 c03d
00000020: 6c56 623b ef80 6abe 2f68 1b3e 14a9 8a3d
00000030: 3fd6 9f3d 42a9 2d3e b0a0 f3bd 10f4 b9bd
00000040: f7d2 ce3c 471c 583c 840f 81bd a5ca 35be
00000050: 9a16 7cbd 82b1 0bbd af10 a53d 6957 ffbd
00000060: 9f6d 77bd a45b 413e 2f39 b8bd 2c39 26be
00000070: a026 d53d 5b46 bd3d 6c4e 98bd 0ba5 fcbd
00000080: 394c 373e b3ef 78bd 747c 1bbe dcfa e73d
00000090: 38d9 d9bd d05d 2f3d 089c 9fbd 4315 123d
000000a0: 86f2 bcbd b319 91bd 78cf c8bd 9cf0 e33d
000000b0: 9d4c 5e3c b966 f4bd 845f f43c 0d52 50be
000000c0: b19e 06be accf b53d 844b 68be 886a f73d
000000d0: 89c7 a3bd 57eb 5fbd 685f 3ebe 9549 97bd
000000e0: 2401 883d c661 aabd d41c b4bd 7e89 2dbe
000000f0: cc36 51bd 9737 a73d 78c1 4fbc 8ac0 0d3c
0.07803165 -0.013174167 -0.053716477 -0.15312018 0.20292975 0.03547024 -0.10388477 0.09391923
0.0034536375 -0.22900747 0.15176462 0.0677053 0.07804536 0.16959098 -0.11895883 -0.09079754
0.02524708 0.013190336 -0.063017875 -0.17753084 -0.061544992 -0.03410483 0.08059823 -0.12467844
-0.060407277 0.18882614 -0.08995282 -0.16232747 0.10407758 0.09241935 -0.07436833 -0.12336167
0.1790017 -0.06077547 -0.15184194 0.113271445 -0.10637134 0.042814076 -0.077934325 0.035664808
-0.09225945 -0.0708498 -0.098051965 0.11129877 0.013568071 -0.11933655 0.029830702 -0.203438
-0.13146473 0.08877501 -0.22685057 0.12080866 -0.07997043 -0.054667797 -0.18591082 -0.073870815
0.066408426 -0.0831943 -0.08794561 -0.1694698 -0.05107765 0.081649 -0.012680404 0.008651862

fc2.weight f4 [64, 64]
00000000: 95d9 09bc 20f2 1b3e 9662 3c3e 07c6 be3d
00000010: 7cca 6fbe aa22 40be af40 2bbe db91 0bbc
00000020: 634f 903d 2d90 00bd 8286 963d 42d2 35bd
00000030: dff5 6cbe 5d47 2f3e bc3e 5fbe d3d6 3b3d
00000040: 6939 86bd 1a8f 2bbe edb5 0a3d ae79 893d
00000050: 262b 88be bb31 9fbb 10f8 f8bc 773a 5cbd
00000060: 85d4 8dbe d5ab 863d 04fd e63c 2504 3bbe
00000070: f354 40bd 8646 e5bd 6567 bcbe 3c7f 98bd
00000080: e388 c83c 736c 0dbd c05c 7a3d bd6b a33d
00000090: c9ba d2bd f1e0 aabd 6200 bd3d b296 b5bc
000000a0: 0ec1 8cbe 9994 1abd a8db bfbb ccfa 91be
000000b0: 1f94 1d3d c315 e6bd ff6b 81be 3234 2c3d
000000c0: daac 5abe 1ade 4dbd 779d 21be d9a5 22bd
000000d0: 6f15 92be 8150 a3bd 9946 ca3d e1ca 9a3c
000000e0: bf2f 2bbe d00d 25be 070b f4bd 2af0 083e
000000f0: 9a8f c03d c45a 823e 869a 5fbd e59d a1be
00000100: 3e2d 693b 0535 17be 8583 0b3d cac0 263d
00000110: 5592 e4bd 31cd 043d 2edb dbbd 9b33 7c3d
00000120: 8241 85be c5bf dbbe c8ba 0dbd c494 d4bc
00000130: 05f9 d5bc 280f 7e3d 3adc d03d a6af ee3d
00000140: 042b 0b3e 8445 09be ff17 d3bc 2035 e7bd
00000150: 2e1a 9e3d b648 b53d a1d2 29bd 1cc9 a9bd
00000160: 0826 26bd a2a4 173e 6b7f 82be b01a d5be
00000170: 1b4e 9dbd 85e8 87be 0d87 afbe fb3a bdbd
00000180: d3f9 77bc 7414 b8bd 27f4 613d 35a5 1ebe
00000190: 7ee3 a43d d906 383e adcd 9d3d 3318 86be
000001a0: dcbc 8e3d aea4 343e c0a8 bdbd 7751 1fbf
000001b0: bfed a2bd d9d3 4abe f150 a8be 2187 efbc
000001c0: 7af4 16be 7fec 59bc 84ed 8f3d 732f 613d
000001d0: d02a c1be 398d b1be 10ed 5b3d d06f 433d
000001e0: 4974 f9be 4fef 28be 431e 103c 9a37 843e
000001f0: 9868 b6be f7ee cdbe d1f4 89bd 4f12 e6bd
00000200: 24de 1ebe c391 47be 8b4e eebe e4b9 ce3d
00000210: bf26 6e3e 264b 893c e8ac 813c e152 553d
00000220: beea 893d d6b7 b7bd 014e 3e3e 1b57 b83d
00000230: 5973 5c3e a8d2 5e3e 82a9 a33e df17 71be
00000240: 0527 c9bd a8cc 3f3e f733 083e 93f7 24be
00000250: 4906 39be a162 1a3e 2fbc 3fbd d757 74be
00000260: 7790 313e 6d6b 4a3e d250 093d c1dc a3be
00000270: 7d11 09bd 4157 183e 3dee 7abe 8212 323e
00000280: c93d 7b3c adbd eb3d ccd2 57be 2941 38bd
00000290: 2215 c03d 2795 eabd b83b 303e 6e32 733e
000002a0: cc34 733e a239 a03d b750 3bbe c0ab 33be
000002b0: 5287 94bd bde6 f8bd d75d 4e3d 6340 a0bd
000002c0: 5c72 153e 8628 a9bd 5bf2 81bd 0cef 453d
000002d0: c8a2 68be e175 0d3e 24fc 5abd 601c dd3d
000002e0: 9c28 e6bb a511 69be 96ed 173e a6f7 2d3e
000002f0: 5fa4 81bc a9fe 753d ac8e b23c 9eff 71bc
00000300: 41f2 d4bc 6ba2 8cbe d210 0d3e 7dc4 3bbe
00000310: 4d3e 18be 6f67 30bd 886a b93d 676c f7bd
00000320: e528 bcbd 4f07 f0be 9db0 b53d 0394 44bc
00000330: ebab 0ebf bc32 213e 8a32 b6be 3886 90bd
00000340: 34a7 69bd 93dd 52be e0cb edbc 14da a43d
00000350: b22b 023e 8f2a e13e 7dd4 f3bd f872 a33e
00000360: 6a0c cc3c 597c 0e3e a4a3 b93d dc27 103e
00000370: a493 8f3e daf4 b7be b510 6dbe 2436 35bd
00000380: 8134 fcbd 7958 6ebe 4041 9c3d e1a4 803e
00000390: 8706 37be 61a6 3f3e baa1 0bbe 6dc0 0dbd
000003a0: 64ab da3b d0cb 093f c07c 4ebd 2508 d3be
000003b0: 091a 70be eb1c 873d cd8a 88be ead8 afbe
000003c0: 78c5 4dbd e9bd 0cbd 9018 6dbe 5181 5f3d
000003d0: 72e8 4ebd 99af 73bd d42e 9cbe 5506 383c
000003e0: 99b4 85bd 580f 3dbe 98cf a2bd 8458 f53d
000003f0: 7b5f d1be 92cf fa3d 3d95 d8be 1037 e1be
-0.008413692 0.15229082 0.18396983 0.093151145 -0.23417085 -0.18763223 -0.16723894 -0.008518661
0.07046392 -0.031387497 0.07349874 -0.04438997 -0.23140667 0.17117067 -0.21801275 0.04585917
-0.06553919 -0.16753808 0.033864904 0.06712662 -0.2659542 -0.0048582233 -0.030391723 -0.053766694
-0.27701202 0.06575743 0.02819682 -0.182633 -0.046956014 -0.11195092 -0.36797634 -0.07446143
0.024479335 -0.034527253 0.06112361 0.07979534 -0.10289533 -0.083436854 0.09228589 -0.022166584
-0.2749104 -0.03773937 -0.0058550425 -0.28511655 0.038471337 -0.112346195 -0.25277707 0.042041965
-0.21355 -0.05026064 -0.15782724 -0.039708946 -0.28531978 -0.07974339 0.09876747 0.018895568
-0.16717432 -0.1611855 -0.11916166 0.13372865 0.0940239 0.25459874 -0.054590724 -0.31565776
0.0035579945 -0.14766319 0.034060974 0.0407112 -0.11160723 0.03242225 -0.107351646 0.061572652
-0.2602654 -0.42919746 -0.034601957 -0.025949843 -0.026119718 0.062026173 0.10198255 0.11654596
0.13590628 -0.13405424 -0.025768278 -0.1128943 0.07719837 0.08851759 -0.041460637 -0.08290312
-0.040563613 0.14808896 -0.25487837 -0.41621923 -0.07680913 -0.26544586 -0.34282723 -0.09239765
-0.015135246 -0.08988276 0.055164482 -0.15492709 0.08051203 0.17971362 0.07705245 -0.26190338
0.06969616 0.17640945 -0.09260702 -0.6223368 -0.07955503 -0.19807376 -0.32874253 -0.02923924
-0.14741698 -0.013301014 0.070277244 0.05497689 -0.37727976 -0.34678057 0.053692877 0.047714055
-0.4872153 -0.16497539 0.008796277 0.2582367 -0.35626674 -0.40221378 -0.06736148 -0.11233961
-0.15514427 -0.19489197 -0.465443 0.100940496 0.23256968 0.016759466 0.015829518 0.052080993
0.06734227 -0.08970611 0.18584444 0.09000989 0.21528377 0.21760046 0.31965262 -0.23544262
-0.098218955 0.18730414 0.13301073 -0.16110067 -0.18068804 0.15076686 -0.046810325 -0.23861633
0.17340265 0.19767542 0.033524342 -0.3200436 -0.033463944 0.14877035 -0.24504943 0.17389873
0.015334555 0.11510787 -0.21076506 -0.044984017 0.09379031 -0.1145423 0.17210281 0.23749706
0.23750609 0.078234926 -0.18292509 -0.17545986 -0.07252373 -0.12153385 0.05038246 -0.07824781
0.14594406 -0.08259682 -0.06345054 0.048323676 -0.22718346 0.13814498 -0.053463116 0.10796428
-0.007023884 -0.22760637 0.14836726 0.16989002 -0.015825449 0.060057316 0.021796547 -0.014770417
-0.025994422 -0.27467665 0.13775948 -0.18336673 -0.14867516 -0.043067392 0.09053522 -0.12081223
-0.091874875 -0.46880576 0.08871577 -0.011998179 -0.55731076 0.1574201 -0.35585433 -0.0705685
-0.057044223 -0.20592336 -0.02902788 0.080494076 0.12711981 0.43977782 -0.11905763 0.31923652
0.024908263 0.13914622 0.09064415 0.14077705 0.28042328 -0.35928994 -0.23150904 -0.044241086
-0.12314702 -0.23275937 0.07629633 0.25125793 -0.17873584 0.18715812 -0.13635913 -0.03460734
0.0066732634 0.5382662 -0.05041194 -0.4121715 -0.23447432 0.065973125 -0.26668397 -0.3434518
-0.05023715 -0.0343608 -0.23153901 0.054566685 -0.050514646 -0.059493635 -0.30504477 0.011231978
-0.06528587 -0.18462884 -0.079497516 0.11979774 -0.40893158 0.12246622 -0.4230136 -0.43987322

fc2.bias f4 [64]
00000000: 45fc 07be 96ba f4bd 7319 be3c 00aa 743c
00000010: 65f0 9c3d 23ae 3bbe 6fc0 4ebd 01c6 5a3d
00000020: 4833 313c 3c11 053e 5268 adbc e540 363d
00000030: 92a6 8c3e 6652 00bd 9812 b8bd 73e3 253e
00000040: 5be3 6ebd 4052 1fbe 28f5 c4bb 1354 8a3d
00000050: bf96 283d dca8 a73e 13ef 3abe fb8f 02be
00000060: d8c2 a2bd 4602 13be ccda c83d d882 06be
00000070: 5485 c5bd 36ee f93d af1d 943a 8832 28be
00000080: 4061 81bd afe7 8c3c b4d0 c5bc f951 d9bd
00000090: 03b3 d0bd 67e2 06be b29d ab3e 7f04 2a3c
000000a0: 7da4 afbc ca8b 3d3e bc39 ed3d 3421 883c
000000b0: d0c2 e93b ae4a d0bd dbec fcbd 13ad e1bd
000000c0: 3347 5e3d 22ea be3d 20aa 03be 576c a23e
000000d0: eeeb 4dbd 8980 0bbe e31c 9cbc d0d4 8abd
000000e0: 40ff 4abe 2dac 5ebe 8928 bd3b b419 27be
000000f0: 7a9b 1fbc c7cd 0f3e b210 e33d 2ffc 9bbb
-0.13279827 -0.11949651 0.023205495 0.014933109 0.07663039 -0.18328147 -0.050476488 0.053411487
0.010815449 0.12994856 -0.021167908 0.044495482 0.27470833 -0.03132858 -0.089879215 0.16200046
-0.05832229 -0.1555872 -0.00601067 0.06754317 0.041159388 0.32746017 -0.18255262 -0.12750237
-0.0794732 -0.14356336 0.09807357 -0.1313585 -0.09644571 0.12203638 0.001130035 -0.16425526
-0.06317377 0.01720032 -0.024147369 -0.10611338 -0.10190394 -0.13172303 0.3351875 0.0103770485
-0.021440739 0.18510357 0.115832776 0.016617395 0.007133819 -0.10170494 -0.12349864 -0.110193394
0.05426712 0.09322001 -0.12857866 0.31723282 -0.05027383 -0.13623251 -0.019056743 -0.06778872
-0.19823933 -0.21745367 0.0057726544 -0.16318399 -0.009741658 0.14043342 0.11087169 -0.0047602872

fc3.weight f4 [4, 64]
00000000: 4048 2fbe e644 b2bc beb2 153e 4435 9dbe
00000010: 462a 9d3d 6b92 54be c7cc 1cbe 607d f9bd
00000020: 72d0 2a3e a8e4 2e3e e4ac c6be e95b 2d3e
00000030: bc15 0f3d 15ae 48bd 80a1 8bbe 60f0 c73d
00000040: 86bd 1a3d 0dfd c23d e101 46be f8e2 0d3e
00000050: 2378 303e 2a05 f13d 660a 8b3d aaa8 09be
00000060: a020 473e 7e7f d7bc 094c d6bd 76f8 56be
00000070: 662b dbbd 691c c03e 2ac4 8abe 13af 103d
00000080: 9a0f 653d 33c4 943e 4130 373e bb90 37bd
00000090: 76f6 e53c 9210 82bd 463d 263e 9983 bb3d
000000a0: d828 883e 2dc9 be3d 36bb 8a3d ce10 3f3e
000000b0: 6181 473e 74ba 913d 5427 64bd 776e ae3d
000000c0: 056f 273e 6925 a53e dab9 9cbe 57df 973d
000000d0: 400e 6f3d 335f a7bd 452a fc3e d351 f3bd
000000e0: 55b8 80be c837 68bd 1632 9c3d 006f 30bd
000000f0: 5c2b 05bf b94a 533e f506 80bd 1c96 633e
00000100: 5363 a3bd a9b9 b3be bd2c 5e3e ffc0 97be
00000110: 85d6 cdba 776d 4b3d 6a81 57be 2272 943c
00000120: a5fc a1bc bcfc 3e3e 4e16 6cbe ca02 dc3e
00000130: 3bd4 903d 905e b5be b488 6ebe 247c ed3d
00000140: 615b 36be 5bd0 953e 996f 37be 260f 373e
00000150: 7a24 513e 240b b23d d89b d33d 25d6 66bd
00000160: 72e2 8c3e 18c2 65bd a7a8 633e 1d53 98bd
00000170: a936 c8be c076 6e3e ea7f dd3d 4c12 6b3e
00000180: fc4b 583e 63d5 993e 1875 8f3e 5494 4ebc
00000190: 4c90 f0bc f784 a0bd a775 003e aa76 a93e
000001a0: 534f 673e 8c2e 163e e2d6 dc3d 2511 7f3e
000001b0: 848d babe a8ce 25be 9e0c 89bb e806 94be
000001c0: 77bb 953e 9515 563e d655 6bbc a5fb 8b3b
000001d0: 544d 103e 2c73 ca3d 5cb2 b43e b8d9 3e3c
000001e0: aad1 50be 27e2 2cbe d1ee 7cbe 8729 3abd
000001f0: 0cbb dcbc 9a71 b73d 72c0 14be fac2 453e
00000200: 1f3d 9abe 64cc 633e f9f9 803e f746 d53d
00000210: 74ec 943e ef6a 0a3e 33df 833c 784b fd3d
00000220: 9d6a 25bd 46b2 093d 6b1e 4cbe 96d8 d63a
00000230: b4d6 303e 533a 1cbd 5212 2fbe 4da9 0b3e
00000240: b91a f03d 8c03 9c3d 8c77 abbe dd66 0f3e
00000250: 8625 9b3e 00b4 233e db70 0cbe 8a90 013e
00000260: 705a 7c3e d147 c83c 7a6b af3e 6c7d ba3d
00000270: d74a debd 76cf 8e3e 6bc0 853d daf5 2b3d
00000280: ea27 d2bd 067e 593e 5d8c 9a3e c408 523d
00000290: aa9b 8ebe 4c94 22bf 2fa1 d23d aa0c 62be
000002a0: 3224 813e 4936 de3d 9652 a43d 749b d13d
000002b0: cb73 813d de68 303d da18 af3e 2049 96bd
000002c0: 48d7 fd3d d0f9 163e 8fd6 d8be 1d24 b63d
000002d0: ddd4 34bd fb36 c0be e69a cd3d 571d ddbd
000002e0: d98f 77be 24b3 a13c 7b76 b3be 3be8 9f3e
000002f0: 87ae 5bbe 68d1 323e 0bd3 b3be d79e 63bd
00000300: 498e 52bd 358d 4e3d b8f9 0b3e 4424 05bf
00000310: 7e72 babe 39ec 433e d801 68be 46f9 a23d
00000320: db5f e5bc 770d 843e 2403 4abd 07ba ea3d
00000330: 02a4 f73d 5d71 113e 0210 1d3d afaf 753d
00000340: 4fc7 803e b5a5 3b3d d6e7 7e3e d939 833e
00000350: d126 6c3e 7f90 073e 2be7 71be 32b0 083e
00000360: 26e0 ab3d ae84 9bbd 591a 54be b20e 3b3d
00000370: f556 e0bd eed4 3e3e e8e1 cdbc 6350 12be
00000380: f8ab 67be fd38 a63e a7b6 23be 7123 bfbc
00000390: 8ed2 56bd 748d 9fbd 5a7a 283e 28d4 1d3f
000003a0: e4e7 4b3e 5fe8 453e 761f 0f3e d55b c8bd
000003b0: 2f03 563e e134 e0bd 5231 d7bc 9883 bbbe
000003c0: 1d58 873e 3700 4b3e f2ae 9fbe bade f03d
000003d0: 0502 593d 28e8 b2bd b379 d43e f287 043f
000003e0: e8e8 5cbe a863 90be c786 213e 50d3 793e
000003f0: 5ec9 a4be 0199 4d3c c45c a1be 68bc 733d
-0.17117405 -0.021761369 0.14618966 -0.307047 0.07674079 -0.20758979 -0.15312491 -0.121821165
0.16681078 0.17079413 -0.3880378 0.16929592 0.034932837 -0.048994143 -0.27271652 0.09762645
0.0377784 0.09520922 -0.19336654 0.13856113 0.17233329 0.11768563 0.06789093 -0.13443246
0.19446039 -0.02630591 -0.10463721 -0.20993218 -0.10701637 0.37521675 -0.27102786 0.035323214
0.055923082 0.29055938 0.17889501 -0.04481576 0.028071623 -0.06350817 0.16234311 0.0915596
0.2659366 0.09315715 0.06773989 0.18658754 0.19482948 0.07115641 -0.05570157 0.08517163
0.16350944 0.32255104 -0.30610543 0.074156456 0.0583632 -0.08172455 0.49251 -0.11880841
-0.25140634 -0.056693822 0.07626741 -0.043074608 -0.52019286 0.20633973 -0.06251327 0.22225231
-0.07977929 -0.35102585 0.21696754 -0.29639432 -0.0015704191 0.04966494 -0.21045461 0.018120829
-0.01977379 0.18651098 -0.23055384 0.42970878 0.0707173 -0.35423708 -0.23294336 0.115959436
-0.17808296 0.29260525 -0.17913665 0.17876872 0.20424071 0.08693531 0.10332459 -0.056356568
0.27516514 -0.056093305 0.22232305 -0.074377276 -0.39104202 0.23287487 0.10815413 0.22956198
0.21122736 0.30045614 0.28019023 -0.012608606 -0.029365681 -0.07837861 0.12544881 0.33098346
0.22588854 0.14666194 0.10783173 0.24908884 -0.36436093 -0.16192114 -0.0041824123 -0.2891152
0.29244587 0.2090667 -0.014363727 0.0042719417 0.14091998 0.098852485 0.35292327 0.011648588
-0.2039248 -0.16883145 -0.24700476 -0.04544976 -0.02694466 0.08957215 -0.14526537 0.19312659
-0.30124757 0.22245938 0.25190714 0.10413926 0.2908665 0.13517354 0.01609764 0.1236791
-0.040384877 0.03361728 -0.19933479 0.0016391452 0.17269403 -0.03814156 -0.17096832 0.13638802
0.11723847 0.07617864 -0.33489645 0.14004083 0.30302066 0.15986633 -0.13714926 0.12652794
0.24643874 0.024448307 0.34261686 0.091059536 -0.10854118 0.27892655 0.065308414 0.04198251
-0.10261519 0.2123948 0.30185214 0.05127789 -0.27853137 -0.63507533 0.102846496 -0.22075143
0.25222927 0.10850198 0.080235645 0.102347285 0.06320914 0.04306876 0.34198648 -0.07338166
0.12394577 0.14743733 -0.42351195 0.08893607 -0.044148315 -0.37541947 0.1003931 -0.10796612
-0.24175967 0.019738741 -0.3505133 0.31231865 -0.21453296 0.17462695 -0.3512195 -0.055571403
-0.051405225 0.050427634 0.13669479 -0.5200846 -0.36415476 0.1913308 -0.22656953 0.079577014
-0.027999809 0.25791523 -0.0493194 0.11461263 0.12091829 0.14203401 0.038345344 0.059981998
0.2515206 0.045812327 0.24893126 0.25630072 0.23061682 0.13238715 -0.2362334 0.13348463
0.08392362 -0.07593666 -0.20713176 0.04566831 -0.10954086 0.18635914 -0.025132135 -0.14288478
-0.22624195 0.32465354 -0.15987645 -0.02333233 -0.052446894 -0.07790652 0.16452923 0.6165185
0.19912678 0.19326924 0.13976845 -0.097831406 0.20899652 -0.10947586 -0.026268635 -0.36623836
0.26434413 0.198243 -0.3118816 0.11761232 0.05298044 -0.087356865 0.414991 0.51769936
-0.21573222 -0.28201032 0.1577407 0.24397016 -0.3218488 0.012548686 -0.31516087 0.05950585

fc3.bias f4 [4]
00000000: 40d2 7b3e bdaa 683e 026d 253e 7e38 353e
0.24591923 0.22721381 0.16154864 0.17697331
