2 - Value-based methods/Project-Navigation/dqn.pth (torch_old, 28417 bytes, 6 tensors)

fc1.weight f4 [64, 37]
00000000: 561c 9dbc cfc9 323d ba70 87bb 3ff8 df3b
00000010: 0b85 81bd 6840 cdbc 8e35 9a3d b7d9 8e3d
00000020: 97a8 1d3e 4214 c33d 175a 923e 7f44 5cbf
00000030: 3783 72bf 0dd2 45bf e082 31c0 3ea8 c43d
00000040: ce0d 543d ac09 c53d cdb4 353e 8ac2 29b9
00000050: ad95 db3d 736a f93d 9091 da3d 8c6b 7c3e
00000060: b0e6 583d c0fe bb3c 9e8b 9a3d ecbc 013e
00000070: 0738 af3d f880 063e e5c7 4cbd acf6 3f3d
00000080: 2d39 173d 1afe fa3d a694 d03d e0da bf3b
00000090: 79fc 523c 59bd 943e e67d 983d 3048 32be
000000a0: 49c6 f83c 8b3a 1abf b577 0dbe bb2d c9be
000000b0: 3406 08be 27ef 273e a920 c33d 1fe4 20bd
000000c0: a6cd 38bf e10a 59bd 9c72 9b3e 4457 75be
000000d0: 5675 7e3c b486 58bd 25fb 1e3e db30 b4bd
000000e0: bf45 6dbe d423 64be fa88 02be cf57 093e
000000f0: 3f3b 4dbe fbae 943d 2ecf 98bd ab42 babe
00000100: 074d 613e 3e34 26be f3ac 333e 1f23 f5bd
00000110: 70bc 9bbe 63bd 3e3e 5676 4e3e 2d07 00be
00000120: 72ed aabd 3f95 0b3c a56f dbbe 042a ba3e
00000130: 0b54 08bc 063b 5d3a 5797 f5be 76c1 47bf
00000140: c2c5 18be 7d7d 193e df11 99be 5314 11bf
00000150: 3a39 fbbb 32ec 393e 4a41 a1be c410 43be
00000160: ff3e 323e eb0a dbbe 2abe 9e3e 5454 8bbe
00000170: 574e b73e c0b2 24bf 3cf6 16be 462e 4b3d
00000180: 458a 97be 52f9 323e bfbd b0be e18b 01bf
00000190: 5c6b db3d 8d70 8a3d 2322 a63c 9da8 31bf
000001a0: 83b4 14be 902e 533e 54ed 86be 0b77 a6be
000001b0: 3a51 ddbd 8a76 443b 3794 b1b9 a2f0 8d3e
000001c0: 9cf2 3fbe 91dd eb3d 9dd0 69bf 9eca 9dbf
000001d0: e16a d1bd d980 0abd 4dd7 07be 25a6 933e
000001e0: 40d4 953d 1488 2ebe 805a 82be 8c79 883e
000001f0: 6c51 86be e381 03be 40e0 afbe f193 8c3e
00000200: 76b9 4bbd c4c9 83be ca6b f23d af16 2a3e
00000210: a3af b4be f48a 5fbe 16fe 45be c954 12be
00000220: 7ea9 333e f15e 623c a921 bdbd f5ef 0abf
00000230: a75e 923e c4d6 a6bd cd8f 733e b94f b83c
00000240: 3fc4 6abd c63b 10bf 1dcc 893d 8e5f 36bd
00000250: a0c2 b43c bb32 11bf 5dbe 76bf 280a 7dbf
00000260: f616 ddbe eaaa cdbd 6c49 a5be 9a82 b5be
00000270: 5048 19bf e959 23be fd0e e9be 8fa4 1cbf
00000280: c831 723d c7c0 5fbe a3a8 5cbf ddb8 f5be
00000290: d3d3 23bf 03e9 8a3e bc21 e3be 0be3 943c
000002a0: c4d8 6ebe 18ec dbbe a8d8 a8be 999e 823d
000002b0: 9964 0bbf 6682 29bd cfd3 2fbf f2a1 2ebf
000002c0: 3d97 85be 1151 16be f045 b23d 249e e6be
000002d0: 4881 10bf 0c69 49bf b991 ffbd b5b5 45bd
000002e0: 0529 6b3d 0aca 90bc b8b0 70bd e5e2 e9bc
000002f0: e5bf 0b3d 3808 993c 7d66 e6bd f259 6f3e
00000300: 82ea ed3d 2883 8f3e f036 843e dbeb 71be
00000310: 6275 15bd 920d c6bc 3d4b f83d c7a2 0c3e
00000320: 203f 173d f834 5dbd 5083 1dbb 4ae5 f03c
00000330: 6bca 9a3d b09d bf3c fb27 f13d af4b f63c
00000340: 4212 353e 3fa2 033e 13b7 f03b bea1 223c
00000350: d99d 36bd a15c e43d a4b1 5a3e 9d4d c93e
00000360: 667b 58bf 433e a4be 7b0d 06bf d40d 30c0
00000370: babb b5bc 13b6 4abb de49 72be fac2 553e
00000380: 7b5f ffbe 6b0d b03e e38b 62be 4f6e 30bf
00000390: a71e e6be 5f48 3d3e 0fee 5ebe e4bd a3be
000003a0: 7be6 093e 5a18 8bbe 96f9 65be 747e 483d
000003b0: a40f a6bd 1fc6 1fbe 5978 9fbd edf2 aabe
000003c0: 95a6 803b 2d55 cb3d df27 fdbe b826 1fbf
000003d0: 8b0d aa3e 2e66 10bf a97f b4bf 1e4c 1cbf
000003e0: 986a fa3d 1d3e 44be f325 f63c 759a 07be
000003f0: d297 08bf af13 3ebe 7297 843e c748 ffbe
-0.01917855 0.04364949 -0.004133311 0.006835013 -0.06324204 -0.025055125 0.07529746 0.069751196
0.15396343 0.09525348 0.28584358 -0.86042017 -0.9473147 -0.7727364 -2.773613 0.09602402
0.051770978 0.096209854 0.17744751 -0.00016189567 0.10721908 0.12178507 0.10672295 0.24650401
0.052954376 0.022948623 0.07546161 0.12669724 0.08555608 0.13135135 -0.04999532 0.046866104
0.03691976 0.12255497 0.101846024 0.0058549494 0.012877577 0.2905071 0.07445888 -0.1741035
0.030367987 -0.6024558 -0.13815196 -0.39292702 -0.13283616 0.16399823 0.09527714 -0.039280053
-0.72188795 -0.05298889 0.30360878 -0.2395907 0.015530905 -0.052862838 0.15525492 -0.08798381
-0.23171137 -0.22279292 -0.12747565 0.13412403 -0.20042132 0.072599374 -0.074613914 -0.3637899
0.2200204 -0.16230866 0.17546444 -0.119695894 -0.30417204 0.18626933 0.20162329 -0.12502737
-0.0834607 0.00851947 -0.42858616 0.3636018 -0.008320819 0.0008439276 -0.47967026 -0.7802957
-0.14919189 0.14989276 -0.29896447 -0.5667164 -0.007666734 0.18156508 -0.31495124 -0.19049364
0.17406844 -0.42781767 0.3100446 -0.27212775 0.35801956 -0.6433525 -0.14742368 0.049604677
-0.2959768 0.1747792 -0.34519765 -0.50604063 0.107138366 0.067597486 0.02027995 -0.6939791
-0.14521985 0.20623231 -0.26352942 -0.32512698 -0.10806508 0.0029977881 -0.000338705 0.2772265
-0.18744892 0.1151687 -0.91333944 -1.2327459 -0.10225464 -0.033814285 -0.13265724 0.28837696
0.07315874 -0.17044097 -0.2545967 0.26655233 -0.26233995 -0.12842517 -0.34350777 0.2745662
-0.049737416 -0.25739872 0.118369654 0.16610216 -0.3529025 -0.2183035 -0.19335207 -0.14290155
0.17545125 0.013816581 -0.09234936 -0.54272395 0.2858784 -0.08146432 0.23785324 0.022498952
-0.05731606 -0.5634121 0.06728385 -0.04452472 0.02206546 -0.56718034 -0.9638422 -0.9884362
-0.4318158 -0.10042365 -0.3228258 -0.35451204 -0.59875965 -0.15952267 -0.45519248 -0.61188596
0.059129506 -0.21850882 -0.8619482 -0.47992602 -0.63995093 0.271309 -0.44361675 0.018174669
-0.23324877 -0.42953563 -0.32977796 0.06377906 -0.54450375 -0.041384123 -0.6868257 -0.6821586
-0.26091948 -0.14679362 0.08704746 -0.45042527 -0.5644727 -0.78675914 -0.12478966 -0.048268992
0.057412166 -0.017674465 -0.058762282 -0.028550575 0.03411855 0.018680677 -0.11250017 0.23374155
0.116169944 0.28029752 0.25823164 -0.23625128 -0.036488898 -0.024176393 0.121237256 0.1373397
0.036925435 -0.054005593 -0.0024034567 0.029406209 0.075581394 0.023390621 0.11775204 0.030065386
0.17682746 0.1285486 0.007346043 0.009926258 -0.04458413 0.1115048 0.21356827 0.39317027
-0.8456329 -0.32078752 -0.5236432 -2.750844 -0.022184242 -0.0030931279 -0.2366099 0.20875159
-0.49877533 0.34385237 -0.22123675 -0.6891832 -0.4494526 0.18484639 -0.217705 -0.31980813
0.13466828 -0.27167016 -0.2245849 0.04894872 -0.08108452 -0.15602921 -0.07786626 -0.33388463
0.003926108 0.09928355 -0.49444482 -0.62168455 0.33213457 -0.56405914 -1.4101459 -0.61053646
0.122273624 -0.1916432 0.030047392 -0.13242514 -0.5335666 -0.18562196 0.25896794 -0.49860212

fc1.bias f4 [64]
00000000: 2bab 143e 3dd4 f5bd 3814 04be a821 00be
00000010: 1c14 d6bc 5067 a4bd 0911 44bd 4631 35be
00000020: 6a10 633e 520e 3cbe 354e 2e3c a318 3a3e
00000030: 741d 043e 522e 9e3e a79c e8bc dcae 11be
00000040: 3a19 ba3d ba7e b53d e2a7 a0bd b880 79be
00000050: 57d9 24bd cf2a 223d 404e e63c dd77 07be
00000060: 9b87 46be ba10 b6bd f5de d3bd c504 8abd
00000070: 350f 2a3e db97 7c3d af7c 82be d56d 87be
00000080: 379b e93d 632d 9f3d b7d0 98be a7e0 b5bc
00000090: 584b 8bbc f0ce 22bd 3484 89bc 94f1 11be
000000a0: 20d5 19bc b2ff 01be 60b0 0ebe 5245 803e
000000b0: 3f41 dd3c a610 07be 828c 923d 7925 52be
000000c0: 708f bdbe d23a 9e3c ec51 bfbe 6bcc c5bc
000000d0: 2705 ed3b 10e1 c0bd 3ccd 6dbe b66f 20be
000000e0: a367 50ba e7de 2fbe e281 fbbd dc2d 1bbe
000000f0: 6349 74be 70cf 46be 6f87 723e bf32 af3c
0.1451842 -0.12003372 -0.12898338 -0.12512839 -0.026132636 -0.08027518 -0.04786781 -0.17694578
0.2217423 -0.18364838 0.010638763 0.1817346 0.1290186 0.30894715 -0.02839501 -0.1422686
0.09086843 0.08862062 -0.07844521 -0.24365509 -0.040246334 0.039591607 0.028113484 -0.13229318
-0.19387667 -0.08889909 -0.1034526 -0.06739191 0.16607364 0.06166826 -0.2548575 -0.26450983
0.11406558 0.07772329 -0.29846737 -0.02220185 -0.0170037 -0.039748132 -0.016786672 -0.14252311
-0.009389192 -0.12695196 -0.13934469 0.25052887 0.02700865 -0.13189945 0.07155706 -0.20522107
-0.37023497 0.019315157 -0.3736719 -0.024145326 0.00723328 -0.09417927 -0.23222822 -0.15667614
-0.00079500134 -0.17174874 -0.122806326 -0.15154213 -0.2385612 -0.19415069 0.23684476 0.021386502

fc2.weight f4 [64, 64]
00000000: fba6 10bf 1748 4c3e 682c a5be 1607 ea3d
00000010: 173b 88be aaf6 56bd 9b24 a5be 6980 ecbe
00000020: cd24 833d 0d98 14be 4eab e03d 13ac c2be
00000030: e163 cc3c 2ed7 1bbe b092 8dbe 7569 60bd
00000040: 3c56 63bc dd5f d83b 926e 18bd c0c7 623e
00000050: ff4a 9f3e 2c06 7f3d 19b6 1f3e 3d65 0d3e
00000060: 4b9d 82bd ef71 eabe 16ef 373e 830b 0ebe
00000070: 7560 2abe 6291 21bf 67fb 703e 35fb a4bd
00000080: b3e1 573e 355e 983e 7e0c 59bd 0a66 1fbd
00000090: 74a0 353e d841 273f 49ba 13be 1f49 27bf
000000a0: 3aed 37bf 9e82 8bbc a79a 583e c4bf b8bc
000000b0: 67be 16be b4bb a6bd e5a0 5d3d 706d c2bd
000000c0: dbbb 03bd 42dc 92be ab47 a43d 0d48 00bf
000000d0: 91da c2bd 227c 5e3d 456f 0ebf 7ba7 b3be
000000e0: 67b2 d0be 21e3 9cbd e6bf 43bf 16de c4be
000000f0: 6699 14bc fa5a 99be 1764 be3e 19c6 2abf
00000100: 33cd 5c3c 9bff 87be 1014 6a3e d127 893e
00000110: 7521 8f3e 50d5 c3be 56c8 a13d f3c6 0f3d
00000120: 578a 01be cf77 0dbe a255 9b3e 4010 a6bd
00000130: 0d08 a53c bc63 fc3d b165 52be 8e67 4ebc
00000140: 1214 89bc e071 ccbd bc40 ff3d 9ad7 9bbc
00000150: 431e 893e 917f 693e 93a4 1dbe e646 c3bd
00000160: d727 0bbf 9ae3 b8bd 6219 a23d 42e2 3dbf
00000170: 9bf4 cdbe 9200 95be b51e 1abe d327 4abb
00000180: fee8 79bd 4b93 853e 0c3e 283d 426c f13c
00000190: d3d5 d43d 16c7 eebd 9d8c a7bd bea6 1abf
000001a0: b742 213e 5b72 883d 8185 d6bd b64a 12be
000001b0: fbf2 853e 7564 a3bd da4b 9cbe b0c3 10be
000001c0: 29b2 49bc 9804 863d fe61 27bd 04e6 e23e
000001d0: 373f 473e 3578 1ebf 33d8 c03d 7ba5 92bd
000001e0: f9ed a8bd 8e32 8fbd a0be bf3e 6f5a da3d
000001f0: 93cf 253d 8159 65be 1d6f 593d 4681 db3e
00000200: 68c4 3f3e 4d1a f13d 9de6 cabd 55ed 88be
00000210: 148b 243e 7967 7d3d 9a80 5a3c 58f5 01bd
00000220: ff42 83bd 63ac 85bc 812e 9c3e 49f5 823d
00000230: 67b4 fabd e726 8d3d 13bf d2bd 44d7 73be
00000240: 3e41 5f3a 036c c6bd 7fd2 823e fc3c e73d
00000250: 0262 0b3d 97cc 87be 20c7 1fbe 0763 853d
00000260: 99e4 11bd c37c 0b3e 6b95 4abe 0519 12bf
00000270: af62 17be 23dd 4c3e 5656 c33c 5c12 563d
00000280: 85f0 963e 3359 f1bd d0ef b1bd 6015 843d
00000290: 5edb fdbd 653c fb3c a823 013e d8fa 65be
000002a0: c806 c83e 4271 0c3e e9b8 b43b 9503 6dbe
000002b0: 1c30 063e 97ac 25be abd7 5e3e d66a 3e3d
000002c0: 1070 f43d 18ed 6abd 4c14 ee3d d09f 473e
000002d0: 58f7 7f3d d27c 02bf 1ace 17bf 586f 60be
000002e0: c4c8 1e3d 108d 88be 1742 913e 75f7 0a3e
000002f0: 080c cebe f92f 9dbe 3f0d 79bd 3b87 9c3e
00000300: e99f 6b3d 54b9 8cbe 49e2 8abc 827c 62bf
00000310: ba48 68be 1248 6ebe 9f85 b1bb 6b5f 3b3d
00000320: 3774 39be 6209 463e 6074 80be 341a 67bd
00000330: 389e 57be 1940 803d 3b8c 9a3e 79b4 2d3e
00000340: 2894 bcbe 0e34 16bf b69c eb3e 09ee c4be
00000350: be17 6a3e b286 f2bd 2bc0 5dbe 34e1 373e
00000360: f1eb 2dbe b3ed 43bf 8b9f 423e 78e2 413e
00000370: 8c2a 3ebd c117 17bf ef65 32bf 27cd 3dbf
00000380: e03e a2be 583b 653e c4b0 9f3c 09f8 703e
00000390: 5b54 d7bd 75e6 283e fe9e b63e 5f29 33be
000003a0: 6f84 33be a2b1 b23b 4807 7e3e 3b58 9bbd
000003b0: d9fb 593e eac4 cd3e 0808 933c d079 e7be
000003c0: f4eb febe 2523 04be d491 e7be 164b 20be
000003d0: 0fd3 9cbe 62d2 523e 8375 29be 2559 ec3d
000003e0: a2e6 94be 9a4f 67bf 4b37 e1bd cb1c 19be
000003f0: cbc0 4fbe acae 8b3e bc86 dc3e d360 0cbf
-0.5650479 0.19949375 -0.32260442 0.11427133 -0.26607582 -0.05248133 -0.3225449 -0.4619172
0.064035036 -0.14511128 0.10970174 -0.38021907 0.02494997 -0.15218803 -0.27650976 -0.05478807
-0.01387554 0.0066032247 -0.037214823 0.22146511 0.31111905 0.062261745 0.15596808 0.1380815
-0.063776575 -0.4579005 0.17962298 -0.13871579 -0.16638358 -0.6311246 0.23533402 -0.080557264
0.21082191 0.29759374 -0.05299043 -0.03891567 0.1773699 0.65334845 -0.14426531 -0.6534595
-0.71846354 -0.017030057 0.21152745 -0.022552378 -0.1472107 -0.0814127 0.05410852 -0.0949353
-0.032161575 -0.28683668 0.08021482 -0.5010994 -0.095143445 0.0543176 -0.55638534 -0.35088715
-0.4076111 -0.07660509 -0.7646469 -0.38450688 -0.009069776 -0.29952222 0.37185737 -0.66708523
0.013476658 -0.265622 0.22859216 0.2678819 0.27955213 -0.38248682 0.07899539 0.035101842
-0.12650429 -0.13815235 0.3033877 -0.08108568 0.02014544 0.1232371 -0.20546605 -0.012597932
-0.016733203 -0.099826574 0.12463519 -0.019023705 0.267809 0.22802569 -0.15394811 -0.09535007
-0.54357666 -0.090277866 0.07914998 -0.7417337 -0.40225682 -0.29101998 -0.15050776 -0.003084649
-0.061013214 0.26088938 0.041074798 0.029470567 0.10392346 -0.116590664 -0.08181117 -0.6041068
0.15748106 0.066624366 -0.104746826 -0.14286312 0.26161942 -0.07978145 -0.3052662 -0.14137149
-0.012310543 0.06543845 -0.040864937 0.44316113 0.19457708 -0.6190217 0.09416237 -0.07160469
-0.08248515 -0.069920644 0.37450123 0.1066178 0.04048116 -0.22397424 0.05308448 0.42872065
0.18727267 0.117725946 -0.09907267 -0.2674357 0.16068679 0.061866257 0.013336325 -0.03172812
-0.06409263 -0.016317552 0.3050423 0.06394441 -0.1224144 0.06892186 -0.10290351 -0.23812586
0.0008516497 -0.0968857 0.2555122 0.11290929 0.034029014 -0.26523277 -0.15603304 0.065130286
-0.0356184 0.13621812 -0.19783561 -0.57069427 -0.14783739 0.20006232 0.02384488 0.052263603
0.29480377 -0.117845915 -0.08688319 0.064493895 -0.123953566 0.030668447 0.12611258 -0.2245897
0.39067674 0.1371508 0.005515207 -0.23145898 0.1310429 -0.16179119 0.21761958 0.046488605
0.11935437 -0.057355016 0.11624965 0.19494557 0.062491745 -0.5097171 -0.5929886 -0.21917474
0.038765684 -0.26670122 0.28370735 0.1357096 -0.40243554 -0.30700663 -0.060803648 0.30571923
0.05752555 -0.27485144 -0.016953604 -0.88471234 -0.22683993 -0.2326968 -0.00541754 0.045745295
-0.18110739 0.19339517 -0.25088787 -0.056421474 -0.2105645 0.06262226 0.30185112 0.16963376
-0.36831784 -0.5867318 0.46017998 -0.38462856 0.2286062 -0.11842097 -0.21655338 0.17957002
-0.16984536 -0.76534575 0.19006173 0.18934047 -0.046427295 -0.5902062 -0.6968679 -0.7414116
-0.31688595 0.22385919 0.019493468 0.23532118 -0.105141364 0.16494162 0.35668176 -0.1749625
-0.17530988 0.0054533044 0.24807465 -0.07585188 0.21287479 0.40189296 0.017948166 -0.45210123
-0.49789393 -0.12904032 -0.45228446 -0.15653643 -0.30629775 0.20588067 -0.16548733 0.115404405
-0.2908221 -0.9035584 -0.109968744 -0.1495239 -0.20288388 0.27281702 0.43071544 -0.5483524

fc2.bias f4 [64]
00000000: b581 523d e5b0 f63a b5d2 803e 599e 3dbe
00000010: efc2 2d3e 0835 bfbd 3877 573e daf5 8a3e
00000020: 1b59 803e c6ea 593f fecf 86be b511 1b3d
00000030: adbe 373f ba26 1dbe d5fe 00be 89e1 b1bd
00000040: 5833 62be 69fe 63be de02 0bbe 8994 083f
00000050: ed05 213f 6ffa 633f d32e 95be 825e d2bd
00000060: 7cf7 2cbe 65e2 c1be cf7d 3fbe 3353 0fbe
00000070: 2e78 31be cce2 fe3e d00d 4dbe b99d 4a3e
00000080: 8360 76be 059d 233e 0a32 1b3f 45b2 b63c
00000090: 5ac5 a0be 6a46 69be ec7c c93e 4297 d9bd
000000a0: 33e4 3cbe f957 6b3f 07e7 493f cdfa 84be
000000b0: 4ca9 7c3e 1b7f cebd df7d 343f cdd6 1fbe
000000c0: 7670 b9bc 94e7 cebe 2bc4 263b 8300 613f
000000d0: 7058 43bd af0e 0dbe af32 f33e 3815 7dbd
000000e0: 7248 afbe 2c43 ffbd 3b6e 33bd 1149 22be
000000f0: c3d9 223d ad92 143f 6438 aebd 6bdb 56be
0.05139323 0.0018821029 0.25160757 -0.18517436 0.16968893 -0.09336287 0.21041572 0.27140695
0.25067982 0.8512386 -0.2633056 0.037858684 0.71775323 -0.15346804 -0.1259721 -0.086855955
-0.22089899 -0.22265019 -0.13575312 0.53351647 0.6289967 0.89054006 -0.29137287 -0.10271932
-0.16891283 -0.37868038 -0.18700336 -0.13996582 -0.17331001 0.49782407 -0.200248 0.19786729
-0.24060254 0.15977867 0.6062323 0.022301802 -0.31400567 -0.22780767 0.3935312 -0.10624553
-0.18446426 0.9193111 0.78868145 -0.25972596 0.24673957 -0.10082837 0.70504564 -0.15609284
-0.022636633 -0.40411055 0.0025446515 0.87891406 -0.047691762 -0.13775133 0.47499606 -0.061787814
-0.3423496 -0.12463984 -0.043806296 -0.15848185 0.039758455 0.5803631 -0.085068494 -0.20982139

fc3.weight f4 [4, 64]
00000000: 572a 913e bd14 313f 8124 1a3e 8225 82be
00000010: 3f47 d73c a6dc bc3e 0e98 783e 560c b53e
00000020: 465a 773e a9a2 5b3e 4724 24be 9699 a63c
00000030: 757c 8e3e 964f cdbe e486 eebe 772e b13e
00000040: 5c35 4fbe 79c5 87bf de41 5cbe 3ecb 7c3e
00000050: 078f 3c3e 9324 963e 0d5a 89be 441f 09bd
00000060: c85c ff3e e5cb a4be de5e 15be 1c48 1c3f
00000070: 57ab 433e b364 9b3e cf9e 8cbe 5685 813e
00000080: a55a 61be ae4d 103f 73fa 3a3e d2db d13e
00000090: 9d59 68be 6096 d4be e9a2 0e3e ae35 34bc
000000a0: 208a 07be 05f2 703e 9ca6 723e 2d92 32be
000000b0: fc8b ac3e 9134 12bf 3617 6b3e 6637 163e
000000c0: 3b83 0c3e cf4b a0bd d1e8 2f3d 1d5f 983e
000000d0: 6000 e2bd d98a 2dbf 14d5 953e 5b5e ae3e
000000e0: 9c99 1ebf 996d 973d 7c28 ff3d 97b0 b63e
000000f0: 5f23 47be 1818 5c3e ca0f b6be fa16 5a3e
00000100: 87c0 d53e d998 1b3f 1710 393e b8ba 4f3d
00000110: 74fc 1a3e 81b0 933e 94c7 693e b09a 9c3e
00000120: 3f2c 883e 79d8 803e d55f d4bd 809b e73d
00000130: 5025 7a3e f8ef 98be 1bd7 d2ba 6109 863e
00000140: cef6 37be 5739 023d fba9 48be 9989 223e
00000150: 0135 893e d06f a63e 22d5 c7bd 3a6d ab3d
00000160: 7970 4e3f b27b 45be 37aa 13be e9d2 c23e
00000170: 9186 903e ad58 9c3e 0539 0cbe 1d51 1c3e
00000180: 89ce 62be 09d5 113f 7d37 723e b5fc df3e
00000190: 02fd 69be 43e3 4dbe 79ad 963e d3ef 13be
000001a0: 3724 073e 6d17 903e a079 473e 3a4f 99bd
000001b0: 1cd3 ba3e c9a4 303d 21fa 7d3e 26bb 8fbc
000001c0: a8c4 613e 546d f7bd e010 ff3d 3c54 353e
000001d0: c2ed 00bf 362f b83e 5b1e 4e3e 9852 103f
000001e0: dac8 22be 8e40 f3bc 0f37 b33d 9bf2 c13e
000001f0: 1fb3 09be e9d9 273e b681 613d 089d 4e3e
00000200: 1c53 a9be 9453 cf3e 5bf4 8a3e 7590 8a3d
00000210: 21c9 be3e cc81 ef3d 8c2a 633e 6816 853e
00000220: f2c9 663e 04e4 823e 4995 69be 848c 603f
00000230: 8546 d53e d5f7 84be c9f9 59be d8c2 163e
00000240: 7f77 f83d c099 dd3e a65b f4bd 2381 67bd
00000250: 9e8b dc3d f4fd 6c3e 09e8 6d3e a97a ca3c
00000260: 9efc 0b3f 7918 6dbd 02d0 1ebe d508 9cbe
00000270: 5de7 143f 73dd 8c3e 941d f4bc 1356 2e3c
00000280: 2166 a9be e8cf c8bd 306e 893e e5d1 0c3f
00000290: 7e14 39be 7f47 83be 3ea9 9f3e 1c1c 6fbe
000002a0: 82b5 8ebe 2a30 8f3e c545 573e 52be 003d
000002b0: e890 a13e ecb7 ce3e 1280 7a3e 9d80 d93d
000002c0: ac21 ad3e 7ea6 95be 3274 883e ddfe af3e
000002d0: f2f4 49bf 70d8 95be 7bdb c33d 5b50 46be
000002e0: 79db c6bd 5238 a83e 4793 313e 5471 3d3f
000002f0: 381a babe 2390 673e 0060 e63d 8193 29bc
00000300: 7ea0 423e 429e 7b3e 2d98 543e 451c fbbd
00000310: 2ba6 173e d119 a53e 608c 923b f98e ca3e
00000320: 3c38 7a3e e0f9 933e 6c50 2d3b 8f2a 3d3f
00000330: ab98 7a3e 02ec 7d3e e250 b3bd a299 f1be
00000340: 0c6d 77bc f2fa 8f3b 76be 35be 15dc 153e
00000350: 5ad8 1c3e 5c18 993e d151 f7be 07f7 503d
00000360: 87b3 633e 1d68 bbbe 5042 f33d 6fd0 eabd
00000370: 9d50 793e a11a 843e 438d ef3d ea9e 473e
00000380: 9c7d babe bf05 d0bb 09fb 603d cb22 f13e
00000390: 4260 0dbe a678 09be 7aa2 ce3e ba96 34be
000003a0: 7809 84be 9e38 b33e 17c3 a33e e965 eebd
000003b0: 5fb0 d83e 4f85 6d3e 92d6 483e 61c4 003d
000003c0: 9795 d03e cf94 a3be 10c3 863e 417c 843e
000003d0: b09c d0be 8562 1b3e 879c e83d 8750 203f
000003e0: 5e9d 48bf 941a 663d c136 49be 742e 783e
000003f0: 39d1 14be 4401 1e3e 03ad 7dbe cab3 a33d
0.28352615 0.6917227 0.15052988 -0.2541924 0.02627909 0.3688709 0.24276754 0.35360974
0.2415553 0.21448769 -0.16029464 0.020336907 0.27829328 -0.40099782 -0.46587288 0.34605762
-0.20235199 -1.0607139 -0.21509501 0.24686906 0.18413936 0.2932478 -0.26826516 -0.033477083
0.49875474 -0.3218681 -0.1458697 0.6104753 0.1910833 0.30350265 -0.2746491 0.2529704
-0.22007234 0.5636853 0.18259601 0.40988022 -0.22690435 -0.41520977 0.13929333 -0.010999126
-0.13236284 0.23529823 0.23696369 -0.17438574 0.3370055 -0.5711146 0.22958073 0.1466957
0.13721935 -0.07826959 0.04294664 0.29760066 -0.11035228 -0.6778999 0.29264128 0.34056363
-0.6195314 0.07393951 0.12458894 0.35681602 -0.19447087 0.21493566 -0.3555892 0.21297827
0.4174845 0.607801 0.18072544 0.05071518 0.15135366 0.288456 0.2283004 0.30586767
0.26596257 0.25165156 -0.10369841 0.11308956 0.24428296 -0.29870582 -0.0016085835 0.2617903
-0.17965242 0.031792965 -0.19596092 0.15872802 0.2679825 0.3250718 -0.09757449 0.08370443
0.8064037 -0.19285467 -0.144204 0.38051537 0.28227666 0.30536404 -0.13693626 0.15265317
-0.221491 0.5696569 0.2365398 0.43747488 -0.22850421 -0.20106225 0.29429224 -0.14446954
0.13197409 0.28142872 0.1947999 -0.074858144 0.3648919 0.0431259 0.24802448 -0.017545294
0.22047675 -0.120813996 0.124543905 0.17707914 -0.5036279 0.3597352 0.20128767 0.5637603
-0.15896931 -0.029693868 0.08750736 0.37880406 -0.13447236 0.1639172 0.055055343 0.2017709
-0.3307122 0.40493453 0.27139553 0.06765834 0.37262824 0.11694679 0.22184199 0.25993657
0.22537974 0.25564587 -0.22810854 0.8771441 0.41655365 -0.2597033 -0.21286692 0.14722764
0.12132167 0.43281364 -0.11931543 -0.05651964 0.10768817 0.2314375 0.23233046 0.024716692
0.5468234 -0.057884667 -0.15509036 -0.30475488 0.5816553 0.27512702 -0.02979926 0.010640639
-0.3308573 -0.0980528 0.2684188 0.55007774 -0.18074223 -0.25640485 0.3118381 -0.23350567
-0.27872854 0.27966434 0.21022709 0.031431504 0.31555867 0.40374696 0.24462917 0.10620234
0.33814752 -0.29228586 0.2665115 0.34374133 -0.7888938 -0.2926669 0.09563347 -0.1936659
-0.0970983 0.3285547 0.17341338 0.7400105 -0.36348128 0.22613578 0.11248779 -0.010350109
0.19006535 0.2457209 0.20761175 -0.12261251 0.14809482 0.3224626 0.0044723004 0.39562204
0.24435514 0.28901577 0.002644564 0.73893064 0.244723 0.24797061 -0.087556615 -0.47187525
-0.015101682 0.0043939287 -0.17748436 0.14634736 0.15316907 0.29901397 -0.48304608 0.051016834
0.22236453 -0.3660287 0.118778825 -0.11465537 0.24347158 0.25801566 0.116968654 0.19494215
-0.36423957 -0.0063483412 0.054926906 0.47096857 -0.1380625 -0.1342493 0.40358335 -0.17635623
-0.25788474 0.35004133 0.3198478 -0.116405316 0.4232206 0.23195384 0.19613102 0.03143728
0.40739128 -0.3194947 0.26320696 0.25876048 -0.40744543 0.15174301 0.1135798 0.62622875
-0.78365123 0.05617769 -0.19649793 0.2423647 -0.14532937 0.1543017 -0.2477303 0.079932764

fc3.bias f4 [4]
00000000: 15b7 1c3f ed90 043f 3c32 ea3e 4a18 013f
0.6121686 0.5178364 0.4574145 0.5042769
