3 - Policy-based methods/Project 2 - Continuous Control/checkpoint_actor.pth (torch_old, 170735 bytes, 10 tensors)

fc1.weight f4 [256, 33]
0	0xbcfe7e4f	-0.031066088
1	0x3f004365	0.50102836
2	0xbe847dd6	-0.25877255
3	0xbe2bb64a	-0.16768757
4	0x3ed2b0ee	0.41150612
5	0xbe8c9e9d	-0.27464762
6	0xbe881d89	-0.26585034
7	0x3eb754a4	0.35806763
8	0x3c14c106	0.0090792235
9	0xbf1f1fa9	-0.62157685
10	0xbf4888c1	-0.7833367
11	0xbeabba62	-0.33540636
12	0x3e9aae5b	0.30211148
13	0x3d8ff44c	0.07029018
14	0x3eb17cb5	0.34665456
15	0x3eecb1e9	0.46229485
16	0xbe4b7e80	-0.19872475
17	0xbd8c681c	-0.06855795
18	0xbe9d8159	-0.30762747
19	0xbd49284b	-0.049110692
20	0xbcb01d75	-0.021498421
21	0xbe916a48	-0.284014
22	0x3c27224b	0.010201047
23	0x3eccc6a7	0.3999531
24	0xbf1b3dce	-0.6064118
25	0xbe0d784f	-0.13815425
26	0x3c187118	0.009304307
27	0x3e03c79c	0.12869114
28	0x3eab77dc	0.33489883
29	0xbd509d53	-0.050931286
30	0xbe8842da	-0.26613504
31	0xbdebb7ec	-0.1150969
32	0xbe5f7836	-0.218232
33	0xbd895d5a	-0.067072585
34	0xbf0d2cb7	-0.55146354
35	0xbe0ac524	-0.13551766
36	0xbe473d12	-0.1945689
37	0xbea5df9b	-0.3239716
38	0xbec6f254	-0.38856757
39	0xbdfcfad1	-0.12352527
40	0x3dcb1b61	0.099173315
41	0xbe416121	-0.18884708
42	0x3e9e934b	0.3097175
43	0x3ed17b0c	0.4091419
44	0xbdc34594	-0.09534755
45	0xbedb900c	-0.42883337
46	0xbeb42fb2	-0.3519264
47	0x3e66b841	0.22531225
48	0x3e8776cc	0.26457822
49	0xbe4249b1	-0.18973424
50	0xbda28c5e	-0.07936929
51	0x3b890172	0.0041810805
52	0xbf05cb86	-0.5226368
53	0xbee22965	-0.44172207
54	0xbf68e81f	-0.9097919
55	0x3e517d0f	0.20457862
56	0x3d836f71	0.0641774
57	0xbc5d19a7	-0.0134948855
58	0x3e96165c	0.29313934
59	0xbe80fedd	-0.25194445
60	0x3f2cb4ae	0.67463195
61	0xbe6e2339	-0.23255624
62	0xbed3fe95	-0.41405168
63	0xbebb10d9	-0.3653629
64	0x3d57926c	0.052629873
65	0x3e864eee	0.26232094
66	0xbdfbe7e0	-0.12300086
67	0xbd82df07	-0.06390195
68	0x3de17488	0.11008555
69	0xbde4b78a	-0.1116782
70	0x3e57b9ba	0.21066943
71	0xbe620566	-0.22072372
72	0x3c376c50	0.011195257
73	0x3daa0f96	0.08303754
74	0x3c7ac1cd	0.015304995
75	0x3d168436	0.03674718
76	0x3ead5492	0.33853585
77	0xbe87bbcf	-0.26510474
78	0xbed1895c	-0.4092511
79	0xbe863bb6	-0.2621743
80	0x3db4ced2	0.0882851
81	0x3f0efab8	0.55851316
82	0xbe8d32c7	-0.27577803
83	0x3e2ac746	0.1667758
84	0xbf0e5074	-0.5559151
85	0x3dffcbcc	0.12490043
86	0x3d57eb91	0.052714888
87	0xbe81a34a	-0.25319892
88	0x3e9c8e58	0.3057735
89	0x3f124150	0.5713091
90	0xbee44cef	-0.44589946
91	0x3e0f2be1	0.13981582
92	0x3e5fe1b7	0.21863447
93	0xbd063715	-0.032767374
94	0x3eb9fc18	0.36325145
95	0xbdafc64d	-0.08582745
96	0x3dd08ae5	0.10182742
97	0x3e04b7de	0.12960765
98	0x3f5f59cb	0.8724639
99	0x3dfa9971	0.12236298
100	0x3d42d5fb	0.04756735
101	0x3e3c1b7a	0.18369856
102	0x3ec254d7	0.37955353
103	0xbca8a01a	-0.020584155
104	0xbdc77f29	-0.09741051
105	0x3ebb0943	0.36530504
106	0x3eac742f	0.3368239
107	0x3dc7e84d	0.09761105
108	0xbe4f1921	-0.2022443
109	0x3e08ee05	0.13372047
110	0x3d86c5cd	0.06580696
111	0x3e00c808	0.12576306
112	0x3d5800f7	0.052735295
113	0xbe20df2a	-0.1571013
114	0x3dc5ca6a	0.09657748
115	0x3dbf08ee	0.09327875
116	0xbc22800a	-0.009918222
117	0xbede5ee5	-0.43431774
118	0x3de43af2	0.111440554
119	0x3eb623da	0.35574228
120	0xbe205da0	-0.15660715
121	0x3e5481c4	0.20752627
122	0xbd902bb4	-0.07039586
123	0xbeb2d652	-0.34929138
124	0x3ebd317b	0.36951813
125	0x3ee7eae4	0.45296395
126	0x3cec3120	0.028832018
127	0x3f243185	0.6413806
128	0xbe085d1f	-0.13316773
129	0x3e637fb9	0.22216691
130	0x3e43f446	0.19136152
131	0xbf177de8	-0.5917649
132	0x3e38412e	0.17993614
133	0x3e067296	0.13129649
134	0xbc76112e	-0.015018744
135	0xbd666c6c	-0.056255743
136	0xbe5c3a31	-0.21506573
137	0x3e42c1c2	0.19019225
138	0xbe2de0f8	-0.1698035
139	0x3b46b62c	0.0030320985
140	0x3ea0c3aa	0.3139928
141	0xbeb9344b	-0.3617271
142	0x3e61b21b	0.22040598
143	0xbe0f86dc	-0.14016289
144	0xbde2d049	-0.110748835
145	0x3d371b10	0.044703543
146	0x3e262313	0.16224317
147	0xbeb93c4c	-0.36178815
148	0x3ea36e17	0.3191993
149	0xbccb1811	-0.02479175
150	0xbdf600b8	-0.12011856
151	0xbe40bd6e	-0.18822262
152	0x3e3ca1bd	0.18421073
153	0xbbffd326	-0.0078071533
154	0xbcfd74a8	-0.030939415
155	0xbe1f15a5	-0.155356
156	0xbda8aa0d	-0.082355596
157	0x3da0fcc7	0.078607135
158	0xbdb438bc	-0.08799884
159	0x3f1bc04c	0.60840297
160	0x3ebe4124	0.37159073
161	0xbf0b6f0b	-0.54466313
162	0xbdd96e4b	-0.1061674
163	0x3d44aee8	0.048018366
164	0x3e496e7e	0.19671056
165	0xbeae1554	-0.34000647
166	0xbee552b3	-0.44789657
167	0xbcf8b67a	-0.03036045
168	0x3d938d2b	0.0720466
169	0xbf4c688f	-0.79847044
170	0x3ec530a4	0.38513672
171	0xbdc5d1d0	-0.09659159
172	0x3d8c3a80	0.068470955
173	0x3dccf631	0.10007895
174	0xbcf0695d	-0.029347116
175	0x3e3a8f03	0.18218617
176	0x3e0c221e	0.1368489
177	0x3e6e1152	0.23248795
178	0x3dec83e2	0.11548592
179	0xbe37f3e0	-0.17964125
180	0xbd9f9878	-0.07792753
181	0xbe839668	-0.25700688
182	0x3cb696c5	0.02228869
183	0x3dbee7e0	0.093215704
184	0xbed4cfd7	-0.4156482
185	0xbdcde6e4	-0.100538045
186	0xbdd3ad40	-0.10335779
187	0xbe49c878	-0.19705379
188	0x3de04f0c	0.10952577
189	0x3dc4726e	0.09592138
190	0xbea44644	-0.32084858
191	0xbe9e7c7a	-0.30954343
192	0xbead7a44	-0.33882344
193	0x3de4da8a	0.111744955
194	0x3d2d8f4b	0.042372983
195	0xbe8b1a07	-0.27168295
196	0x3d571a71	0.05251545
197	0x3f2e9d27	0.68208545
198	0xbe447beb	-0.19187896
199	0xbd93aae5	-0.0721033
200	0xbe17de14	-0.1483081
201	0x3d96a620	0.073559046
202	0xbdb9dcf1	-0.09075344
203	0xbe88dac8	-0.26729417
204	0xbe83bc8b	-0.25729784
205	0x3f01fd0b	0.5077674
206	0x3ebed6ea	0.3727334
207	0xbdc11c32	-0.09429206
208	0x3e8ce137	0.27515575
209	0xbd983c0b	-0.07433327
210	0x3e27cccc	0.16386718
211	0xbe9bdac9	-0.30440357
212	0xbe1b2d2f	-0.15153955
213	0x3e56f178	0.2099055
214	0x3dd6c6a8	0.104871094
215	0x3ebf61f5	0.37379423
216	0x3e7e121e	0.24811599
217	0x3eed52a3	0.4635211
218	0x3e467f6e	0.19384548
219	0xbe4be0fc	-0.19910043
220	0x3f17dca2	0.59321034
221	0x3ef5ca64	0.48005974
222	0xbe486de8	-0.19573176
223	0x3e198367	0.14991532
224	0x3e649f64	0.22326428
225	0xbd96dd11	-0.07366384
226	0xbeadb8f6	-0.33930176
227	0xbc3f999b	-0.011694337
228	0x3d1ba2fc	0.03799723
229	0xbd5f90b8	-0.054581374
230	0x3effce77	0.49962208
231	0x3efe6b28	0.4969113
232	0x3dfca440	0.12336016
233	0x3f733e55	0.95016986
234	0x3f201e3b	0.6254613
235	0xbdc446ad	-0.09583793
236	0x3eeb1577	0.45914814
237	0xbca7fcd8	-0.020506307
238	0xbded9fe6	-0.11602764
239	0x3e6d91ea	0.23200193
240	0xbd8a1c07	-0.06743627
241	0x3f1027e7	0.56310886
242	0x3eb71a8c	0.3576244
243	0x3e0fccd7	0.14042984
244	0xbe6f85b1	-0.23390843
245	0x3f3f9da4	0.74849916
246	0xbea7a912	-0.32746178
247	0x3e84c98f	0.25935027
248	0x3db6b3b4	0.089209944
249	0x3e65db4c	0.22446936
250	0x3c0b00e2	0.008484097
251	0x3dc967a4	0.09834221
252	0xbe4c80d9	-0.19971026
253	0x3ee73615	0.4515845
254	0x3e166aeb	0.14689223
255	0xbd81754b	-0.063212

fc1.bias f4 [256]
0	0xbe2d57c9	-0.16928019
1	0x3eb8a491	0.36063054
2	0x3e218fe1	0.15777542
3	0xbccef323	-0.025262421
4	0xbd90a8ed	-0.0706347
5	0xbe28bf1b	-0.16479151
6	0xbd6d531f	-0.0579406
7	0x3df72905	0.12068371
8	0xbc95e946	-0.01829971
9	0x3e8905f9	0.2676237
10	0x3e08642b	0.13319461
11	0x3d1e6f0e	0.03868013
12	0x3d519510	0.051167548
13	0x3d9a6e66	0.07540588
14	0x3dd2d04c	0.10293636
15	0x3bf5bf28	0.0074995942
16	0x3e1486b9	0.14504518
17	0x3d19fc1f	0.037593957
18	0xbd849665	-0.06473998
19	0x3e0d2191	0.13782336
20	0x3d6a8af0	0.057261407
21	0x3e9ab8f2	0.30219227
22	0x3e5c0f1b	0.21490137
23	0x3cc5aebf	0.024131177
24	0xbd98192e	-0.07426678
25	0x3da78786	0.08180146
26	0xbe181aa7	-0.14853917
27	0xbe298bf0	-0.16557288
28	0x3d670450	0.056400597
29	0x3e69374a	0.22774997
30	0x3e29c7fd	0.16580196
31	0xbdd4f347	-0.10397964
32	0x3e85cce3	0.2613288
33	0x3e27d45f	0.16389607
34	0xbe6071b1	-0.2191837
35	0xbd5a03db	-0.053226333
36	0x3e085b0f	0.13315986
37	0xbd3fc907	-0.046822574
38	0x3d2709e6	0.040780924
39	0x3e2227b3	0.15835457
40	0xbd69063b	-0.056890707
41	0xbda3ed86	-0.080042884
42	0x3d0254ad	0.031819034
43	0x3eb12957	0.34601852
44	0xbd3dcce9	-0.046337996
45	0x3dfe7cad	0.12426124
46	0x3e88c346	0.26711482
47	0x3de2c34d	0.11072407
48	0x3d0c401c	0.034240827
49	0x3e2478f8	0.16061771
50	0xbc106159	-0.008812272
51	0x3e294c13	0.16532926
52	0x3d8d1182	0.06888105
53	0xbdc68076	-0.09692471
54	0x3e42ac5b	0.19011061
55	0xbce0b96a	-0.027432162
56	0x3eaccc02	0.33749396
57	0x3e77f8fd	0.24216075
58	0x3da74a92	0.0816852
59	0x3d9317d9	0.07182283
60	0x3d9f1a5c	0.077686995
61	0xbd5854f1	-0.05281538
62	0x3de684a8	0.11255771
63	0x3e805668	0.25065923
64	0xbe8ed62a	-0.2789777
65	0xbda3985a	-0.07988043
66	0x3e1a3160	0.15057898
67	0x3dc7eb80	0.09761715
68	0x3e81a4fa	0.2532118
69	0x3ea79f9a	0.32738954
70	0x3d308acf	0.04310113
71	0x3e2b8666	0.16750488
72	0xbe592f71	-0.21209504
73	0x3e90e0c9	0.28296497
74	0x3d51c059	0.051208828
75	0x3e404c13	0.1877902
76	0x3ce89e7f	0.02839589
77	0x3ca7cec9	0.020484345
78	0xbc39d145	-0.011341398
79	0xbce1a973	-0.02754662
80	0x3e4d5dda	0.20055333
81	0x3d5698f3	0.052391957
82	0x3e37e82b	0.17959659
83	0xbe0b1569	-0.13582386
84	0x3e8e46b0	0.27788305
85	0xbe88e7aa	-0.26739246
86	0x3e1e156d	0.15437861
87	0xbe2629d6	-0.16226897
88	0x3e03f2f6	0.12885651
89	0xbd1110bf	-0.03541636
90	0x3e859752	0.2609201
91	0x3e07e2e6	0.13270149
92	0xbe1a321c	-0.15058178
93	0x3d9fc560	0.07801318
94	0xbd721f13	-0.059111666
95	0x3dd2dc15	0.102958836
96	0x3e879e4b	0.26487955
97	0x3d1cf94e	0.038323693
98	0xbd9e57c7	-0.07731586
99	0xbe1709e1	-0.14749862
100	0xbd4de9ae	-0.050271682
101	0x3e2774cd	0.1635315
102	0x3e91047a	0.28323728
103	0x3d8c70a7	0.06857424
104	0x3db4e001	0.08831788
105	0xbe301a97	-0.17197643
106	0x3e2a466c	0.16628426
107	0xbd07863e	-0.033087008
108	0x3d83c9b0	0.06434953
109	0x3e64f000	0.22357178
110	0x3d8b77b9	0.06809945
111	0x3e144f22	0.14483312
112	0xbdb7f59d	-0.08982394
113	0x3e9b9d9d	0.30393687
114	0x3e8f14d4	0.27945578
115	0x3ea2063a	0.31645375
116	0x3d2aeee7	0.04173174
117	0xbd7d402d	-0.06182878
118	0x3e4e7366	0.20161209
119	0x3c1204e6	0.008912301
120	0xbdb3c8fe	-0.087785706
121	0x3d691c2d	0.056911636
122	0x3dbb7ab9	0.09154267
123	0x3dfc6150	0.123232484
124	0xbe045f10	-0.12926888
125	0xbdec34d0	-0.11533511
126	0x3e89d3e5	0.26919475
127	0x3e9c314e	0.30506366
128	0x3d5a8838	0.053352565
129	0x3d826009	0.063659735
130	0x3dbfe5e1	0.09370018
131	0x3ddca574	0.10773745
132	0x3d53c4cc	0.051701352
133	0x3e17362b	0.14766757
134	0x3c80f19d	0.01574021
135	0x3da91e4b	0.08257731
136	0x3e5b8e80	0.21441078
137	0xbdbdda2b	-0.09270128
138	0x3d5ad41f	0.05342495
139	0x3eca19e9	0.39472893
140	0x3e564a4e	0.20926782
141	0xbe2abeca	-0.16674343
142	0x3df10382	0.11768247
143	0x3e2046bb	0.15651982
144	0x3cf7c283	0.030244118
145	0x3f1150a3	0.56763667
146	0x3ea080a9	0.3134816
147	0x3c7eae36	0.015544465
148	0x3db88dab	0.09011396
149	0x3e6a03b7	0.2285298
150	0x3e3451d4	0.1760934
151	0x3e31b62a	0.17354646
152	0x3dd1de98	0.102475345
153	0xbe8b561c	-0.27214134
154	0x3cb74606	0.022372257
155	0x3e263d06	0.16234216
156	0xbd6cca1f	-0.057809945
157	0xbc2a6587	-0.010400183
158	0x3de2a43a	0.1106648
159	0x3d4085e8	0.047002703
160	0xbe13b5d0	-0.14424825
161	0x3df7295c	0.120684355
162	0xbad51e3a	-0.0016259619
163	0x3e8c0efa	0.27355176
164	0xbda390bb	-0.079865895
165	0x3e1bfcae	0.15233108
166	0xbd6ac4e1	-0.057316665
167	0x3e3e1b97	0.18565212
168	0x39c9e803	0.0003851057
169	0xbe75f683	-0.24019818
170	0x3e87871a	0.26470262
171	0x3e47b691	0.19503237
172	0x3ebe6c0c	0.37191808
173	0x3e6f5c68	0.23375094
174	0x3ebe744c	0.37198102
175	0x3e48bf45	0.19604214
176	0x3e20472b	0.15652148
177	0x3e156d43	0.14592461
178	0xbd1504a4	-0.03638138
179	0x3e95d6b1	0.2926536
180	0x3e80740a	0.2508853
181	0xbdae56dc	-0.08512661
182	0xbd6154bf	-0.05501246
183	0x3e4f8d3c	0.2026872
184	0x3e63514e	0.22198984
185	0x3e5dc3bc	0.21656698
186	0x3c24d53e	0.0100606065
187	0x3c5f5159	0.013630235
188	0x3e1419e5	0.14463003
189	0xbe27f3fe	-0.1640167
190	0x3e03c87f	0.12869452
191	0xbe4195b9	-0.18904771
192	0x3e1fc795	0.15603478
193	0x3eaf8289	0.34279278
194	0x3d8a19a9	0.067431755
195	0xbcc0df8a	-0.023544092
196	0xbe10b49a	-0.14131394
197	0xbd9534e5	-0.072854795
198	0x3b0daa07	0.0021616237
199	0x3d75d70d	0.06001954
200	0xbda61302	-0.08109094
201	0x3cba85c4	0.022768863
202	0x3d88b61e	0.06675361
203	0xbda0d740	-0.07853556
204	0x3e0f6e7a	0.14006987
205	0x3e1668f9	0.14688481
206	0x3df92ea0	0.12167096
207	0x3e5b4df7	0.2141646
208	0xbe9ee3a2	-0.31033045
209	0x3d17e1b1	0.03708047
210	0xbda473af	-0.080298774
211	0xbecb9bd1	-0.39767316
212	0x3e237d2c	0.15965718
213	0xbc83075a	-0.015994716
214	0x3de79605	0.11307911
215	0x3d559e60	0.05215299
216	0x3e4cc8fd	0.19998546
217	0xbe09b42c	-0.13447636
218	0x3d4fcb9c	0.050731286
219	0x3d1807d6	0.037116848
220	0x3e4a795a	0.19772854
221	0x3eb35e2d	0.35032788
222	0x3e8bcbd7	0.27303955
223	0x3e2910e1	0.16510345
224	0x3d0e5934	0.03475304
225	0x3dc1f7e6	0.09471111
226	0xbceba4b0	-0.028765053
227	0x3e4ca896	0.19986185
228	0xbd4898dd	-0.048973907
229	0x3e9be698	0.30449367
230	0xbcc29634	-0.023753263
231	0x3d4b6209	0.04965404
232	0x3d8f529e	0.0699818
233	0x3de84f68	0.113432705
234	0x3e2ce1ca	0.16883007
235	0x3d63620c	0.055513427
236	0xbd9b267a	-0.07575698
237	0x3e826a71	0.25471833
238	0x3daa3dd5	0.08312575
239	0xbdded9ba	-0.10881372
240	0x3e461ccf	0.19346927
241	0x3e26a781	0.16274835
242	0x3d675cb2	0.056484886
243	0x3e989b96	0.29806203
244	0x3e3a3171	0.18182923
245	0x3cc068b8	0.023487434
246	0x3e5cdaa4	0.2156778
247	0x3d96e947	0.07368713
248	0xbd114695	-0.035467703
249	0xbd441e50	-0.04788047
250	0x3e228ebc	0.15874761
251	0xbe74b239	-0.23896112
252	0x3e152cb5	0.14567836
253	0xbd676225	-0.056490082
254	0xbc5ec7f5	-0.013597478
255	0x3e3a6dc9	0.18205942

fc2.weight f4 [128, 256]
0	0x3e977c30	0.29586935
1	0x3df1d26e	0.118077144
2	0xbe850ec9	-0.25987843
3	0xbc15d7ce	-0.00914569
4	0x3e7e10d8	0.24811113
5	0xbe6507c1	-0.22366239
6	0x3d3a7aad	0.04552715
7	0xbcdaaa16	-0.026692431
8	0xbe5ba8ff	-0.21451186
9	0xbd459275	-0.048235375
10	0xbd60270e	-0.054724745
11	0xbe2842c6	-0.16431722
12	0xbec91ca1	-0.39279655
13	0xbd987696	-0.074444935
14	0x3c818822	0.015811983
15	0xbbab18c4	-0.005221458
16	0x3da7cbac	0.08193144
17	0x3d5205eb	0.051275175
18	0x3d9b9bdf	0.075980894
19	0xbe82b4fd	-0.25528708
20	0x3d4c0d40	0.049817324
21	0xbe6b8d8f	-0.23003219
22	0xbd96a837	-0.07356303
23	0xbdcdf133	-0.10055771
24	0xbe001086	-0.12506303
25	0xbe2325a9	-0.15932335
26	0xbd9517f3	-0.072799586
27	0xbdd0d647	-0.1019712
28	0x3c9dd1ca	0.019265074
29	0x3e1e0916	0.15433154
30	0x3d888408	0.06665808
31	0x3e2576a9	0.16158547
32	0x3e52300d	0.20526142
33	0xbc8b04c0	-0.016970038
34	0xbf08a302	-0.5337373
35	0xbe584124	-0.21118599
36	0x3e238514	0.15968734
37	0x3e34581b	0.17611735
38	0x3c4f4cf3	0.0126526235
39	0xbdd41a74	-0.10356608
40	0x3ddf4931	0.10902632
41	0x3ecd4932	0.40094906
42	0x3d3da0ad	0.04629581
43	0x3c8eb47e	0.01742005
44	0xbdd1a0f9	-0.10235781
45	0x3c3200be	0.010864435
46	0xbe9e0069	-0.30859688
47	0xbe96203f	-0.29321477
48	0xbd1db37a	-0.03850124
49	0x3dbeaf90	0.0931083
50	0xbe227caa	-0.15867868
51	0xbeb0a851	-0.34503415
52	0x3dfd0a56	0.12355487
53	0xbd83da3c	-0.06438109
54	0xbda09c26	-0.07842283
55	0x3d8b3a94	0.06798282
56	0x3d2722dd	0.040804733
57	0xbd7860dc	-0.060639247
58	0xbe154204	-0.14575964
59	0xbda743c5	-0.08167223
60	0x3e012a8a	0.12613884
61	0x3df85524	0.12125614
62	0xbdf74c30	-0.120750785
63	0x3e114fb1	0.14190556
64	0xbbba3ff8	-0.005683895
65	0xbe700d52	-0.23442581
66	0xbdfe1700	-0.12406731
67	0x3e514e59	0.20440044
68	0x3e11b776	0.14230141
69	0xbdcd6a45	-0.10030035
70	0x3c075c54	0.008261759
71	0xbd851132	-0.0649742
72	0x3e5e3ba1	0.21702434
73	0x3ecde0e8	0.40210652
74	0xbdac8355	-0.08423487
75	0x3e646c0f	0.22306846
76	0x3e29e8ef	0.16592763
77	0x3e81405c	0.25244415
78	0xbe129222	-0.14313558
79	0x3bdb082a	0.006684323
80	0x3e0fe56b	0.1405236
81	0x3d921ee8	0.07134801
82	0x3d3c56b6	0.04598113
83	0x3dae7005	0.0851746
84	0xbe7a8fda	-0.24468938
85	0x3e4c6132	0.19958952
86	0x3d561fbd	0.05227636
87	0xbd85f4de	-0.06540845
88	0xbe2a4685	-0.16628464
89	0xbda86de7	-0.08224087
90	0xbd1e1079	-0.03858993
91	0xbd01f9b3	-0.031732272
92	0x3c491d4e	0.012275053
93	0x3e4418ae	0.1915004
94	0x3e9db277	0.3080022
95	0xbe126bf7	-0.14298998
96	0x3dad95e6	0.084758565
97	0x3e36a5cf	0.17836688
98	0xbd814e03	-0.06313708
99	0xbd027020	-0.031845212
100	0x3cca4d24	0.024694987
101	0xbe41eaca	-0.18937221
102	0x3e013d15	0.12620957
103	0x3e58535a	0.21125546
104	0x3e1fdcfc	0.15611643
105	0xbd7b1331	-0.0612976
106	0x3e0e5c2c	0.13902348
107	0x3e4f0aa6	0.20218906
108	0x3de2ed67	0.11080437
109	0x3d4da520	0.050206304
110	0x3e3fbd31	0.18724515
111	0x3d9eff1d	0.07763503
112	0x3e80f4b6	0.251867
113	0xbe10ac76	-0.14128289
114	0xbd6a3afe	-0.057185166
115	0xbdca8ff3	-0.098907374
116	0xbd3aef02	-0.04563809
117	0xbdee911c	-0.11648771
118	0xbd824608	-0.06361014
119	0xbe7319fb	-0.2374038
120	0x3dd57033	0.10421791
121	0x3d44a23f	0.048006292
122	0x3c238221	0.009979756
123	0x3dddc14c	0.10827884
124	0xbd5741f7	-0.052553143
125	0xbdc3a82c	-0.095535606
126	0xb953a065	-0.0002018228
127	0xbdafa827	-0.085769944
128	0x3e4212b5	0.18952449
129	0x3c8767ed	0.016529048
130	0x3e03ce1b	0.12871592
131	0x3db06745	0.08613447
132	0x3d60806e	0.05480998
133	0xbd60cb47	-0.05488136
134	0xbd40a10e	-0.047028594
135	0xbdf3951a	-0.11893673
136	0x3eac9062	0.33703905
137	0xbd9cf6af	-0.07664239
138	0xbcf0ab4c	-0.029378556
139	0x3ddae00e	0.10687266
140	0xbd622920	-0.055215
141	0x3b185c85	0.0023248505
142	0x3df34814	0.11878982
143	0x3de470b9	0.11154313
144	0x3e232d4d	0.1593525
145	0xbd22bfad	-0.039733578
146	0x3b132225	0.0022450772
147	0x3d4028e9	0.046914015
148	0x3dd1a9f2	0.102374926
149	0xbe4eb29b	-0.2018532
150	0x3eb89ffe	0.36059564
151	0x3d88014d	0.06640873
152	0xbdb66eab	-0.08907827
153	0x3eb419d4	0.35175955
154	0xbd8822b6	-0.066472456
155	0xbcdfb49c	-0.027307801
156	0x3e69e0ea	0.22839704
157	0x3e3d2502	0.18471149
158	0x3da0daeb	0.07854255
159	0x3c179900	0.009252787
160	0x3c1efd9d	0.009704021
161	0x3d3a5a79	0.045496438
162	0xbddfd64a	-0.10929544
163	0x3dfa14b4	0.1221098
164	0x3e1b2f09	0.15154661
165	0x3e1d2025	0.15344293
166	0xbe01527e	-0.12629125
167	0x3de938e5	0.11387805
168	0xbe12e493	-0.14345007
169	0xbc225bed	-0.009909612
170	0x3e779598	0.24178159
171	0xbe3852d7	-0.18000351
172	0x3dd779fa	0.10521312
173	0xbb6da5ba	-0.003626211
174	0xbe4484ce	-0.19191286
175	0x3cb8ca36	0.02255736
176	0xbe3f361e	-0.18672988
177	0xbd91fd11	-0.07128347
178	0x3e99a589	0.30009106
179	0x3c7f0397	0.015564821
180	0xbe8bc7cd	-0.27300873
181	0xbc73ea2e	-0.014887376
182	0x3d7613a6	0.060077332
183	0xbe32c783	-0.1745892
184	0x3d5d320c	0.054002807
185	0x3d62781b	0.055290323
186	0x3da93755	0.08262507
187	0xbe81ec6a	-0.25375682
188	0x3dbe54d1	0.09293521
189	0x3de7025d	0.11279748
190	0xbdcd981e	-0.1003878
191	0x3d009c29	0.031398926
192	0xbdce43fd	-0.100715615
193	0x3d98910a	0.07449539
194	0x3c596f5b	0.013271178
195	0xbd86ad90	-0.06576073
196	0x3e2c0220	0.16797686
197	0x3de5c83a	0.11219831
198	0xbe264005	-0.16235359
199	0xbe27839f	-0.16358803
200	0x3c8c972c	0.017161928
201	0xbd9435a4	-0.07236794
202	0xbcc7cbca	-0.024389166
203	0x3e4780f2	0.19482782
204	0xbbac87e9	-0.005265225
205	0x3e388ec2	0.18023208
206	0xbe8b5432	-0.27212673
207	0xbdc633a9	-0.09677822
208	0xbe423d1f	-0.18968628
209	0xbe2c5876	-0.1683062
210	0x3ceb7166	0.028740596
211	0xbda50b21	-0.08058763
212	0x3ae4f17e	0.001746699
213	0xbd910539	-0.07081074
214	0x3d2a1393	0.041522574
215	0xbe205e9a	-0.15661088
216	0xbba80c26	-0.0051284013
217	0xbc883472	-0.01662657
218	0x3c854ddc	0.016272478
219	0xb86b71fe	-5.613453e-05
220	0xbe662290	-0.22474122
221	0x3e15190c	0.14560336
222	0x3d8af311	0.067846425
223	0x3cc57eae	0.024108257
224	0x3de013b3	0.10941257
225	0xbc87ed19	-0.01659255
226	0xbe26e0d9	-0.1629671
227	0x3d3897ec	0.04506676
228	0x3da35a53	0.07976212
229	0x3ce71509	0.028208273
230	0xbe393b84	-0.1808911
231	0x3e3465ed	0.17617007
232	0x3e8aa44e	0.2707848
233	0xbe3321dd	-0.17493387
234	0xbd0cb8d4	-0.034355953
235	0xbaa42074	-0.0012521879
236	0xbe24d350	-0.16096234
237	0x3d01ce68	0.031690985
238	0xbdb18623	-0.08668163
239	0xbe4f084b	-0.20218007
240	0x3dd1cd59	0.10244245
241	0x3e20829c	0.15674824
242	0xbd7f6c80	-0.062359333
243	0x3e8f480f	0.27984664
244	0xbda39735	-0.07987825
245	0x3e115e11	0.1419604
246	0x3dde0251	0.108402856
247	0x3e1cc64b	0.15310018
248	0x3e29caec	0.16581315
249	0xbe8d6c10	-0.27621508
250	0x3e453552	0.19258621
251	0x3e740c36	0.23832783
252	0x3da66d62	0.08126332
253	0x3ece7805	0.40325943
254	0xbd58f61b	-0.05296908
255	0xbdaf49cb	-0.08558997

fc2.bias f4 [128]
0	0x3dc80b5a	0.0976779
1	0xbc0bdcad	-0.0085365
2	0xbdf4af00	-0.11947441
3	0x3d9b1a92	0.07573427
4	0xbd3ed5fe	-0.046590798
5	0xbcc57858	-0.024105236
6	0xbd0d471f	-0.034491654
7	0x3d4f50d1	0.050614182
8	0xbd567eab	-0.052366894
9	0x3bd0a320	0.0063671023
10	0xbdfe78dc	-0.12425396
11	0xbc9528cc	-0.01820793
12	0x3d958b1a	0.07301922
13	0x3ca6adcd	0.020346547
14	0x3c3845a0	0.011247069
15	0x3c925625	0.017863343
16	0x3d9a0292	0.075200215
17	0x3c34a032	0.011024522
18	0xbd1aea41	-0.03782106
19	0x3d1cc3d8	0.03827271
20	0xbbb0489a	-0.0053797485
21	0x3dbb3ac3	0.09142067
22	0x3d16a8e5	0.036782164
23	0x3d3fc3e6	0.046817683
24	0x39096942	0.0001310455
25	0x3bced45d	0.006311937
26	0xbd330fdf	-0.043716308
27	0x3cfef5ae	0.031123009
28	0x3d17a9a5	0.03702702
29	0xbde47abd	-0.11156223
30	0xbd947e6d	-0.07250676
31	0x3d91adf3	0.07113256
32	0x3d8874b2	0.06662883
33	0x3d01bb8f	0.03167301
34	0xbbec22c4	-0.007206293
35	0xbd6853e4	-0.05672063
36	0x3d2bf46c	0.041981146
37	0xbd9a5002	-0.075347915
38	0x3d446126	0.04794421
39	0xba668dfd	-0.00087949616
40	0x3e03c46f	0.12867902
41	0xbd6e009e	-0.058106057
42	0xbdd31eb9	-0.10308594
43	0x3d100ec1	0.03517032
44	0xbe1b001c	-0.1513676
45	0x3b96cf43	0.0046023442
46	0xbbbdf0d6	-0.005796532
47	0xbd00301a	-0.031295873
48	0x3d2581ae	0.040406875
49	0x3d36447c	0.044498906
50	0x3d02f167	0.0319685
51	0xbd932130	-0.071840644
52	0x3d2d0ee9	0.042250548
53	0xbdb93cb2	-0.0904478
54	0xbb026c7f	-0.0019901094
55	0x3bfa4907	0.0076381
56	0x3a6f8520	0.00091369636
57	0x3da37fd3	0.07983365
58	0xbd475f54	-0.048674896
59	0x3d2d8049	0.04235867
60	0x3c43d29c	0.011952069
61	0x3b962191	0.004581638
62	0x3c0e9cbb	0.00870436
63	0x3d10947e	0.035297863
64	0xbca02ba2	-0.019552056
65	0x3d9a58eb	0.07536491
66	0xbcbd5671	-0.023112508
67	0xbd0099d6	-0.03139671
68	0x3ce1f716	0.02758364
69	0x3d2c536b	0.04207174
70	0xbc1f90ca	-0.00973911
71	0x3c92fa20	0.017941535
72	0x3d0a5ce9	0.033780012
73	0xbdb0d2d9	-0.08633966
74	0x3c40d9a9	0.011770644
75	0x3df02a87	0.117268614
76	0x3e000bf2	0.12504557
77	0x3e00098e	0.12503645
78	0xbd201dcc	-0.039090917
79	0xbe1c6940	-0.15274525
80	0x3d6ee5ba	0.058324553
81	0xbd33104c	-0.043716714
82	0xbd90ce70	-0.07070625
83	0xbd3673a2	-0.04454387
84	0xbcec568a	-0.028849859
85	0xbd0a7196	-0.03379973
86	0x3dfe59bd	0.1241946
87	0x3bbf3e7a	0.005836305
88	0x3d7735ca	0.06035403
89	0x3db76f4c	0.08956775
90	0x3b60052c	0.003418277
91	0x3dcfbbc2	0.10143234
92	0xbb896bf5	-0.0041937777
93	0xbb682fc5	-0.0035428863
94	0x3d935634	0.07194176
95	0x3be0f541	0.006865174
96	0x3c968a98	0.018376634
97	0xbcff90d0	-0.031196982
98	0xbccbe11f	-0.02488762
99	0x3c5daab5	0.013529469
100	0xbccf4748	-0.025302544
101	0xbdc0fb40	-0.09422922
102	0x3dab46f8	0.083631456
103	0x3e0faf87	0.14031802
104	0xbcde328e	-0.027123716
105	0x3d1f1294	0.038836077
106	0xbdb43547	-0.08799224
107	0xbdf82a38	-0.121174276
108	0xbdb21d02	-0.08696939
109	0x3d3ca84b	0.046058934
110	0x3d808f42	0.06277324
111	0x3d8cf72f	0.06883084
112	0x3d8ca63f	0.068676464
113	0x3dad1f06	0.08453183
114	0xbc1ae43c	-0.009453829
115	0x3e244663	0.16042475
116	0x3d30c71c	0.043158635
117	0xbceb871d	-0.02875095
118	0xbda8ae18	-0.08236331
119	0xbd266ddb	-0.04063211
120	0xbc3a0754	-0.011354286
121	0x3bcb00b1	0.006195151
122	0xbd3ee2df	-0.04660308
123	0xbc9d16b5	-0.019175867
124	0xbb6fd8bb	-0.0036597687
125	0x3c7c521f	0.015400439
126	0xbc35a7b8	-0.011087351
127	0xbc88c806	-0.016696941

fc3.weight f4 [4, 128]
0	0xbc2a1273	-0.010380375
1	0xbec68aee	-0.3877787
2	0xbf144bb1	-0.57927996
3	0xbef8f16d	-0.48621693
4	0x3e5a9981	0.2134762
5	0xbf0d08a0	-0.55091286
6	0x3e7ca48d	0.24672146
7	0x3d0ac70b	0.03388123
8	0xbd97411d	-0.07385466
9	0xbe91bf3b	-0.2846621
10	0x3da862fa	0.08222003
11	0x3e954331	0.29152825
12	0x3e6edfe8	0.23327601
13	0x3e3f8e1a	0.18706551
14	0x3e4d655d	0.20058198
15	0x3dcd9c19	0.10039539
16	0x3d94e6fc	0.07270619
17	0xbda4ea73	-0.0805253
18	0xbdbf78cf	-0.09349214
19	0xbe869121	-0.262826
20	0x3d5d173c	0.053977236
21	0x3dd2f81e	0.10301231
22	0xbf26e4c8	-0.6519284
23	0xbe0edc03	-0.13951115
24	0x3db9287d	0.09040926
25	0xbecdd363	-0.40200338
26	0xbd7ad984	-0.061242595
27	0x3ea592e0	0.3233862
28	0xbe868184	-0.26270688
29	0xbee27fac	-0.4423803
30	0xbc94a82b	-0.018146595
31	0x3e4f71f9	0.20258321
32	0x3c85df41	0.016341807
33	0x3d3758d8	0.044762462
34	0xbebd8f15	-0.37023225
35	0xbea03143	-0.31287584
36	0xbf2185c1	-0.6309472
37	0xbdafd68d	-0.08585844
38	0x3dbce925	0.09224156
39	0x3dbbb4c3	0.09165337
40	0x3df4b01c	0.11947653
41	0xbe3f0713	-0.18655042
42	0x3df4c92e	0.119524345
43	0x3ed04fb7	0.40685818
44	0xbf4a3857	-0.7899222
45	0xbf0b09cd	-0.5431183
46	0x3d1e0337	0.038577285
47	0xbdd78546	-0.10523467
48	0x3df108d1	0.1176926
49	0x3eb9f08f	0.36316344
50	0x3d876b23	0.066122316
51	0xbd5a7b80	-0.053340435
52	0x3d807506	0.062723204
53	0xbefba067	-0.49145815
54	0x3e85d52d	0.26139203
55	0xbd3bd553	-0.04585774
56	0x3e13b440	0.14424229
57	0xbbadc377	-0.0053028422
58	0xbef9229f	-0.48659226
59	0x3e6da3e0	0.23207045
60	0x3ee97503	0.45597085
61	0x3f25bf8c	0.647454
62	0x3c23f2ea	0.010006646
63	0xbcc73199	-0.024315642
64	0xbdac268f	-0.08405792
65	0x3ee3fe9b	0.44530186
66	0x3f004712	0.50108445
67	0xbe23e24b	-0.16004293
68	0x3df9ac4f	0.121910684
69	0xbf049dad	-0.51803094
70	0xbf0a018a	-0.539086
71	0xbe37b250	-0.17939115
72	0x3e49f089	0.19720663
73	0xbf1ecb4b	-0.6202895
74	0xbf176a1a	-0.59146273
75	0x3e37b9ed	0.17942019
76	0x3eb58d95	0.3545958
77	0xbd81e74c	-0.063429445
78	0x3e451ac0	0.19248486
79	0xbeea7205	-0.45790115
80	0x3e6b63ff	0.22987364
81	0x3e2c8b75	0.16850074
82	0x3d216a8a	0.039408244
83	0xbc4656f7	-0.012105695
84	0xbe5050c5	-0.20343311
85	0x3c336703	0.010949853
86	0x3e4b925b	0.19880049
87	0xbe28cf66	-0.16485366
88	0x3ce8b62a	0.028407175
89	0xbd25ba0e	-0.04046064
90	0x3eb8edd5	0.3611895
91	0x3eafd391	0.343411
92	0x3e88d903	0.26728067
93	0x3c018b96	0.007906815
94	0x3dc92e80	0.09823322
95	0x3c1e3ea0	0.009658486
96	0x3d7353fc	0.059406266
97	0x3dc04c63	0.093895696
98	0x3e319510	0.17342019
99	0xbe3a0583	-0.18166165
100	0x3e63eac6	0.22257528
101	0xbf1db68d	-0.61606675
102	0xbd502367	-0.050815012
103	0x3e86839d	0.26272288
104	0xbb88e41c	-0.0041775834
105	0xbd381515	-0.04494198
106	0xbee59553	-0.44840488
107	0xbe9c1d81	-0.3049126
108	0xbf17955c	-0.5921228
109	0xbe8fdbb9	-0.28097323
110	0x3ec4eed7	0.3846347
111	0xbd06fbd0	-0.03295499
112	0x3d309e6d	0.043119837
113	0xbebb2fb2	-0.36559826
114	0xbe819020	-0.2530527
115	0x3d894e1d	0.06704352
116	0xbec69e53	-0.38792667
117	0x3e59cc83	0.21269421
118	0x3dd29d7f	0.10283946
119	0xbf31e75a	-0.6949364
120	0x3df05199	0.117343135
121	0x3e5d7b46	0.21629056
122	0xbd7ffdbf	-0.06249785
123	0xbed3fdc8	-0.41404557
124	0x3e269b9a	0.16270295
125	0x3f178a3c	0.59195304
126	0x3efbab59	0.49154165
127	0xbc6700a3	-0.014099273
128	0x3e8102b5	0.25197378
129	0x3edc12c1	0.42983058
130	0xbd867059	-0.06564397
131	0xbea2937e	-0.31753153
132	0xbdf8a523	-0.12140872
133	0xbe57f7c8	-0.21090615
134	0x3e1c0b59	0.15238704
135	0xbeda0ee9	-0.425895
136	0x3f544007	0.829102
137	0x3de0038d	0.10938177
138	0xbe7e452a	-0.24831071
139	0xbefb4e42	-0.49083143
140	0x3e508901	0.20364763
141	0x3ebf71a6	0.37391394
142	0x3e14f432	0.14546278
143	0x3e6b0410	0.22950768
144	0xbd214126	-0.03936877
145	0xbefe650d	-0.4968647
146	0xbd2e9a74	-0.042627767
147	0x3e45bcb7	0.1931027
148	0xbe1582e1	-0.14600708
149	0x3e04a4e7	0.1295353
150	0x3d556e14	0.05210693
151	0x3e2298ea	0.15878645
152	0x3e31e652	0.17373016
153	0xbdf9eb00	-0.12203026
154	0xbec7fa38	-0.3905809
155	0xbdd70f71	-0.10500992
156	0xbb7b9011	-0.003838543
157	0x3e689111	0.22711588
158	0xbe5c59a8	-0.21518576
159	0xbe1abce9	-0.15111126
160	0x3e81077e	0.2520103
161	0x3d72fcdb	0.059323173
162	0xbe39edb5	-0.18157084
163	0x3e1e389a	0.1545128
164	0xbec0b5c8	-0.37638688
165	0x3dfef682	0.124493614
166	0xbc5c21fb	-0.013435836
167	0xbe524f69	-0.20538105
168	0x3e631155	0.2217458
169	0x3e0da4c6	0.13832387
170	0x3ee6d5ac	0.45084894
171	0xbf272faa	-0.65307105
172	0xbec0bc08	-0.37643456
173	0x3d10acc6	0.03532102
174	0xbdb8e0cb	-0.09027251
175	0xbd2fb263	-0.042894732
176	0x3cbfaadf	0.023396907
177	0x3f05e9c4	0.52309823
178	0x3e9ec090	0.3100629
179	0xbe1aae8d	-0.15105648
180	0xbddfe061	-0.10931469
181	0xbe3334ef	-0.17500661
182	0x3f121529	0.5706354
183	0x3db383e3	0.0876539
184	0x3d222456	0.039585434
185	0x3d17b186	0.037034534
186	0x3d05f8e9	0.032708082
187	0x3dd3a4a7	0.10334139
188	0xbeaafead	-0.33397427
189	0x3e3a67d5	0.18203671
190	0xbd1b4899	-0.03791103
191	0xbd1114df	-0.035420295
192	0x3e8a626f	0.27028224
193	0xbe101d25	-0.14073618
194	0xbe788e70	-0.24273086
195	0xbec2dda9	-0.38059738
196	0xbe09a2f9	-0.13441075
197	0x3e8d86b7	0.27641842
198	0x3e877525	0.26456562
199	0x3e030ef2	0.1279867
200	0x3da44b37	0.080221586
201	0xbeb477eb	-0.3524774
202	0xbbf0c0c2	-0.0073471973
203	0x3e684b8d	0.2268507
204	0xbe266cd5	-0.16252454
205	0x3e09c64a	0.13454548
206	0x3e12d921	0.1434064
207	0x3da0737a	0.078345254
208	0xbf007596	-0.5017942
209	0x3e76504c	0.24054068
210	0x3cf6df4e	0.030135777
211	0xbe16a35f	-0.14710759
212	0x3da034b0	0.07822549
213	0x3d9b0783	0.07569792
214	0x3e9000f1	0.28125718
215	0x3d08edf3	0.03343005
216	0xbe5f31fa	-0.21796408
217	0xbf753c15	-0.957948
218	0x3e83560d	0.2565159
219	0x3e964c23	0.29354963
220	0x3e58d8f5	0.21176513
221	0xbdd9c09b	-0.1063244
222	0x3e19a1f4	0.15003186
223	0xbe4c361c	-0.19942516
224	0x3e5de80e	0.21670553
225	0xbe84b758	-0.2592113
226	0x3d8eacdb	0.06966563
227	0xbdcee998	-0.10103148
228	0xbe647bf1	-0.22312905
229	0x3eef457e	0.46732706
230	0xbea53393	-0.3226591
231	0x3bad87b2	0.005295717
232	0xbefe01d6	-0.49610776
233	0x3e8144fc	0.25247943
234	0x3d4673c4	0.048450246
235	0xbe5106f2	-0.20412806
236	0x3dca1100	0.09866524
237	0x3dd4138a	0.10355289
238	0xbe7e5f43	-0.24841027
239	0x3e5b03a8	0.21388113
240	0x3e1790d1	0.14801337
241	0x3ead8622	0.33891398
242	0xbc6804f0	-0.014161333
243	0x3e0bcd82	0.13652614
244	0x3e253e9f	0.1613717
245	0x3ea3f8ca	0.32025748
246	0xbf66d01e	-0.9016131
247	0xbca285b7	-0.01983915
248	0xbedd81b3	-0.43263015
249	0xbec9c3d5	-0.3940722
250	0xbe6ffc4f	-0.23436092
251	0xbe87f07d	-0.26550665
252	0xbcc59d7e	-0.02412295
253	0xbecbee31	-0.39830163
254	0xbd873fae	-0.06603943
255	0xbc525915	-0.012838622

fc3.bias f4 [4]
0	0x3ddd3a3c	0.10802123
1	0xbcf0ff43	-0.029418593
2	0x3c005909	0.007833728
3	0xbd513c7c	-0.051083073

bn.weight f4 [33]
0	0x3f8d2796	1.1027706
1	0x3f982ac0	1.1888046
2	0x3fb2f74c	1.3981719
3	0xbc348253	-0.0110174
4	0xbadb0f66	-0.0016712963
5	0xbb64f97c	-0.0034938743
6	0xbb184a29	-0.0023237562
7	0x3ea0320f	0.31288192
8	0x3ec255f5	0.37956205
9	0x3f13127b	0.57450074
10	0x3f35dbd7	0.71038574
11	0x3f153456	0.58282983
12	0x3f1bee13	0.6091015
13	0x3faa800a	1.3320324
14	0x3f88fa3b	1.0701364
15	0x3fb960a6	1.448262
16	0x3c93af46	0.018027913
17	0xbaf2c841	-0.0018522815
18	0x3c05e504	0.008172277
19	0x3b9e85fa	0.0048377486
20	0x3f455f41	0.7709847
21	0x3ebc19eb	0.36738524
22	0x3ede489a	0.43414766
23	0x3f92b7b3	1.146231
24	0x3f0ec686	0.5577167
25	0x3f592cc0	0.8483391
26	0x3fed1ecc	1.8525023
27	0x3f1d93b7	0.6155352
28	0x3fe4bda4	1.7870374
29	0x3f3da7d4	0.7408421
30	0x3f169fef	0.5883779
31	0x3f60f45f	0.8787288
32	0x40024326	2.0353484

bn.bias f4 [33]
0	0xbd572f36	-0.05253526
1	0xbe07582d	-0.1321723
2	0x3d0512fa	0.0324888
3	0x3e0afafe	0.13572308
4	0xbe784c0f	-0.24247764
5	0x3e264cfd	0.16240306
6	0xbe80360e	-0.2504124
7	0x3d554f0c	0.052077338
8	0x3de41e84	0.11138633
9	0xbeb6cd6a	-0.35703593
10	0x3ea8491f	0.32868287
11	0xbe4778fa	-0.19479743
12	0xbd63fb93	-0.05565984
13	0xbd31d814	-0.04341896
14	0x3d3eb572	0.04655976
15	0x3d0a2344	0.03372504
16	0xbdca5661	-0.09879757
17	0xbd9d0e48	-0.076687396
18	0x3e162945	0.1466418
19	0xbe68bb97	-0.2272781
20	0x3ba6818c	0.005081361
21	0xbd633ad1	-0.055476014
22	0x3e938d4d	0.2881874
23	0xbe602f67	-0.21893083
24	0xbb2eb73b	-0.0026659507
25	0x3e5d0d55	0.21587117
26	0xbdb9a948	-0.09065491
27	0x3f001e73	0.5004646
28	0x3d64f32f	0.05589598
29	0xbe6ab8eb	-0.22922103
30	0xbec2c7f3	-0.38043174
31	0xbefb29fb	-0.49055466
32	0xbd08fcbe	-0.03344416

bn.running_mean f4 [33]
0	0x3f9df2e2	1.2339747
1	0xbff99498	-1.9498472
2	0xbf022055	-0.50830585
3	0x3e60e526	0.21962413
4	0x3cf81ed8	0.030288145
5	0x3cab7927	0.020931793
6	0xbd085366	-0.03328266
7	0x3e2f4d91	0.17119433
8	0xbbbc63c4	-0.0057491977
9	0x3b56d297	0.003277933
10	0x3cd4d50e	0.025980499
11	0x3bc03c9b	0.0058665997
12	0x3ad19fe9	0.0015993092
13	0x3f919bc7	1.1375664
14	0xc0297a7f	-2.6481016
15	0xbec67c6a	-0.38766795
16	0x3bc49905	0.0059996867
17	0x3bfce207	0.0077173742
18	0xbc49b0f6	-0.012310257
19	0xbcbd6793	-0.023120677
20	0x3eb57df7	0.35447666
21	0xbc56c06f	-0.013107403
22	0x3eabfb4c	0.33590162
23	0x3c63ae4e	0.013896538
24	0x3de46a40	0.11153078
25	0xbba1ce2c	-0.0049379077
26	0xbc8a1270	-0.016854495
27	0xbf7ffffc	-0.99999976
28	0x3d05ff93	0.032714438
29	0x00000000	0.0
30	0x3f7ffffc	0.99999976
31	0x00000000	0.0
32	0x3cbe102e	0.023201074

bn.running_var f4 [33]
0	0x4092bc8d	4.5855165
1	0x3ffad90f	1.9597491
2	0x407d6fe5	3.9599545
3	0x3efd0942	0.49421126
4	0x3ddb9a14	0.107227474
5	0x3e4f0c07	0.20219432
6	0x3e154b50	0.1457951
7	0x3fb113cd	1.3834168
8	0x3dc7002c	0.0971683
9	0x3e19c04a	0.15014759
10	0x401ffcfe	2.4998164
11	0x405558f5	3.3335545
12	0x4069c507	3.6526506
13	0x41b503be	22.626827
14	0x402ad511	2.6692545
15	0x41957146	18.68031
16	0x3e408e27	0.18804227
17	0x3e99370d	0.29924813
18	0x3e3b7410	0.18305993
19	0x3ea84d13	0.32871303
20	0x40660cc3	3.594529
21	0x3f93e909	1.1555492
22	0x3ff8d6e9	1.9440585
23	0x411b0def	9.690902
24	0x4087f9c3	4.2492385
25	0x41225b8d	10.147351
26	0x4200aaba	32.166725
27	0x00000004	6e-45
28	0x41febe79	31.843004
29	0x00000004	6e-45
30	0x00000004	6e-45
31	0x00000004	6e-45
32	0x3eb07016	0.34460515
