3 - Policy-based methods/Project 2 - Continuous Control/checkpoint_critic.pth (torch_old, 237546 bytes, 11 tensors)

bn.weight f4 [33]
000000 8c b7 2c 3f c6 68 0e 3f 64 b0 00 3f 7c 67 40 3c
       0.6746757 0.5562862 0.5026915 0.011743423
000010 12 86 4c 3c 38 13 d3 3b 64 92 19 3c 89 77 ac 3d
       0.012483137 0.0064415 0.009373281 0.08421237
000020 18 2d 27 3e 32 2d fb 3d 85 58 85 3e 95 c0 3b 3e
       0.16325796 0.1226448 0.26044098 0.18335183
000030 e3 30 6f 3e 5a 1f 67 3f cb ea 0d 3f 7e 72 3b 3f
       0.23358493 0.90282214 0.5543639 0.73221576
000040 68 f8 42 3c 3c 3e 63 3c 5b d9 68 3a 2f b5 06 3c
       0.011900045 0.013869818 0.0008882486 0.0082219085
000050 57 a9 f5 3d 9a 2e b0 3d 8f ee ac 3d ef 78 f4 3e
       0.1199519 0.086026385 0.08443939 0.47748515
000060 16 24 7f 3e 65 4e ce 3e 22 83 4b 3f 04 26 4c 3e
       0.2491611 0.40294185 0.7949697 0.19936377
000070 b3 a7 6a 3f 80 dd c9 3b 14 99 73 3f 00 25 9a 3d
       0.9166214 0.006160438 0.95155454 0.075265884
000080 cd 38 8b 3f
       1.0876709

bn.bias f4 [33]
000000 b3 92 a9 3d 68 eb 22 be d5 7f c4 bc 85 bf 10 3c
       0.08279934 -0.15910113 -0.023986736 0.008834724
000010 d9 26 27 3b be 41 0f be e7 32 39 3b aa b6 8f bd
       0.0025505333 -0.13989922 0.00282591 -0.07017262
000020 d8 d8 f7 bb ba fd 9c 3c f7 91 23 3e ae 9a 45 bd
       -0.0075636916 0.019163955 0.1597365 -0.048243217
000030 d6 8c 75 3c 72 f2 92 bc 9c 39 fb bc 56 a8 3e 3d
       0.014987191 -0.017937873 -0.030667119 0.046547256
000040 2d 27 8e 3c 86 a8 32 bc a9 81 a5 3d f5 9d ed bc
       0.017352665 -0.010904437 0.08081371 -0.029005984
000050 53 f0 0d be 90 7f ff 3c b1 66 2d bd be bc e5 3c
       -0.13861208 0.031188756 -0.042334262 0.0280441
000060 88 a5 8e bd 60 4b 1f bc 09 13 9d 3a ad e2 10 3e
       -0.06965166 -0.009722561 0.0011983822 0.1414897
000070 68 6e 81 3c c2 97 06 be 7d 32 9d 3d 10 e7 d4 bd
       0.015799716 -0.13143829 0.076756455 -0.10395634
000080 12 fb 74 3c
       0.014952438

bn.running_mean f4 [33]
000000 3b fa 9d 3f 6d fe f9 bf 78 d2 01 bf d4 70 61 3e
       1.2341989 -1.953077 -0.50711775 0.22015697
000010 f1 dc fc 3c e6 46 9b 3c 74 02 0e bd f8 f2 2e 3e
       0.030867072 0.018954705 -0.03467031 0.17084873
000020 70 63 dd bb f3 b5 b6 3b bb d4 16 3d 5f 7e 03 3c
       -0.0067562386 0.0055758893 0.03682397 0.008025735
000030 4f 13 00 ba 0b 9a 93 3f 34 6f 29 c0 7d 49 bd be
       -0.00048856897 1.1531385 -2.6474123 -0.3697013
000040 e2 86 8c 3b cb 1d 12 3c 2b cb 78 bc 39 d1 d2 bc
       0.00428854 0.008918236 -0.015185158 -0.02573453
000050 d4 41 ae 3e 9d ea 47 bc a6 52 a6 3e db 39 9d 3c
       0.34034598 -0.012201932 0.3248493 0.019192627
000060 e9 93 ea 3d 71 15 88 bb fc 23 0e bc fc ff 7f bf
       0.11453993 -0.0041529466 -0.0086755715 -0.99999976
000070 01 2f 7f 3d 00 00 00 00 fc ff 7f 3f 00 00 00 00
       0.062300686 0.0 0.99999976 0.0
000080 34 3f a6 3c
       0.02029381

bn.running_var f4 [33]
000000 00 be 92 40 f8 0a fc 3f 02 25 7c 40 b4 e0 fe 3e
       4.5856934 1.9690847 3.9397588 0.4978081
000010 f9 6e db 3d c4 a2 4b 3e ae d8 14 3e 97 14 b0 3f
       0.10714526 0.19886309 0.14535782 1.3756284
000020 b4 a7 c3 3d 5c 55 19 3e 54 8c 1f 40 01 6d 51 40
       0.09553471 0.14973968 2.49294 3.272278
000030 9f 2e 69 40 a7 9e b5 41 7f 73 29 40 ba e0 94 41
       3.6434705 22.702467 2.6476743 18.60973
000040 ac bd 3f 3e ed 6c 99 3e 2d 27 3b 3e 33 8e a8 3e
       0.18724698 0.29965916 0.18276663 0.3292099
000050 dc 1c 64 40 52 3e 94 3f 3e f0 f2 3f 88 7b 18 41
       3.5642614 1.1581519 1.8979566 9.530159
000060 33 73 85 40 7f 78 23 41 6a 20 01 42 04 00 00 00
       4.1703124 10.216918 32.281654 6e-45
000070 f7 de fd 41 04 00 00 00 04 00 00 00 04 00 00 00
       31.73387 6e-45 6e-45 6e-45
000080 6c ea b0 3e
       0.3455385

fcs1.weight f4 [256, 33]
000000 05 7d 43 bd 2e ac b1 3d 35 fa 75 3e 5f b6 b5 be
       -0.04772665 0.08675419 0.24021228 -0.354907
000010 06 c7 89 be 99 10 3f be e2 f0 dd be b7 d6 86 3d
       -0.26909655 -0.18658675 -0.43347842 0.06583922
000020 a2 a8 9c be 38 30 21 3e 79 d2 a0 be 46 80 b5 bd
       -0.30597407 0.1574105 -0.31410578 -0.08862357
000030 2e 7b 0f 3e 94 20 10 be 80 36 10 be 65 01 25 be
       0.14011833 -0.14074928 -0.1408329 -0.16113813
000040 59 ab 9e 3a 09 8b 80 bc 17 f2 d6 3d b6 5b 9f 3e
       0.0012105509 -0.015691297 0.10495394 0.31124657
000050 9a c4 df bd 3e a8 08 be fe 6b 97 3e 0e 4c 9a 39
       -0.10926171 -0.1334543 0.2957458 0.00029429834
000060 d6 93 d7 3c a0 43 b5 3d f9 03 ae 3e cd 9a 2f 3d
       0.02631561 0.08850789 0.33987406 0.04287224
000070 44 96 e9 3e 9f ac ac be 67 1a 15 3e 99 de ea 3e
       0.45622456 -0.3372545 0.14560853 0.45872954
000080 3d 2e c8 be 26 8e 58 3e 9b 49 c1 3c 0c 02 17 3d
       -0.39097777 0.21147975 0.023594668 0.036867186
000090 e9 1f 8b be 06 4f 67 3e d0 c1 cb 3d 55 fc 38 bd
       -0.27172783 0.22588739 0.09949076 -0.045162518
0000a0 42 4f 31 3e 52 50 e1 3d a2 97 0a 3d c0 54 96 3e
       0.1731539 0.11001648 0.033836015 0.29361534
0000b0 68 8e f8 be 02 fe 4d 3e b1 0a cf 3d d6 8b 41 be
       -0.48546147 0.20116428 0.10109461 -0.18901
0000c0 fc e9 99 be 98 40 39 bd ae 87 a5 3e 56 f5 bb 3d
       -0.30061328 -0.045227617 0.32330078 0.091776535
0000d0 95 41 d9 bc 3a d9 7c 3e dd 2f 1b 3e 92 e9 08 be
       -0.02652053 0.2469224 0.15154977 -0.1337035
0000e0 bb 9c 9c 3e 13 a9 28 bf cc ff 3e be b6 c8 74 be
       0.30588326 -0.65882987 -0.18652266 -0.2390469
0000f0 8b 6a 4c be 8e 32 9a 3e be 25 8d be 1b b8 e8 be
       -0.19962518 0.30116695 -0.27567858 -0.4545296
000100 82 b7 7a be 3e 2f ad be 5b e3 00 3e 90 07 cd be
       -0.24484065 -0.33825105 0.12586729 -0.40044832
000110 bf e2 aa 3d a2 85 f8 3e 9a c6 46 3f 73 39 34 3e
       0.0834403 0.48539454 0.7764679 0.1760004
000120 18 a5 3f 3e 49 33 93 be fe 67 c1 be cc 9a 41 be
       0.18715322 -0.28750065 -0.37774652 -0.18906707
000130 17 28 c7 be 8d 0f 3d be 3f 94 2d 3e ff d9 86 be
       -0.38897774 -0.18462963 0.16951083 -0.26338193
000140 ea 52 e3 3d b9 12 73 be 82 18 a2 3e f8 c4 9c be
       0.11099799 -0.23737611 0.31659323 -0.30619025
000150 b1 87 ab 3d eb c2 8b be 3e 0a ab 3d 2d fa 6c bc
       0.083754905 -0.27297148 0.08351563 -0.014463943
000160 63 b4 4a be a2 aa f3 be d0 77 86 3e 17 ef 1a be
       -0.19795375 -0.4759112 0.26263285 -0.15130268
000170 21 ce 74 3e f0 fe d1 3d 0e be ac 3d 9f d4 bc 3e
       0.23906757 0.102537036 0.084346876 0.36880967
000180 b1 57 4a bd d5 a2 72 be 27 9d 86 bd 50 87 82 3e
       -0.049400035 -0.23694928 -0.06572943 0.2549386
000190 83 76 1b bd d1 91 bc 3e 23 27 ab 3d c0 bd b1 3d
       -0.03795482 0.3683 0.08357074 0.0867877
0001a0 0e 2c b4 3e 07 e4 95 be b9 f2 8d bd 4a 4c ab 3e
       0.3518986 -0.29275534 -0.06931061 0.3345664
0001b0 a3 08 b7 3d f9 43 28 3e 07 a4 89 be 04 cd b9 3e
       0.08937194 0.1643218 -0.26882955 0.36289227
0001c0 62 5b 55 3d 38 e0 09 be 98 db 97 bc e7 ee 73 3e
       0.052089103 -0.13464439 -0.018537328 0.23821603
0001d0 2e b5 35 be 80 60 1b 3d 5a 15 85 bd e1 84 38 3e
       -0.17744896 0.037933826 -0.06498213 0.1801944
0001e0 ed 3d 11 3f 49 5a 0f 3f ee 54 1f bf 5d cb 0c ba
       0.56735116 0.5599714 -0.6223897 -0.00053708797
0001f0 91 35 09 bd 93 8e 7e be 6a 07 88 be b2 26 5f be
       -0.03349835 -0.24859075 -0.26568156 -0.21792105
000200 9c 8f 8b 3e 2f b2 09 be 6e 80 45 3e c9 25 2e be
       0.27258003 -0.13446878 0.19287273 -0.17006601
000210 3c fb 8f 3e 47 13 26 be 47 26 cb bd 03 66 0d be
       0.28121364 -0.16218291 -0.0991941 -0.13808446
000220 21 75 51 be cd 08 ba 3d f4 42 38 3d 5d cc cc 3d
       -0.20454837 0.0908371 0.044985726 0.09999917
000230 a1 ba af 3e 98 0c 0e bf c1 79 43 3e 88 41 6d 3e
       0.34322074 -0.55487967 0.19089414 0.2316953
000240 26 45 f4 be ed 1b 93 bd 98 5c a6 3e 41 09 28 be
       -0.47709006 -0.07183061 0.32492518 -0.1640978
000250 40 5c 94 3e 4f 6a 74 be c4 bf e7 be 24 99 6d 3e
       0.2897663 -0.23868679 -0.45263493 0.2320295
000260 ba 21 8d 3e 32 ae 15 3f 4e 96 e2 bd 49 62 b1 3d
       0.27564794 0.58468926 -0.110638246 0.086613245
000270 e4 b9 6e 3e 68 35 bd 3e 5c 49 d8 bd 31 68 f4 3d
       0.23313099 0.36954808 -0.10560867 0.119339354
000280 62 87 6e 3d 55 82 b3 3e 65 e3 24 bd 3b f1 e7 bc
       0.05823458 0.35060373 -0.040255923 -0.02831327
000290 53 3c b8 bc 59 c0 86 bc ed 0e 81 bd f2 3d 16 bf
       -0.022489702 -0.01644914 -0.06301675 -0.5868827
0002a0 f4 2f 90 3c a1 5f 9e 3e 69 e5 85 3c ff bf a1 3b
       0.01760099 0.30932334 0.016344743 0.004936218
0002b0 1c 95 70 3e 0c 43 98 bd 24 f3 8f bd 43 1b 54 bd
       0.2349438 -0.07434663 -0.07028797 -0.05178381
0002c0 52 01 41 bd 50 bc 30 bd 7e 2c 0b be fa 2d a2 3c
       -0.0471204 -0.04314834 -0.13591191 0.019797314
0002d0 3b 61 83 3f 23 79 97 3c aa 80 eb bd 3e b3 00 be
       1.0264047 0.01849038 -0.1149915 -0.12568375
0002e0 95 c4 17 3e d3 93 6f bc ce bd c3 3d 78 4a c9 3c
       0.14821084 -0.014622646 0.09557687 0.024571642
0002f0 29 97 b2 3a 38 66 f9 3c 11 6b 03 3e 36 91 0b 3e
       0.0013625372 0.03044425 0.12833811 0.13629612
000300 f3 95 bc 3e 24 a7 2b bf 6a 9b 3a be 02 da 4e 3d
       0.36833152 -0.6705191 -0.18223348 0.050500877
000310 f3 0c 62 3d 99 3b 12 3d a9 4b 67 be 25 eb d2 3e
       0.05518813 0.035701368 -0.22587456 0.41195026
000320 c8 e1 74 be b4 b8 05 bd a8 1d 1b bd 0f db e7 3d
       -0.23914254 -0.03264685 -0.03787008 0.11321079
000330 41 88 18 3f 54 df 12 3e 0f 7d 10 3e fc e4 af 3e
       0.59582907 0.14343005 0.14110206 0.3435439
000340 ef 59 42 be 8d 61 eb 3e c4 f1 84 be 92 00 b3 3d
       -0.1897962 0.45972863 -0.25965703 0.08740343
000350 19 ea 98 be 8f c1 c2 3c f3 c9 c8 bc e9 1b 02 be
       -0.29866102 0.023773937 -0.02451036 -0.1270596
000360 d5 c9 00 3f aa 26 56 3e fa 90 a1 3c 7c 07 be 3e
       0.5030797 0.20913187 0.01972245 0.37115085
000370 7b f6 dc be 3f f1 20 be c1 77 94 3d ee 71 28 be
       -0.431568 -0.15717028 0.07249404 -0.1644971
000380 bb cc df be bf 72 37 be c3 b3 b7 3d b8 d9 3a 3e
       -0.43710884 -0.17914866 0.08969834 0.18247116
000390 7b 58 58 3c ed 63 36 bd ec 4b b2 bd cf 99 14 be
       0.013204689 -0.04452889 -0.08705887 -0.14511798
0003a0 f3 6b 3c 3d 02 6e ce be ec 39 6e be a0 4c 4d bd
       0.046001386 -0.40318304 -0.23264283 -0.050121903
0003b0 2c e8 52 3e 7a b8 d1 be 6c f3 38 3e 77 71 1c 3f
       0.20596379 -0.40961057 0.18061608 0.61110634
0003c0 78 b5 ad 3c d6 6b c9 be 49 1e 37 3e 1b 2e cf be
       0.021204695 -0.39340085 0.17882647 -0.40464863
0003d0 4a 0b 67 be 1f ca a2 3e 33 09 88 3e c7 72 d6 3d
       -0.225629 0.3179483 0.26569518 0.10471111
0003e0 d8 fb 28 be f6 ff ed bc 8a de 5f 3e 30 ff 54 be
       -0.16502321 -0.029052716 0.21862236 -0.20800471
0003f0 6f 16 22 bf 9c 73 9e 3c 4f 71 cb bd d5 6a 50 bf
       -0.6331548 0.019342236 -0.09933721 -0.8141301

fcs1.bias f4 [256]
000000 5d 28 1a 3e d7 c8 76 be da 9e c2 bd b3 70 ab bd
       0.1505446 -0.24100052 -0.09502955 -0.08371105
000010 9d 64 1a be 9c 0e 6b bc cb 83 c7 3c 5c 1d 93 be
       -0.15077443 -0.014346745 0.024354836 -0.28733337
000020 69 ef 5d be a8 bd fe bd d8 36 e3 3d fe e2 3a be
       -0.21673359 -0.12438518 0.11094445 -0.18250653
000030 59 23 0a bc 98 d7 08 3d 8b fc 4e bd af c8 a8 bc
       -0.008431279 0.03340873 -0.050533812 -0.020603506
000040 13 8d 03 bd 76 67 14 bd 5d 23 91 bb 55 1d f3 bc
       -0.03211696 -0.03623148 -0.0044292645 -0.029677073
000050 41 2c 4c 3e db f6 9d 3d 7b 33 2b be bb b8 f5 3b
       0.19938757 0.077130996 -0.16718857 0.007498828
000060 a9 56 9f 3c ed 95 06 bd 96 28 6c be 42 c8 8d bd
       0.019450502 -0.032857824 -0.23062357 -0.06922962
000070 13 f9 85 3e fd 0b ec 3c 61 a9 43 3e b2 89 92 ba
       0.2616659 0.02881431 0.19107582 -0.0011179952
000080 af 53 96 bd db bb 84 3b 6b 00 24 be 85 4f 62 bd
       -0.0734018 0.0040507144 -0.16015784 -0.055251617
000090 b8 b2 3f 3e ef 27 9a bd 3f d4 36 3c 24 2f d4 3d
       0.1872052 -0.07527148 0.011159002 0.10360554
0000a0 dc 7b 81 bc 4c 38 98 bc 6a e8 f2 bd bb 1e 2c be
       -0.015806131 -0.018581532 -0.11860736 -0.16808598
0000b0 0a 7b 59 be 72 94 48 be 2c 0f 12 be aa cd b4 3d
       -0.21238342 -0.19587877 -0.142636 0.0882829
0000c0 86 47 5e 3e 1b ba 55 be 62 75 2f be 59 89 63 3e
       0.21706972 -0.20871775 -0.17134622 0.22220363
0000d0 af b2 ea 3c 2e 60 94 3d 48 ba 8e bd 24 29 9a bc
       0.028649656 0.07244907 -0.06969124 -0.018818446
0000e0 c3 a2 d6 bd be 3a 03 3d 25 9c 5a be af d5 b5 bd
       -0.10480263 0.032038443 -0.21348627 -0.088786475
0000f0 9b 5b 10 be 52 0b 4b 3d fa d4 a8 3d 75 1c 21 bc
       -0.14097445 0.049571343 0.08243747 -0.009833445
000100 82 78 d8 bd bb af 18 be 94 76 58 be 98 fb 7c be
       -0.1056986 -0.14910786 -0.21138984 -0.2470535
000110 2c d4 00 be a4 a4 13 3d ee ad 31 bd c2 6f 30 3e
       -0.12580937 0.036045685 -0.043378763 0.17230132
000120 32 82 29 be 5b 8b 46 be 73 bf 25 bc fe a0 48 be
       -0.16553572 -0.19389097 -0.010116446 -0.19592664
000130 87 93 76 3c 71 93 69 be 74 11 35 3d a3 e2 42 bd
       0.015049822 -0.2281015 0.044206098 -0.04757942
000140 0a da c7 3d 03 df 0c 3e c4 0f 02 3e 20 72 8c bd
       0.097583845 0.13756947 0.12701327 -0.06857705
000150 34 27 23 bd 24 03 29 3e 7b af f8 bd 9c 3f 03 be
       -0.03983231 0.16505104 -0.12142845 -0.12817234
000160 8c 6e c9 bd 78 bb b3 bd a5 8b a9 3c b5 8c c9 bd
       -0.09835538 -0.08775991 0.02069647 -0.09841291
000170 ff c9 94 be 34 9f aa 3d ab b3 d5 3d 1d a4 18 be
       -0.2906036 0.08331147 0.104346596 -0.14906354
000180 0c 17 53 be f0 3e f1 3d 17 74 5e bd 02 dd dd 3c
       -0.2061426 0.117795825 -0.05430993 0.027082924
000190 10 9b ba bc ad bf 7f bd 52 b4 8d ba 53 7b d8 3d
       -0.022779018 -0.062438656 -0.0010811186 0.10570397
0001a0 10 14 52 be 10 72 29 bc 68 92 a2 3d d8 9b f5 bd
       -0.20515466 -0.010342136 0.07938081 -0.119926155
0001b0 0d 84 62 be c0 ff bd 3d 03 1b 6f 3e 17 90 60 bb
       -0.22120686 0.09277296 0.23350148 -0.0034265572
0001c0 95 dd a8 3d e6 ba e7 bc 35 95 b2 3d 29 7c 92 3d
       0.082453884 -0.028287362 0.08719865 0.07152588
0001d0 2d c2 01 bc 65 08 25 3d 18 a3 2e be 75 7d a1 3e
       -0.00791983 0.04029121 -0.17054403 0.3154103
0001e0 a1 f3 82 be a4 e2 1b be e4 be a8 bd 19 a8 2d bd
       -0.255765 -0.15223175 -0.082395345 -0.04239664
0001f0 1f ca 43 be d2 ff 6d be fe 11 98 bd 8b a1 40 be
       -0.19120072 -0.23242119 -0.07425307 -0.18811624
000200 21 c5 69 be b1 9d 25 be 02 0d 74 bc 9a cc ef bd
       -0.22829105 -0.16173436 -0.014895679 -0.117089465
000210 26 c5 b6 bd fc 62 97 bd 0b d4 a3 bb f1 a5 80 bd
       -0.08924322 -0.07391927 -0.0049996427 -0.06281651
000220 59 0e d9 bc 02 82 d3 3d 69 39 a5 bc 56 d8 1b be
       -0.0264961 0.103275314 -0.020168977 -0.15219244
000230 45 b3 0c 3d 7a 59 f6 bd fe a6 c3 3d d3 c9 b4 bd
       0.034350652 -0.12028785 0.095533356 -0.088275574
000240 21 b6 b6 bd ef c8 d7 be a5 3b 97 3d 5f 90 83 bd
       -0.08921457 -0.42145488 0.07384423 -0.06424021
000250 76 8c 09 be 5d 05 9f bd 26 b6 1a 3d 63 57 8f 3d
       -0.13432488 -0.07764695 0.037771367 0.069990896
000260 27 1b c1 bc 67 07 21 bc fb 57 2b be f8 e0 0f 3e
       -0.023572518 -0.009828425 -0.1673278 0.14050663
000270 bb f4 24 be 08 95 96 be 2c 0e 56 be e3 2e 3d bd
       -0.16108982 -0.29410577 -0.20903844 -0.046187293
000280 47 eb 99 bc 47 40 46 3d 79 8f f8 bb a6 5b ba bd
       -0.018788947 0.048401143 -0.0075854626 -0.09099512
000290 af e5 ce be 85 ce 8c bd cb ad 95 be ba 44 05 bd
       -0.4040961 -0.06875328 -0.29234156 -0.032536246
0002a0 32 74 19 be 11 b1 c8 be a5 b3 25 be 23 ff f5 3d
       -0.14985731 -0.3919759 -0.1618181 0.12011554
0002b0 9c 08 01 be 7b 4c eb bc 48 e1 0a bc b6 61 9c be
       -0.1260094 -0.028722992 -0.008476563 -0.30543298
0002c0 1d ef a8 bd 8e 22 80 bd 06 46 3d be 93 96 b8 3d
       -0.08248732 -0.06256591 -0.18483743 0.09013095
0002d0 0e 95 af be 8f f7 f6 bb 58 97 1c 3e 3e 9a 30 be
       -0.34293407 -0.0075368355 0.15292108 -0.17246339
0002e0 ff 10 24 be 9d f5 c4 3d 82 a2 5f be 98 f8 d8 bc
       -0.16022108 0.096171595 -0.21839336 -0.026485726
0002f0 c2 03 27 3e e0 0d 06 3e a6 9f 7e bd 26 f2 01 bd
       0.16310027 0.1309123 -0.06216397 -0.03172507
000300 ef 9b 81 3d 13 01 05 be dc 1e 2c 3d fb 47 84 be
       0.0632857 -0.12988691 0.042021617 -0.25836167
000310 16 3f 66 bd f4 8f b8 bd 2c 97 93 39 87 e2 8e be
       -0.056212507 -0.09011832 0.00028150657 -0.27907202
000320 77 54 cf 3d 24 26 38 be 7b 51 dd bd 4f e8 0f be
       0.10123532 -0.179833 -0.10806557 -0.14053462
000330 86 6a af 3d 55 94 68 3d 7c 94 13 bf 72 24 84 be
       0.085652396 0.056782085 -0.57648444 -0.25809056
000340 af 01 9a bd 31 0c 02 be 17 fb 0d bc 0d 36 ed 3d
       -0.07519852 -0.12699963 -0.0086658215 0.11582575
000350 bd 6f 63 3e 61 ed 68 3e fc 7a 9f 3d 93 8b 33 bd
       0.22210594 0.22746803 0.07787129 -0.04383428
000360 ed 80 f0 3d 0e a8 dc 3d 21 f2 f6 bd 3f 11 72 3d
       0.11743341 0.107742414 -0.12057901 0.05909848
000370 10 4a 2c be f4 3c a9 bd ea 37 ee 3c dd 8b 91 bd
       -0.16825128 -0.08263579 0.029079396 -0.07106755
000380 d9 44 6e be c4 50 d9 bd 52 ea 90 bd 74 f4 99 bd
       -0.23268451 -0.10611108 -0.07075943 -0.07517329
000390 86 c3 ae be 49 6d d8 3d 8b 62 1f be 3c ef 98 bb
       -0.34133548 0.105677195 -0.15564935 -0.004667191
0003a0 b3 de e8 bd 49 1f 16 be 8a 93 bb bd ed 73 89 bd
       -0.113706015 -0.14660372 -0.09159 -0.06711564
0003b0 c5 97 8b bd af 83 2b be b1 c7 8c 3e ff 98 b4 bd
       -0.06816057 -0.16749452 0.27496102 -0.08818244
0003c0 5a 2a 8e be 90 5f 9d bd 87 ec d1 3d 69 24 ab bc
       -0.27766687 -0.07684243 0.10250192 -0.020891385
0003d0 11 8d 97 bd aa 66 9c 3c b3 6f 15 be ed 32 36 be
       -0.07399953 0.019091923 -0.14593391 -0.17792864
0003e0 00 39 6b be 79 b3 0c bc e1 fa 49 be 1b 66 52 3e
       -0.22970963 -0.0085877115 -0.19724609 0.20546763
0003f0 ae 01 60 be 47 42 41 be 23 55 25 be 9f af 0e be
       -0.21875641 -0.18872939 -0.16145758 -0.13934182

fc2.weight f4 [128, 260]
000000 a2 5f 4a be fd 54 98 3d 15 eb 01 3e 0e fc e2 bd
       -0.19763044 0.07438085 0.12687333 -0.11083232
000010 c2 75 7e 3d 96 11 23 3e 91 13 be 3d 3d 3a e6 bc
       0.06212402 0.15924677 0.09281076 -0.028103942
000020 f5 20 b9 bd 74 88 32 bd 15 b8 8a be 84 73 d5 bd
       -0.09039489 -0.043587163 -0.27093568 -0.104224235
000030 04 ac e9 bd 91 49 8c be 01 4c 3c 3e 13 e1 87 bd
       -0.114097625 -0.27399877 0.18388368 -0.066347264
000040 ba cf 00 bd 6d 69 04 3e f8 23 33 bd 4d 4e 35 be
       -0.031448103 0.12930842 -0.043735474 -0.1770565
000050 d2 e7 0d bd 98 e2 06 be 46 c9 f8 3c 24 ea c1 bd
       -0.03464491 -0.13172376 0.030369412 -0.09468487
000060 e0 e1 e1 bd 4b 2d 05 be 65 41 b9 bc de 7f 8f 3d
       -0.1102941 -0.13005559 -0.02261419 0.070068106
000070 ac 42 9c 3d d1 5b db bd 11 02 00 bc 7e aa 1e 3d
       0.07629904 -0.10710872 -0.007812993 0.038736813
000080 ad 04 6a 3d fc bb 00 be 05 66 7e bd 02 cd 00 bd
       0.057133365 -0.1257171 -0.062109012 -0.03144551
000090 bf 0f ca ba 4a fb 6c 3d 82 bc 30 be a3 2e f5 3c
       -0.001541607 0.057856835 -0.1725941 0.029929465
0000a0 e0 52 f8 bc 7c c6 f3 bc 48 0b 02 3c 6e 5e 7e 3e
       -0.030312955 -0.02975773 0.00793726 0.2484071
0000b0 39 9c b4 3d 0e fd 31 be ef 25 3c bd ea 98 80 3e
       0.088188596 -0.17381689 -0.045934614 0.25116664
0000c0 9c 30 28 3d 50 be 87 3e ee f6 11 bd 63 6d 04 3e
       0.041061983 0.26512384 -0.03563588 0.12932353
0000d0 7f 78 8c 3d 8a 23 1b 3e 5c 2c 77 3d 97 ba ed 3d
       0.0685892 0.15150276 0.06034504 0.11607855
0000e0 f4 0d 33 3e 8e 54 25 3e 59 47 4f be d4 c7 b6 3d
       0.17485791 0.16145536 -0.2024206 0.08924833
0000f0 ee 25 3b bd 27 8b 36 3e 4f 35 e3 bb 4a c4 54 bd
       -0.04569047 0.1782652 -0.006933845 -0.05194501
000100 a6 8d 2a bd 6b 5a b6 be 78 50 bf 3d 5b 3b fe 3d
       -0.041638993 -0.35615858 0.0934152 0.12413665
000110 40 05 88 bd 1c ad ae 3d c3 ad 66 3e d6 b9 22 3b
       -0.06641626 0.08529112 0.22527222 0.0024830005
000120 8e 80 7a bd 1e bd 90 3d bf 83 31 bd 3a 53 72 be
       -0.061157756 0.07067321 -0.043338533 -0.23664561
000130 73 80 59 bd 39 bc 37 bc 97 6e 7a 3d 6a e6 25 3c
       -0.053101014 -0.011214309 0.061140623 0.010125736
000140 b6 9f 15 3e da e5 71 3d 51 f3 cf 3c 5d 18 aa 3d
       0.14611706 0.059057094 0.025384577 0.08305428
000150 de 9d ff 3d de 4e 18 3e ed 88 f6 bd 2f 5c 80 3e
       0.12481283 0.14873835 -0.12037835 0.2507033
000160 1d c0 81 be 5f f2 9b bd 35 cf e9 bd 2a b4 16 3d
       -0.25341883 -0.07614588 -0.11416475 0.03679291
000170 b6 22 0f 3e 6a a6 b2 3e 30 db b2 bc 5f 7e c2 bd
       0.13978085 0.3489259 -0.021833032 -0.094967596
000180 e5 6f cd bc 41 b9 ca 3d d7 21 8a 3d a2 e5 0b 3e
       -0.02507777 0.09898616 0.06744736 0.13661817
000190 de 06 01 3d 4a 75 fe 3d ca 26 0a 3e f9 34 86 3e
       0.03150069 0.12424715 0.1349136 0.2621229
0001a0 d5 e1 a7 ba bc c7 95 be d6 45 9e 3d b3 d6 d2 bd
       -0.0012808392 -0.29253948 0.07728164 -0.10294857
0001b0 16 5a ae 3d a1 c6 99 3e 0c 12 4e 3b 2f 30 a3 3c
       0.08513276 0.30034354 0.0031443862 0.019920437
0001c0 f9 3c 85 3c 53 df b7 bd 61 a7 95 bd 55 92 f9 3d
       0.016264426 -0.089781426 -0.073073156 0.12186114
0001d0 b3 33 a1 3d 12 b6 16 3e 55 7b 98 bc e7 f6 1b bc
       0.07871189 0.14717892 -0.018613497 -0.009519315
0001e0 83 e3 ae be 32 fa 34 3d af c0 65 3d 51 c9 05 3d
       -0.34157953 0.044183917 0.05609196 0.032662693
0001f0 87 c6 dc bd ec 81 7d bc 31 bd 5c bd 0c b1 1c 3c
       -0.107800536 -0.01547287 -0.053891364 0.009563696
000200 60 b7 b0 3c f8 b4 1a bb 18 fb b2 bd aa 3c b0 bc
       0.021571815 -0.00236064 -0.087392986 -0.021513302
000210 03 f9 35 3e 27 6b 9e 3d 19 64 09 3d d4 35 8e bd
       0.17770772 0.077352814 0.033542726 -0.06943861
000220 bc d9 14 bd bc eb 08 be fd 48 67 3c 4c 80 40 3d
       -0.03634046 -0.13371176 0.014116523 0.046997353
000230 0e 9c 30 be db 31 81 3e 34 29 85 3d 30 69 92 be
       -0.1724703 0.2523335 0.065019995 -0.28595877
000240 a1 70 85 3d d0 69 80 3e f6 b7 97 3d 01 cb cc bd
       0.06515623 0.2508073 0.07408135 -0.099996574
000250 10 d2 0d 3d d6 45 9a 3e 74 c6 56 be 53 b3 8a 3e
       0.03462416 0.30131406 -0.20974141 0.2708994
000260 59 88 78 3e cd 72 9d 3b ac 31 40 be 6b be 7a be
       0.24270763 0.004804945 -0.18768948 -0.24486701
000270 1b 4b 20 be a2 55 bb 3e ac c6 03 be f3 87 80 be
       -0.1565365 0.3658877 -0.12868756 -0.2510372
000280 fc fc 00 3c 27 75 3c bd de 9e 10 3d bb 6f 12 be
       0.007872816 -0.046010163 0.035307758 -0.14300434
000290 e3 67 92 be df e0 ee bc ef 0d d4 bc 82 ee c3 bd
       -0.28594884 -0.029159961 -0.02588555 -0.09566976
0002a0 d5 1b 80 3e cb a7 32 3d e5 25 74 3d 8a 3c 23 be
       0.25021234 0.04361705 0.05960645 -0.15941063
0002b0 fb e7 4e be 9e be 47 3c 92 4f 38 3e a2 f8 ee 3d
       -0.20205681 0.012191443 0.17999104 0.11668517
0002c0 6d 81 f1 3d 76 5f e5 bc ac e5 b8 3d 4f 21 a6 bd
       0.11792264 -0.02799962 0.090281814 -0.08111822
0002d0 db e7 a3 bd 86 9e a9 bd 7e 80 b7 bb 76 16 c9 bd
       -0.08003207 -0.08282189 -0.0056000343 -0.09818737
0002e0 79 d2 6d 3d 8e 2a ec bd ed 1e 0c bf ed 96 8f be
       0.05806205 -0.11531554 -0.5473469 -0.28044835
0002f0 d7 83 d4 3c 8f ac 8e 3d 78 1f 1b 3e 78 4c de bd
       0.025941772 0.06966507 0.15148723 -0.10854429
000300 90 46 18 3d d0 76 1b be d0 fc aa be 74 6a 60 3d
       0.03717667 -0.15182042 -0.33396006 0.05478902
000310 e2 f8 34 39 e5 58 6d 3d 18 b2 1a bd df 41 b6 3d
       0.00017258854 0.057946105 -0.0377675 0.08899283
000320 a6 8f c1 3c 21 cc 0e bc 68 84 2c be e6 8a 0b 3e
       0.023628067 -0.00871566 -0.16847384 0.13627204
000330 5f 20 23 bd 2c fe 59 3c 99 fb 9e 3e 86 1b 35 3e
       -0.039825793 0.013305228 0.3105133 0.1768628
000340 7e 2a 24 3d e4 96 ab 3d af 9f ee bc a7 ec 8e 3d
       0.040079586 0.083783895 -0.029128877 0.069787316
000350 1b 2e ea bd a9 13 15 bd b3 ba d8 bc a9 c6 9d 3e
       -0.11434575 -0.036395703 -0.026456213 0.30815628
000360 c9 ba b2 bc 56 0c 72 3c a3 92 ee bd ca be 20 3e
       -0.021817582 0.014773449 -0.116490625 0.1569778
000370 7d 72 96 3e 00 64 49 bc 60 a3 ba 3c 08 ad 99 3d
       0.29384223 -0.012291908 0.022782981 0.07503706
000380 ae 8a f2 bd 60 a8 73 bc 2f c6 89 bd 0f 8b 22 bd
       -0.11842857 -0.014871687 -0.06727254 -0.039683398
000390 57 64 a4 be ac d2 36 3e 1b 82 57 be ae 1d 89 be
       -0.32107803 0.17853802 -0.21045725 -0.26780456
0003a0 06 49 a7 3c d4 12 1f 3d 37 0b c6 3c 9d 92 8c 3e
       0.020420562 0.038836315 0.02417527 0.27455607
0003b0 a6 18 48 3d 1e a6 24 be 1f ea 1d be 8e c0 97 bd
       0.04885163 -0.16078994 -0.15421341 -0.07409774
0003c0 31 c1 89 3e 90 7e bf bc 29 83 dd 3d a9 af b0 bd
       0.26905206 -0.02337578 0.108160324 -0.086272545
0003d0 66 8c 23 bc 13 81 44 be 29 5d 1d be c8 3a b2 bd
       -0.009982204 -0.19189863 -0.15367569 -0.08702618
0003e0 82 c4 13 3e db e3 b5 bd 39 25 14 bd 02 12 7a 3c
       0.1443043 -0.088813506 -0.03616831 0.015263082
0003f0 86 7e c1 bd 0c 25 86 3e 36 65 31 be 44 69 14 bc
       -0.094479606 0.2620014 -0.17323765 -0.0090583

fc2.bias f4 [128]
000000 bc 9f d0 bc 53 6e 5b bd 04 dc 9d 3d ab 4f 4b bd
       -0.025466792 -0.05357201 0.0770798 -0.049636524
000010 c8 8d a4 bd 15 24 17 be 36 39 a4 3d 69 f9 ae bd
       -0.08034855 -0.14759858 0.080187246 -0.08543665
000020 e1 d9 06 3e e8 fc d2 bd 34 7c d4 bd 43 38 fd bd
       0.13169052 -0.10302144 -0.10375252 -0.12364247
000030 b6 e2 eb 3d a3 5b 27 3e 8e 60 27 be dc e1 35 bd
       0.11517851 0.1634355 -0.16345426 -0.04440485
000040 31 1a 7d bd 65 5f 28 be 85 1d be 3d c1 f8 10 3e
       -0.061792556 -0.1644264 0.09282974 0.14157392
000050 fa f5 88 bc bc 66 25 3e 7b 1d 52 3d 44 f8 d1 bd
       -0.016718853 0.16152471 0.051297646 -0.10252431
000060 c5 44 54 be 43 5c 4d 3d 0b 5a 3e be 0a ae f9 b9
       -0.20729358 0.050136816 -0.18589036 -0.0004762265
000070 ae 7d d1 bd 88 97 26 3e fc 59 41 3e d0 38 6e 3b
       -0.102290496 0.16268742 0.18881983 0.003634978
000080 1f c0 34 3e 21 3c 26 3d 4f 1e 77 3d 7e 78 ae bd
       0.17651413 0.040584687 0.06033164 -0.08519076
000090 29 cc 0a 3e 91 48 70 bd ac dc 06 be 34 44 23 be
       0.13554443 -0.058662955 -0.13170117 -0.15943986
0000a0 47 cc f9 bd a4 49 03 3e 4f b3 31 3e bd 97 65 3d
       -0.12197166 0.1282106 0.17353557 0.056052912
0000b0 7f e7 29 be 8e 79 0e 3d ca b4 da 3d 5f f3 7e bd
       -0.16592215 0.034783892 0.10679014 -0.062243816
0000c0 02 dc 69 3d c9 ea a0 3d 92 6a 09 3d ce c0 1c be
       0.05709458 0.07857282 0.0335489 -0.15307924
0000d0 5c 21 ca 3d f5 8b 53 3d 38 f4 0e 3e 4d 84 cd 3d
       0.09869644 0.051647145 0.1396035 0.10035
0000e0 f4 36 2e 3d e8 64 00 be bb 61 cc bd 5b b0 0f 3e
       0.042532876 -0.12538493 -0.09979578 0.14032118
0000f0 d1 06 47 bd b2 2f 6e 3e ba b0 f8 bd ba bd 0e bc
       -0.048590485 0.23260382 -0.12143083 -0.0087122265
000100 b9 85 8a 3b 96 9e 83 be 17 df 90 3c b0 2c cc 3c
       0.0042273668 -0.2570693 0.017684503 0.024923652
000110 59 5d 93 3c f5 03 db 3d 14 c4 af 3b ee 6b 4b 3e
       0.017988848 0.10694114 0.0053639505 0.1986539
000120 96 2b 21 3e f5 c7 87 bd 2f 16 0a be e9 bc af 3c
       0.15739283 -0.06629936 -0.13485025 0.021452384
000130 44 5e 32 3e 9c c8 9d 3d ba fb d3 3d 22 59 1c 3e
       0.17418772 0.07704279 0.103507474 0.15268376
000140 43 55 0e be 36 8e 79 bd 0a 31 6f be c0 1a a3 bd
       -0.13899712 -0.06092664 -0.2335855 -0.079640865
000150 fe 98 c9 bd f0 63 08 3e 52 05 3f bc bb e7 eb 3d
       -0.09843634 0.13319373 -0.011658983 0.115188085
000160 b5 bb e8 3d 75 fc ff bd b7 34 b6 ba f1 d3 72 3c
       0.11363927 -0.12499324 -0.0013901208 0.014821039
000170 3b 76 0d 3e d9 b6 05 3c a0 45 a1 3d a3 01 42 3e
       0.13814633 0.00816127 0.07874608 0.18945937
000180 b7 23 16 be 91 73 19 3e a9 d1 51 be 99 cc 27 bd
       -0.14662062 0.14985491 -0.20490135 -0.040966604
000190 7e 01 2c 3d af f1 45 3b fb 6a 8f 3d e0 4e d2 bd
       0.04199361 0.003020387 0.07002827 -0.102689505
0001a0 d6 11 4c bc b1 17 8b bd 53 4f 93 bd 5b 60 0b be
       -0.012455424 -0.06791628 -0.07192864 -0.13610975
0001b0 43 a2 17 3e f4 19 79 be 1b 4f 4d 3d 68 b3 f4 bd
       0.14807992 -0.24326307 0.05012427 -0.119482815
0001c0 59 43 8a 3d eb 4f e5 3c 36 6d af 3d 4e e2 cc bd
       0.06751127 0.02799221 0.08565752 -0.10004102
0001d0 85 4a 80 bd c7 df 04 be ce bb 76 be f1 28 03 be
       -0.062642135 -0.1297599 -0.2409508 -0.12808587
0001e0 d5 04 77 3e f6 45 9f 3c 54 9c 5c 3c 75 a6 29 be
       0.24122937 0.01944254 0.013465006 -0.16567405
0001f0 f4 3a 02 3b af 41 10 be 69 ec e5 3c d6 ab c6 bd
       0.0019871565 -0.14087556 0.02806683 -0.09700744

fc3.weight f4 [128, 128]
000000 a1 e3 02 be 1f ae 39 3d 5e ea a8 3d 74 66 c5 bd
       -0.12782146 0.04533207 0.08247827 -0.09638682
000010 45 f7 7a ba 60 5b a4 bd 11 71 00 be 6e 7a 15 3d
       -0.0009573589 -0.08025241 -0.12543131 0.03649371
000020 89 e3 0d bd d2 35 6a 3a 3c 17 dc 3b d6 6c e0 3c
       -0.034640823 0.00089344115 0.006716637 0.027395647
000030 78 93 a8 3d f2 5d ba 3d 8a eb 64 bd 71 bb 69 bd
       0.082312524 0.0909995 -0.05588869 -0.057063524
000040 94 77 47 be 3b da ed bb 20 86 0b 3d 49 9d 22 3e
       -0.19479209 -0.007258681 0.03406346 0.15880312
000050 5c 42 87 3d 72 12 92 bb ff 26 86 3d f0 00 ff 3d
       0.06604454 -0.0044577653 0.06550407 0.12451351
000060 0c 2b 05 be 0f 3c 9a bc 9f dd c1 3d b6 7c 95 bc
       -0.13004702 -0.018827466 0.09466099 -0.018247943
000070 8c 7c c9 bd 58 aa 25 3e ab 29 b5 bd 1d f1 e2 bd
       -0.098382086 0.16178262 -0.08845838 -0.11081145
000080 ba 39 8e bd da c7 c4 bc ac e4 a4 3d 95 15 3d bd
       -0.06944604 -0.024021078 0.08051428 -0.04616316
000090 ae 22 9e 3c 35 d3 03 3e 0d 03 f2 bc b0 f7 a0 bd
       0.019303646 0.12873538 -0.02954247 -0.07859743
0000a0 72 9c 5d bd 0a e7 5b 3d 0a 46 1b 3d 09 10 72 be
       -0.054104276 0.053687133 0.03790859 -0.2363893
0000b0 8b f7 21 be 02 ac 3b bc e7 9b 81 bd ef 1c 4e 3d
       -0.15817086 -0.011454584 -0.06328564 0.050320562
0000c0 7c bf 6d bc c7 88 36 bd 27 8d e5 bc 44 ba 7e bd
       -0.014510985 -0.044564035 -0.028021408 -0.062189355
0000d0 60 10 1c bd b2 dc 9c 3d c3 4f 91 3c bf 15 51 bd
       -0.038101554 0.07659282 0.017738229 -0.05104613
0000e0 03 41 86 3d 71 5a a5 bd 2e c9 f3 3d 67 60 8e bd
       0.06555369 -0.08073891 0.11903606 -0.06951981
0000f0 65 b6 ee bc e3 29 9d bd 27 16 cc bc 36 86 83 bd
       -0.029139707 -0.07674005 -0.024912907 -0.06422083
000100 16 ef 9a 3c 07 7d 02 bd 01 2d 73 3d c9 47 18 3e
       0.018912833 -0.031857517 0.05936909 0.14871134
000110 bc 42 04 3e 7b 59 03 be 8f 9f 5d 3d ba 3d 46 3e
       0.12916082 -0.12827103 0.054107245 0.19359484
000120 ca a9 17 be 64 ef c9 3d 6e 21 da bd 06 93 25 bd
       -0.14810863 0.09860113 -0.106509075 -0.040423416
000130 bb da e4 3c 25 97 c7 3c f6 aa c7 bd 9d 12 ad bd
       0.02793633 0.024364064 -0.09749405 -0.08450816
000140 72 e7 80 bd 27 a6 a4 3d e8 53 6a 3c 9f 1b 5b bd
       -0.06294145 0.080395035 0.014302231 -0.05349314
000150 e7 64 ce bc 66 10 ca bd a3 55 91 3d 66 0c 9a be
       -0.025194598 -0.09866409 0.07096412 -0.30087584
000160 09 6e 45 3c 99 31 ca bd 53 42 48 be fd 08 59 bd
       0.01205016 -0.09872741 -0.1955655 -0.052987088
000170 5c 4a 67 3b 41 34 c3 bc ae 3c 8a bd 11 ef 85 3d
       0.0035292124 -0.023828628 -0.06749855 0.06539739
000180 1e c2 11 be c7 11 3e 3d 16 16 6d 3a 84 12 f2 bc
       -0.14234206 0.046403673 0.00090441236 -0.029549845
000190 43 d5 5d 3c 3a b9 66 bc d5 da f1 bb 76 fd 61 bd
       0.013539615 -0.014082247 -0.007380823 -0.05517336
0001a0 a0 9f f9 3d 99 73 c7 bd 6c 94 bb 3d 7f 19 2d ba
       0.12188649 -0.097388454 0.091591686 -0.00066032255
0001b0 19 33 c5 3d 55 98 5b be 0b 08 b8 3d d4 fa 95 bd
       0.09628887 -0.21444829 0.08985909 -0.07323232
0001c0 2a 36 c6 3d cc a9 2b bd 05 af 98 bd 40 06 ca 3c
       0.096783 -0.041909978 -0.07455257 0.024661183
0001d0 65 42 d0 bd 08 9b 86 3c cd f6 90 bd 1d 7a 5e bc
       -0.10168914 0.016431347 -0.070783235 -0.013578919
0001e0 9c 8f 47 3c 5c 7d 96 3d dc 61 98 3d 03 56 83 bd
       0.012180235 0.07348129 0.0744054 -0.0641289
0001f0 98 91 95 3d 0b 83 34 3e 1b 77 6a bd 8a e5 5f 3d
       0.073031604 0.17628114 -0.057242494 0.054662265
000200 e1 18 08 3e 28 b6 7e 3d a6 35 26 3d 28 14 0d bd
       0.1329074 0.062185436 0.040578507 -0.03444305
000210 ba 0c 17 bd 02 19 b8 bd 33 03 2c 3d 40 00 10 be
       -0.03687737 -0.08989145 0.04199524 -0.14062595
000220 95 a5 d5 3d 51 17 02 3e c8 2a ab bd 7e 84 20 3c
       0.10431973 0.12704207 -0.08357769 0.009797214
000230 25 40 aa bd 7e b7 f4 bb 33 02 85 3d 02 01 69 3d
       -0.08313016 -0.007468163 0.0649456 0.056885727
000240 0a a0 84 be 89 4f 86 be 80 15 ac bc 46 ff 3b 3d
       -0.2590335 -0.26232556 -0.021006346 0.045897745
000250 dc dc 64 3c 2c 94 d6 bc 43 75 51 bc 15 3a cc bd
       0.013968673 -0.0261937 -0.012784305 -0.09972016
000260 05 f6 66 3e 54 ba b2 bc a0 2b 49 bd 5d df dd 3c
       0.22554787 -0.021817364 -0.04911387 0.027084047
000270 90 38 2e be 1d ea 41 3c 29 42 f4 bc c3 5b bf bd
       -0.17013764 0.011835602 -0.029816704 -0.09343674
000280 f9 ad 49 bc df 06 ba 3d 93 d5 5f bd b8 42 4a bd
       -0.012309545 0.09083342 -0.05464704 -0.049380034
000290 bb ba ef ba 2c 61 11 bd 27 76 a3 bc f2 9e a6 be
       -0.0018289903 -0.03549306 -0.0199538 -0.3254314
0002a0 5a 0b 3c be 5a c0 de bd 5e 14 0f bd 2f e1 b2 3c
       -0.18363705 -0.10876532 -0.034931533 0.021835892
0002b0 b5 7a 74 bc 62 53 88 3d 10 8d 78 3d bc 6d 52 be
       -0.014921834 0.06656529 0.060681403 -0.20549673
0002c0 da b5 21 3d 17 3a bd bd 89 c8 26 3e 28 c3 b7 3d
       0.039480068 -0.092395954 0.16287436 0.0897277
0002d0 87 41 81 bd 40 54 8e bb e3 1a 8e bd 30 6a 72 3d
       -0.063113265 -0.0043435395 -0.06938722 0.0591833
0002e0 20 5f a9 3d fa c1 5b bb 82 8e 2a 3d 8e ec 66 bc
       0.08270097 -0.0033532367 0.041639812 -0.014094485
0002f0 81 db 2d 3d ae ef 91 3c 70 40 1a 39 ca 31 05 3e
       0.042445663 0.017814483 0.0001471059 0.13007274
000300 b0 d0 30 3d d9 e1 19 bd 46 00 91 bd 63 65 d7 be
       0.04316777 -0.0375689 -0.0708013 -0.4206954
000310 0c a7 c0 bc 34 7d 9b 3d 68 dd be bc ee 85 4d 3d
       -0.023517154 0.0759224 -0.023298934 0.050176553
000320 b7 9f 92 3d b9 3f 85 bc 06 e1 99 bd 2d 45 c4 3d
       0.071593694 -0.016265737 -0.07513623 0.09583507
000330 73 58 df 3d 84 f1 c6 3c 3f 06 8a be 2f e6 c2 bc
       0.10905542 0.024285085 -0.2695789 -0.0237914
000340 f0 ab a9 3c 95 af bb bd 37 fa 8f bd 6b aa 44 be
       0.020711869 -0.09164349 -0.070301466 -0.19205634
000350 2d b5 a8 bc 58 3f a6 bd f4 a7 ae bd 79 7a 01 be
       -0.020594204 -0.081175506 -0.08528128 -0.12644376
000360 cd 93 26 be 69 01 64 3d d1 ce e6 3d 5e 9e 50 bc
       -0.16267319 0.055665407 0.11269916 -0.01273307
000370 8a 18 30 3d e6 f8 d2 3d 7e 31 80 3d c7 7e 1a 3e
       0.042992152 0.1030138 0.0625944 0.15087424
000380 1a e7 ce bc a3 80 f6 3d aa 0d e3 bc b1 17 0f 3d
       -0.025256682 0.12036254 -0.027716476 0.034934703
000390 da 3c 0d bd 0a 94 05 bd 4f 09 46 3b ce 3e 6f 3d
       -0.03448186 -0.032611884 0.003021795 0.058409505
0003a0 40 67 3a bd 4b 96 3f bd cb f9 18 be 3f dc 5b bc
       -0.045508623 -0.04677419 -0.14939038 -0.01341921
0003b0 a8 bb 36 3d 6e 9c b4 bb 2d df e0 bc 58 c2 8b 3c
       0.044612557 -0.005511812 -0.027450169 0.017060444
0003c0 75 7a a3 3c e2 26 b4 bc 24 93 58 bd 2a 40 f8 3d
       0.019955853 -0.021991197 -0.0528747 0.12121613
0003d0 9c 03 21 be 97 50 a0 3d 9d 09 31 bd f9 a3 42 3e
       -0.15724033 0.07827871 -0.04322206 0.19007863
0003e0 83 36 f1 3c 61 89 c9 3d 29 ad 40 bd 26 bc 7f 3d
       0.029444939 0.09840656 -0.04704014 0.06243529
0003f0 3d 57 be 3d 93 35 ca bd 8a 7a c4 3d a9 5f db bb
       0.09293983 -0.098735 0.09593685 -0.006694753

fc3.bias f4 [128]
000000 ee 1e f9 3d 91 53 40 be c7 90 0c 3e 73 ca 05 bd
       0.121641025 -0.18781878 0.13727103 -0.032663774
000010 cc 17 3d bd e9 b3 aa 3d 61 f7 d6 3e 6e ee 92 be
       -0.046165273 0.083350964 0.4198561 -0.28697532
000020 d2 7b 9b 3e b3 82 c1 bd a4 e6 9d 3e 86 12 69 3e
       0.30367905 -0.09448757 0.30840027 0.22760972
000030 0d 09 df bd 57 68 bf 3e e2 eb 38 be 0f 35 b4 3e
       -0.10890398 0.37384292 -0.18058732 0.3519673
000040 71 35 9b be a7 53 37 be 66 12 ed bc 5f de ab 3e
       -0.3031421 -0.17903005 -0.028939437 0.33568093
000050 6d 47 8d be b2 60 66 3e 8a 05 eb 3d cf 2f df 3e
       -0.27593556 0.22497824 0.11475666 0.43591163
000060 b3 33 e5 bd b4 ad e7 bd e7 ec 92 3d 26 be fc bd
       -0.111915015 -0.11312428 0.07174092 -0.123409554
000070 92 7b 63 be 62 7e 52 3e 19 13 75 3e 36 96 5b be
       -0.22215107 0.20556024 0.23933066 -0.2144402
000080 62 27 fc bd f7 ca bf 3d be 13 34 be 4b 61 b9 3e
       -0.12312199 0.09364884 -0.17585656 0.3620704
000090 1f 10 ad 3e 83 b1 82 be e1 8d 0b 3e 71 08 1c 3e
       0.33801362 -0.25526056 0.13628341 0.15237595
0000a0 93 3a 23 be 66 1c 83 be 08 c0 ef 3c a4 43 1c be
       -0.15940313 -0.25607604 0.029266372 -0.15260178
0000b0 1d 7b fb bc fd cd 8e 3e 8d 2f e7 3d cf 62 fc bd
       -0.030698353 0.27891532 0.112883665 -0.12323534
0000c0 ea d4 75 be 02 7b 18 be 9d 16 80 be eb c7 ef bd
       -0.24007002 -0.14890674 -0.25017253 -0.11708053
0000d0 4d c8 c3 3d 73 d6 85 be c2 7a 9d 3e 5a 81 40 be
       0.09559689 -0.26140174 0.3075772 -0.18799344
0000e0 a8 d2 96 be 91 f5 6f be ad 0c 66 be f1 f5 07 be
       -0.29457593 -0.2343352 -0.22465773 -0.13277413
0000f0 a8 b1 43 be db f5 6d 3e 47 55 85 3e 91 16 9c 3d
       -0.19110739 0.23238318 0.26041624 0.07621492
000100 5a d0 a7 bd ea e8 cc 3d cb 71 cf 3d 53 ce c8 3d
       -0.08194037 0.10005362 0.10129126 0.09804978
000110 44 d8 78 be 0a 9f 95 be a6 2d 17 be af 03 77 3c
       -0.24301249 -0.292229 -0.14763507 0.015076562
000120 9a bc 05 3e ac b8 b0 bd 0d 32 c2 3e ce 34 12 3e
       0.13060227 -0.08628973 0.3792881 0.14277956
000130 0d d1 99 be c9 30 25 be 96 52 51 be e6 d6 a7 3e
       -0.30042306 -0.16131891 -0.2044166 0.32781142
000140 ae 80 0e be 1b 3d 7b bd 25 2b 5a be c7 4a 62 be
       -0.13916275 -0.06133757 -0.21305521 -0.22098838
000150 76 49 0a 3e 1d 9e 81 3e f9 d2 11 be c5 97 fc 3d
       0.13504586 0.25315943 -0.14240636 0.12333635
000160 d7 34 f6 3d 7b 65 1d 3e ae 98 e4 bd 07 a8 2d 3d
       0.12021797 0.15370743 -0.11161934 0.04239657
000170 0c 85 a9 3e 01 b5 22 3c e6 8d 48 be 6a 31 36 3e
       0.3310932 0.00993085 -0.1958538 0.17792287
000180 38 87 35 3e 05 53 31 be 74 17 d4 bd 0f 21 df bd
       0.17727363 -0.17316826 -0.10356036 -0.10894977
000190 80 0c 76 be ae 60 7f be 9b 62 96 be 87 b1 d4 bc
       -0.24028206 -0.24939224 -0.29372105 -0.025963558
0001a0 f5 3d 96 3d b1 87 ca 3d 15 05 80 3e 24 4a 9b 3d
       0.07336036 0.09889162 0.25003877 0.075825006
0001b0 42 03 40 be 85 1b 65 bd be ab 90 3e 7e 8b 1a be
       -0.18751243 -0.055934448 0.2825603 -0.15092275
0001c0 97 cc 0b 3e 73 ef 6d be c9 a6 90 be c4 01 1a 3d
       0.13652264 -0.23235874 -0.28252247 0.03759934
0001d0 e4 f2 a6 bc 31 83 21 be 95 66 48 bd 5e c6 48 be
       -0.020379491 -0.15772702 -0.048925955 -0.19606921
0001e0 a4 e6 59 3d 9a 48 e7 3e c2 43 8c 3c 84 4c 91 bd
       0.05319847 0.45172578 0.017122153 -0.07094672
0001f0 5e 75 2b be 39 35 0f be be c3 fd 3d a9 f9 ae 3e
       -0.16743991 -0.13985147 0.123908505 0.3417485

fc4.weight f4 [1, 128]
000000 21 8f 0c 3e ac 14 fa bd b8 7c 06 3e e4 ad 3b be
       0.13726474 -0.12210974 0.13133514 -0.18328053
000010 ef 4b ba bd 2a 12 0d 3e 16 9e 25 3e 17 8f 0b be
       -0.090965144 0.1377646 0.16173586 -0.13628803
000020 da b5 00 3e 37 09 f4 bd e6 0f 2f 3e 8b 76 1a 3e
       0.12569371 -0.1191582 0.17095909 0.15084283
000030 01 17 21 be b4 eb f4 3d e0 e9 d1 bd 45 86 25 3e
       -0.15731432 0.11959019 -0.10249686 0.16164501
000040 db 2d 1f be 66 c9 62 be b7 88 08 be 51 36 25 3e
       -0.15544836 -0.2214714 -0.13333403 0.16134001
000050 db 0b 22 be 2a c4 07 3e d6 a5 51 3e 59 a8 20 3e
       -0.15824835 0.13258424 0.20473418 0.1568922
000060 a8 5b f5 bd 6b ba 3c be e4 1a 44 3e dd 0f 01 be
       -0.11980373 -0.18430488 0.19150883 -0.12603708
000070 4d e9 7c be 7e 39 2b 3e 79 fe 63 3e 0b 76 b9 bd
       -0.24698372 0.1672115 0.22265042 -0.09055718
000080 e3 57 e4 bd 91 07 5d 3e 85 f7 b8 bd c6 e5 39 3e
       -0.111495756 0.21584918 -0.090315856 0.18154058
000090 b9 38 1b 3e 26 39 54 be 65 fa ac 3d 63 1c 12 3e
       0.15158357 -0.20724925 0.084461965 0.14268641
0000a0 8d 42 0e be e7 f5 f0 bd fd 86 84 be 0b a6 50 be
       -0.13892575 -0.11765652 -0.25884238 -0.2037584
0000b0 26 b0 ec bd 45 48 56 3e 1d 56 47 3e 8f e4 5a be
       -0.11557035 0.20926006 0.19466443 -0.2137625
0000c0 b0 57 2c be e4 0b 97 bd e6 8b c5 bd 4d aa ad bd
       -0.16830325 -0.07375315 -0.09645824 -0.08479748
0000d0 f0 1d e7 3d 3c 89 38 be 80 76 1a 3e bf 94 ab be
       0.11285007 -0.18021101 0.15084267 -0.33511922
0000e0 0e 96 0c be 04 d5 17 be ff eb 83 be 64 d8 bd bd
       -0.13729116 -0.14827353 -0.25765988 -0.09269789
0000f0 e5 66 00 be f4 01 0f 3e cd 31 55 3e 13 1d f6 3d
       -0.12539251 0.13965589 0.20819779 0.12017264
000100 89 eb b1 bd 7d ca 46 3e b0 ef 15 3e 26 e2 de 3d
       -0.08687503 0.1941318 0.14642215 0.10882978
000110 d6 46 ff bd be a7 89 be d6 5f d5 bd 71 1c f8 bd
       -0.12464683 -0.2688579 -0.1041867 -0.121148
000120 c9 7b 13 3e b2 1b 9b be 47 65 50 3e 86 6a ff 3d
       0.14402689 -0.30294567 0.20351134 0.124714896
000130 9f 81 a6 be 4e c5 19 be 2e d7 cb bd 82 5e 17 3e
       -0.32520768 -0.15016672 -0.09953152 0.14782146
000140 ab 33 28 be 3b e6 37 be f1 9a 49 be 9c 92 97 be
       -0.1642596 -0.1795892 -0.19688012 -0.29604042
000150 ea 4d ea 3d 0b e1 77 3e e6 3b d2 bd 60 d0 31 3e
       0.11440642 0.24206941 -0.10265331 0.17364645
000160 33 03 02 3e c3 8b f4 3d 1f b6 9a bd 13 e7 21 3e
       0.12696533 0.1194072 -0.07554268 0.15810804
000170 64 58 68 3e 79 ab 29 3e 0a c2 ee bd c5 b3 e7 3d
       0.22689968 0.16569318 -0.11658104 0.11313585
000180 da a9 eb 3d ff 75 86 bd b5 57 0b be 76 9f 91 be
       0.11507006 -0.06565475 -0.13607676 -0.28441972
000190 10 b2 6a be da d8 1b be 01 03 79 be bd 12 ff bd
       -0.22919488 -0.15219441 -0.24317552 -0.12454746
0001a0 10 ce 35 3e 16 81 49 3e e5 dc 51 3e c3 c3 2c 3e
       0.17754388 0.19678149 0.20494421 0.16871552
0001b0 20 44 cf bd 70 e0 b0 bd 2a d1 25 3e 10 2c bd bd
       -0.10120416 -0.08636558 0.16193071 -0.0923692
0001c0 42 fa e7 3d f7 d1 f6 bd b7 9f 6c be 37 f6 e1 3d
       0.1132703 -0.12051766 -0.23107801 0.1103329
0001d0 3c e5 f9 bd 89 ff 8d be 44 4d f4 bd 29 c7 ba bd
       -0.12201926 -0.2773402 -0.119288 -0.09120018
0001e0 12 37 f3 3d a0 be 24 3e ec ba 02 3e 3e e3 5c be
       0.11875738 0.16088343 0.12766618 -0.21571061
0001f0 67 81 a1 be 67 c1 e2 bd 7d 07 26 3e b0 2b 63 3e
       -0.3154404 -0.11072045 0.16213794 0.22184634
